model/keypoint_classifier/keypoint_classifier.tflite (tflite, 36368 bytes, 9 tensors)

sequential/dense_2/MatMul f4 [50, 10]
-0.036864888 -0.08296312 0.0215978 -0.08452867 -0.0925526 -0.19512932 0.09936633 0.1726815
0.060072478 -0.027810046 -0.2549144 -0.2992955 -0.054144714 -0.11077265 -0.14339146 -0.10549397
-0.20747845 -0.09408224 -0.14672303 0.26397416 0.018959465 -0.07477531 0.06262538 0.04661082
0.14940313 -0.052520912 -0.148976 0.043341294 0.19419044 -0.10841216 0.057797123 0.045874026
-0.1314137 0.24780251 0.10637165 -0.17363986 0.2163268 0.08748318 0.19803388 -0.2228348
0.25963652 0.026578503 -0.014414062 0.2541807 0.300436 -0.1629996 -0.03835655 0.106160745
-0.17197993 0.22651471 -0.20958142 0.12786148 0.25695467 0.05494524 0.14513576 -0.1884765
0.18072933 -0.25181636 -0.06453266 -0.22128661 -0.107628815 -0.21281944 0.17622449 -0.07941092
-0.14621484 -0.29311413 0.13819341 -0.24002539 0.19927086 -0.08611747 -0.03121103 0.26271203
-0.046614412 0.07028785 -0.20940052 -0.034140356 0.14620996 0.14652027 -0.19197989 -0.2922873
-0.26508716 0.22860661 -0.23498511 0.01092106 -0.09780787 -0.04660103 -0.21318853 -0.30281225
0.06841175 -0.023262378 -0.0953277 0.2510149 -0.16812506 -0.19969502 -0.26645413 0.19785771
-0.05574872 -0.07580012 0.16298902 0.2830443 0.18974017 -0.296675 -0.19046019 0.23874383
0.18540752 -0.11321086 0.004473848 -0.07583741 0.016813755 -0.060465593 -0.28138423 -0.14578502
-0.16227801 -0.21682815 -0.21235701 0.19163138 -0.25492382 0.012826442 0.12981291 -0.23226658
0.10756177 0.18191022 0.10606956 -0.11208524 -0.16434625 -0.14197114 -0.042138755 0.2297161
-0.26572067 0.19670354 0.2635168 0.28419164 -0.22282243 -0.029339153 -0.14252093 -0.2563985
0.062072307 -0.2510434 -0.11705182 0.24485573 -0.03583242 -0.014065306 -0.25771764 0.20695746
-0.055526882 0.044585463 0.26428834 -0.06324473 -0.2234765 0.17546551 0.0027092067 -0.086160295
0.091403484 -0.0052737263 -0.11855937 0.006888923 0.03368603 -0.14490144 -0.15795702 -0.11723672
0.17333244 0.2864751 -0.25737712 0.05740887 -0.07966267 -0.08609947 0.13570698 0.18765303
0.033560116 0.033989277 -0.1608085 0.19251253 0.2456154 0.091586806 0.12680861 -0.22209547
-0.21878463 -0.1585031 -0.04690222 -0.24589093 0.23676585 0.020613085 0.294451 -0.056895193
-0.006284467 0.16161095 0.05754725 -0.19676213 0.17466255 -0.21796107 -0.062379427 0.15487713
-0.19591862 0.13978888 0.17095871 -0.2855892 0.21870564 0.017881103 0.20176297 -0.015140134
-0.19834235 0.28745097 -0.10229549 -0.2241875 -0.08173305 0.102860585 -0.014052145 -0.20284738
-0.027350625 0.23566863 -0.20615974 0.025304085 -0.13376327 0.2525327 0.027994618 -0.22368257
-0.028666897 0.2731038 0.26738116 -0.12801538 -0.14389506 0.21230157 0.020412736 0.104116164
-0.20456982 0.053271677 0.2601683 0.18480699 0.02755198 -0.20583054 0.030901123 0.0526682
0.11282389 -0.03886024 -0.13525616 0.18519144 0.20427902 0.24365555 0.018951507 -0.29394546
0.1240234 -0.26765007 -0.07027515 0.2674796 0.26086932 0.1753965 -0.30123556 0.18869041
0.00691521 0.09992164 -0.12354548 0.015211248 -0.25086668 -0.1530549 -0.04176671 -0.15611014
00000000: a3ff 16bd 91e8 a9bd dfed b03c 5e1d adbd
00000010: 388c bdbd fbcf 47be 9380 cb3d 6bd3 303e
00000020: 8f0e 763d e5d1 e3bc 2484 82be 433d 99be
00000030: d9c6 5dbd c5dc e2bd 36d5 12be 390d d8bd
00000040: 3b75 54be 30ae c0bd 903e 16be 9f27 873e
00000050: e150 9b3c cc23 99bd bc41 803d fdea 3e3d
00000060: 22fd 183e 2b20 57bd 2a8d 18be a486 313d
00000070: dcd9 463e 3207 debd adbc 6c3d 67e6 3b3d
00000080: 5091 06be f1bf 7d3e 61d9 d93d a6ce 31be
00000090: c684 5d3e 622a b33d 65c9 4a3e ce2e 64be
000000a0: 14ef 843e 29bb d93c f528 6cbc f923 823e
000000b0: bfd2 993e 5ee9 26be c21b 1dbd ce6a d93d
000000c0: 821b 30be 79f3 673e 839c 56be 1fee 023e
000000d0: 908f 833e 430e 613d 789e 143e fcff 40be
000000e0: 1c11 393e 13ee 80be b329 84bd f598 62be
000000f0: 7f6c dcbd 57ed 59be 3174 343e 31a2 a2bd
00000100: 58b9 15be 0e13 96be 9382 0d3e 37c9 75be
00000110: a90d 4c3e 5b5e b0bd 46ae ffbc 3182 863e
00000120: c1ee 3ebd 14f3 8f3d 176d 56be c2d6 0bbd
00000130: 10b8 153e 6909 163e 6096 44be aea6 95be
00000140: 81b9 87be da17 6a3e f09f 70be 3fee 323c
00000150: 7e4f c8bd b9e0 3ebd 184e 5abe 350a 9bbe
00000160: 761b 8c3d be90 bebc 2b3b c3bd 0685 803e
00000170: fa28 2cbe da7c 4cbe ad6c 88be 369b 4a3e
00000180: c558 64bd 183d 9bbd 98e6 263e 2feb 903e
00000190: 3f4b 423e c9e5 97be ff07 43be 4379 743e
000001a0: 78db 3d3e 18db e7bd 5b99 923b a550 9bbd
000001b0: 00bd 893c c5aa 77bd 9811 90be ab48 15be
000001c0: 352c 26be 3308 5ebe 1e74 59be 043b 443e
000001d0: 6085 82be ff25 523c aded 043e 4ad7 6dbe
000001e0: 5849 dc3d ac46 3a3e ff3a d93d f28c e5bd
000001f0: 624a 28be e260 11be b099 2cbd b33a 6b3e
00000200: 8a0c 88be a76c 493e adeb 863e 9181 913e
00000210: 902b 64be aa58 f0bc 02f1 11be aa46 83be
00000220: 883f 7e3d c388 80be ddb8 efbd 76bb 7a3e
00000230: 04c5 12bd 2b72 66bc 91f3 83be a8ec 533e
00000240: 2870 63bd 3f9f 363d cd50 873e 7486 81bd
00000250: 06d7 64be 3bad 333e f28c 313b cf74 b0bd
00000260: c031 bb3d 39cf acbb 41cf f2bd 79bc e13b
00000270: 5dfa 093d 0b61 14be 7cbf 21be ce19 f0bd
00000280: 0f7e 313e ddac 923e efc6 83be 9025 6b3d
00000290: 2f26 a3bd eb54 b0bd c5f6 0a3e 1e28 403e
000002a0: 5576 093d 5738 0b3d fcaa 24be 0122 453e
000002b0: 9a82 7b3e dd91 bb3d 1eda 013e ff6c 63be
000002c0: 1409 60be a34e 22be 8b1c 40bd d5ca 7bbe
000002d0: bf72 723e c6dc a83c 48c2 963e ef0a 69bd
000002e0: eeed cdbb 577d 253e aab6 6b3d 037c 49be
000002f0: bdda 323e 3031 5fbe 9281 7fbd 1c98 1e3e
00000300: e49e 48be d124 0f3e cd0f 2f3e bf38 92be
00000310: 5ff4 5f3e 647b 923c f49a 4e3e 530e 78bc
00000320: 421a 4bbe c62c 933e 4c80 d1bd 6891 65be
00000330: a863 a7bd 92a8 d23d f83a 66bc 39b7 4fbe
00000340: 6b0e e0bc 1e53 713e 8a1b 53be 834a cf3c
00000350: 3df9 08be f74b 813e f854 e53c 0b0d 65be
00000360: d7d6 eabc 43d4 8b3e 2fe6 883e 7716 03be
00000370: 3a59 13be 9565 593e 9c38 a73c db3a d53d
00000380: c07a 51be 6733 5a3d c834 853e 0b3e 3d3e
00000390: b1b4 e13c 3ec5 52be 5a24 fd3c 9cba 573d
000003a0: 3610 e73d ea2b 1fbd 9780 0abe d3a2 3d3e
000003b0: 852e 513e d780 793e 3140 9b3c 0580 96be
000003c0: fbff fd3d 6e09 89be 6bec 8fbd 16f3 883e
000003d0: aa90 853e 249b 333e 8c3b 9abe 0f38 413e
000003e0: fc98 e23b b7a3 cc3d 6a05 fdbd 9938 793c
000003f0: 9971 80be 6cba 1cbe 9213 2bbd 56db 1fbe

sequential/dense_1/MatMul f4 [10, 32]
0.3398594 -0.20088893 -0.13421455 -0.12967958 -0.25592977 -0.08427416 -0.33520418 -0.094580725
-0.22063169 0.31490782 -0.022022046 -0.33902436 0.060820717 -0.1471905 0.052043304 0.12371946
0.20500739 0.3428384 0.06044846 -0.28070018 -0.08083031 -0.31760812 -0.11175241 -0.08252817
0.32399908 -0.22873159 -0.18712299 0.029103026 0.3545046 -0.16925418 -0.28704652 0.31615114
-0.109938025 -0.006324704 0.28309214 0.012609634 0.078610115 -0.12522773 -0.34076384 0.003984237
-0.27081263 -0.0108221285 0.25749615 0.15704627 -0.21827036 0.26429605 0.045285396 0.037677385
0.028846862 0.049987733 0.07217074 -0.2147066 -0.08606617 -0.060901597 -0.066405326 0.07081282
0.08534144 -0.31956598 -0.25993413 0.008305815 0.075270236 -0.13507372 0.34760806 0.0631618
0.34010294 -0.01996033 0.025936242 0.18572026 0.2041145 0.16281463 0.19425987 -0.20477447
0.19910446 0.19377926 0.251811 0.35920042 0.2794437 0.24035995 -0.008029183 0.23208642
0.30031806 0.11129334 0.008987582 0.33457473 -0.33831602 -0.06333833 0.3380641 -0.100665174
0.25381035 0.3441679 0.23794994 -0.021198312 -0.32018983 -0.19179618 -0.17526291 -0.16720654
-0.09812967 0.34254384 -0.3445184 -0.25302547 -0.08170088 0.11752123 0.086189054 0.14620541
-0.14398523 -0.21766903 -0.15998054 0.1276252 0.22862157 0.32880855 -0.22696492 -0.19709961
0.23454955 0.053505134 -0.22382985 0.34945777 0.2057169 -0.07258733 -0.0017064753 -0.2719669
-0.11502139 0.19550796 0.03894041 -0.10565926 -0.18648076 0.31347376 0.34240878 0.13475001
0.29988402 -0.3311147 0.30672497 -0.28376237 -0.25492057 -0.1492479 -0.2645529 -0.3486977
-0.009159329 -0.10269099 -0.1665126 0.34314793 -0.01039434 -0.2053328 0.12684141 0.14206736
0.047904972 -0.042976208 -0.2754779 -0.00087709597 -0.074419096 -0.10820439 0.2005211 0.06681476
-0.10005875 -0.25647128 -0.044433273 -0.039197087 -0.054539453 0.31847316 0.10599556 0.017339159
-0.07730476 -0.20275247 -0.024344014 -0.03587468 -0.009720331 0.22247824 0.04493302 0.2118621
-0.27974916 0.06800451 -0.2149527 -0.15679955 -0.3610472 -0.09644909 -0.28597045 0.27441478
-0.11353169 -0.034577534 -0.35004857 -0.13643436 0.27598855 0.25368842 -0.21467423 -0.26478824
-0.005568375 -0.27396378 0.18289948 -0.34071094 0.278028 0.33365935 0.32639515 0.15011908
0.13715668 0.2976369 -0.10438952 -0.25711474 -0.32059434 -0.063264035 -0.049342267 0.2538368
0.19288003 -0.06262258 -0.2158562 0.12282273 0.10420189 0.3005009 0.20048183 0.103494264
-0.3010082 -0.2799111 0.024343172 0.14737138 -0.3331987 -0.23576039 0.17071599 0.20261835
-0.28391048 -0.17658934 0.13066556 -0.19318098 -0.19031297 -0.10157231 -0.27435693 -0.11729892
0.1315427 0.26489767 0.29532123 0.08852694 0.03485754 -0.13366741 -0.35929587 -0.16372576
0.32850617 -0.26540425 -0.048335467 0.33414844 0.026833344 0.24522063 0.035603266 0.11616769
0.24532014 0.062011346 -0.14707144 -0.2773437 0.20185721 -0.11119225 -0.09587135 0.043849576
-0.18666588 -0.32789046 -0.1872989 -0.15665963 0.14159133 -0.005994736 0.29223534 -0.26836714
00000000: 0d02 ae3e d4b5 4dbe 8a6f 09be b9ca 04be
00000010: 3a09 83be ee97 acbd e29f abbe 8ab3 c1bd
00000020: 46ed 61be 993b a13e 9467 b4bc 9a94 adbe
00000030: 251f 793d 1bb9 16be 5c2b 553d a160 fd3d
00000040: 75ed 513e 8488 af3e ce98 773d efb7 8fbe
00000050: 5d8a a5bd 889d a2be 73de e4bd 8704 a9bd
00000060: 35e3 a53e 9d38 6abe 2b9d 3fbe 7869 ee3c
00000070: a081 b53e f850 2dbe c3f7 92be 90de a13e
00000080: 3027 e1bd 763f cfbb 74f1 903e a398 4e3c
00000090: 57fe a03d b33b 00be 9978 aebe 348e 823b
000000a0: f4a7 8abe 4c4f 31bc 89d6 833e bdd0 203e
000000b0: 4482 5fbe d051 873e 2e7d 393d 9a53 1a3d
000000c0: 4150 ec3c f0bf 4c3d 41ce 933d 0cdc 5bbe
000000d0: 7643 b0bd f473 79bd 84ff 87bd 5006 913d
000000e0: 7ec7 ae3d 279e a3be 1616 85be 1d15 083c
000000f0: 4827 9a3d c450 0abe aff9 b13e f95a 813d
00000100: f921 ae3e d983 a3bc 3e78 d43c 742d 3e3e
00000110: 6403 513e e1b8 263e 0fec 463e 66b0 51be
00000120: 0ae2 4b3e 126e 463e 5fed 803e 1ee9 b73e
00000130: 3f13 8f3e eb20 763e d68c 03bc 10a8 6d3e
00000140: 4ac3 993e c3ed e33d a740 133c 614d ab3e
00000150: c237 adbe 87b7 81bd bd16 ad3e 8b29 cebd
00000160: 6ef3 813e c636 b03e 26a9 733e 15a8 adbc
00000170: ecef a3be 3866 44be 1f78 33be 3138 2bbe
00000180: 35f8 c8bd e861 af3e b764 b0be 8e8c 81be
00000190: ca52 a7bd f8ae f03d e383 b03d dfb6 153e
000001a0: dd70 13be a1e4 5ebe f0d1 23be 2eb0 023e
000001b0: c61b 6a3e 9859 a83e 7e69 68be 7bd4 49be
000001c0: c22d 703e 3328 5b3d a733 65be 21ec b23e
000001d0: 73a7 523e aba8 94bd cfab dfba 3f3f 8bbe
000001e0: 5690 ebbd 3d33 483e fb7f 1f3d e263 d8bd
000001f0: d0f4 3ebe a27f a03e 3450 af3e e8fb 093e
00000200: 668a 993e de87 a9be 0e0b 9d3e 4d49 91be
00000210: f384 82be 71d4 18be 7a73 87be 8188 b2be
00000220: 0311 16bc a74f d2bd 4782 2abe 16b1 af3e
00000230: 064d 2abc c342 52be b7e2 013e 1b7a 113e
00000240: 0138 443d d207 30bd 700b 8dbe eaec 65ba
00000250: 0a69 98bd 439a ddbd 6755 4d3e 2dd6 883d
00000260: 9aeb ccbd 3450 83be aaff 35bd 208d 20bd
00000270: c364 5fbd ea0e a33e 3314 d93d da0a 8e3c
00000280: f551 9ebd 589e 4fbe 196d c7bc 54f1 12bd
00000290: 0642 1fbc 56d1 633e b00b 383d 61f2 583e
000002a0: 483b 8fbe f345 8b3d 901c 5cbe 1090 20be
000002b0: 2edb b8be 1a87 c5bd b86a 92be 1880 8c3e
000002c0: 4d83 e8bd 2ca1 0dbd 9139 b3be 73b5 0bbe
000002d0: 5f4e 8d3e 73e3 813e 90d3 5bbe 5392 87be
000002e0: ea76 b6bb fb44 8cbe 004a 3b3e aa71 aebe
000002f0: b059 8e3e 66d5 aa3e 441d a73e d1b8 193e
00000300: cd72 0c3e dd63 983e 2cca d5bd 8ba4 83be
00000310: f124 a4be 9390 81bd 1e1b 4abd e6f6 813e
00000320: 5882 453e 4440 80bd 6809 5dbe 7c8a fb3d
00000330: cd67 d53d 41db 993e 1c4b 4d3e cdf4 d33d
00000340: bf1d 9abe 8250 8fbe 556b c73c 86e8 163e
00000350: 0599 aabe 2c6b 71be 2cd0 2e3e 2f7b 4f3e
00000360: b75c 91be d6d3 34be 31cd 053e 3cd1 45be
00000370: 67e1 42be 2505 d0bd 8378 8cbe 6b3a f0bd
00000380: 21b3 063e aba0 873e 5834 973e 9d4d b53d
00000390: c8c6 0e3d 1ce0 08be a1f5 b7be baa7 27be
000003a0: f631 a83e 11e3 87be 69fb 45bd 8115 ab3e
000003b0: 9ad1 db3c 1e1b 7b3e bbd4 113d 53e9 ed3d
000003c0: 3435 7b3e 9cff 7d3d e599 16be feff 8dbe
000003d0: a8b3 4e3e c3b8 e3bd 3358 c4bd 9d9b 333d
000003e0: 5725 3fbe 42e1 a7be 48cb 3fbe 626b 20be
000003f0: 51fd 103e 7e6f c4bb df9f 953e 6b67 89be

sequential/dense_2/MatMul;sequential/dense_2/BiasAdd f4 [50]
-0.00012182198 -0.00014999641 -7.980426e-05 -0.00012744835 -0.00019247386 -0.00016665019 -7.554474e-05 -0.0001675504
-0.00016688963 -0.00016056623 -0.00014858646 -9.280931e-05 -0.0001746316 -0.00024137304 -0.00024444147 -0.00013862447
-0.00018539841 -0.00010469915 -6.601056e-05 -0.00018327833 -0.00022050257 -8.010014e-05 -0.00012662119 -0.0001034803
-9.814726e-05 -0.00020969407 -5.5744888e-05 -9.035978e-05 -0.00018500915 -0.00027007173 -0.00012968379 -0.00010976114
-0.00017355553 -0.000131232 -0.00017851057 -0.00021722862 -0.00010824477 -8.644197e-05 -0.0001678213 -0.00024352236
-3.607513e-05 -0.0002162921 -0.00014004123 -6.2234016e-05 -5.789684e-05 -4.0308434e-05 -9.014137e-05 -7.999069e-05
-0.00012799335 -0.000289508
00000000: ad7a ffb8 5b48 1db9 965c a7b8 a8a3 05b9
00000010: cfd2 49b9 d2be 2eb9 c66d 9eb8 78b0 2fb9
00000020: 18ff 2eb9 ab5d 28b9 e0cd 1bb9 9ea2 c2b8
00000030: 501d 37b9 1519 7db9 6128 80b9 b95b 11b9
00000040: 8267 42b9 ee91 dbb8 266f 8ab8 672e 40b9
00000050: b536 67b9 6ffb a7b8 9ec5 04b9 9003 d9b8
00000060: 69d4 cdb8 53e1 5bb9 9ecf 69b8 8a7f bdb8
00000070: 04ff 41b9 6a98 8db9 bafb 07b9 902f e6b8
00000080: 75fc 35b9 529b 09b9 912e 3bb9 ddc7 63b9
00000090: 7801 e3b8 2e48 b5b8 30f9 2fb9 095a 7fb9
000000a0: 604f 17b8 78cc 62b9 08d8 12b9 a283 82b8
000000b0: 42d6 72b8 da10 29b8 480a bdb8 adc0 a7b8
000000c0: f435 06b9 1bc9 97b9

sequential/lstm/Read_2/ReadVariableOp f4 [256]
-0.006322946 -0.004768231 -0.0013459729 -0.011923876 -0.0075589255 -0.0040252837 -0.0012242506 -0.004285585
-0.004562125 -0.0071336976 -0.004523366 -0.0022816705 -0.008922027 -0.01342475 -0.0009800092 -0.0032431684
-0.008394684 -0.0031432267 -0.0028113204 -0.00184143 -0.009781715 -0.0028417467 0.0002055297 -0.009878244
-0.0008091239 -0.0029265468 -0.0042782016 -0.00038060383 -0.005087375 -0.010527378 -0.003095435 -0.00894343
-0.00813639 -0.0039062556 -0.0023043968 -0.0048631434 -0.006868126 -0.0014718227 -0.005704207 -0.010374967
-0.0022827578 -0.000664309 -0.0035357939 0.00026719176 -0.008933599 -0.0064853183 -0.009267508 -0.0011378514
-0.002904491 -0.0034799771 -0.009704133 -0.0007532664 -0.00084434974 -0.0018387355 -0.0064513003 -0.001627967
-0.00087967096 -0.006631111 -0.00433621 -0.004173583 -0.005168008 -0.0071659083 -0.011222669 -0.003455172
0.99153596 0.99343187 0.99811167 0.98470277 0.98807347 0.9942348 0.99825585 0.9941289
0.9933217 0.99020135 0.9931773 0.9968229 0.9884135 0.98136634 0.9987071 0.99560463
0.988759 0.9959385 0.9959139 0.99759334 0.98665047 0.9959943 1.0004902 0.987374
0.99896413 0.9953015 0.99354786 0.99945146 0.99292666 0.98602456 0.9961176 0.98658705
0.9886916 0.99537903 0.9970808 0.99293214 0.9904822 0.99779725 0.99160874 0.986084
0.9965286 0.99914783 0.9949364 1.0003592 0.9876964 0.9900751 0.98787975 0.99826396
0.9960822 0.9952098 0.98652595 0.9988095 0.9984128 0.99752766 0.9905388 0.99773127
0.9988461 0.99019045 0.99420303 0.99411464 0.99294555 0.9890898 0.983768 0.9954573
-0.04415301 0.007550598 -0.005141441 0.045119423 -0.005672106 -0.015615365 -0.0036884397 0.018368704
-0.048962824 -0.043009017 0.005532302 0.009974052 -0.055636927 -0.042575944 0.011330934 -0.0006569964
-0.034919918 -0.019588547 0.025813252 -0.008235524 0.038295943 0.0071773776 0.011859875 0.014407901
0.020325165 -0.019855184 0.01463154 0.015545123 -0.004922137 -0.0044222292 -0.03296608 0.014744208
0.016330006 -0.0049873875 0.015141531 0.0026103465 0.037135594 -0.008401859 -0.053586047 -0.028947048
-0.012723791 0.0036177412 0.017480262 0.0124867605 -0.015464047 0.018545697 -0.014299853 -0.03612193
0.025429578 0.014888547 0.0041747526 0.016602233 -0.008618516 0.019734489 0.044651832 0.018958569
-0.010711084 0.009259809 -0.03608818 0.011250123 0.013994704 0.013147903 0.032794286 0.017782576
-0.006002768 -0.004604944 -0.0014270371 -0.012212329 -0.0081349285 -0.0043152478 -0.0011516984 -0.0041292515
-0.00511177 -0.0068240375 -0.0048297066 -0.0023086225 -0.008013 -0.014213514 -0.0009956079 -0.0032231803
-0.0077580665 -0.0033109393 -0.0025403835 -0.0018454185 -0.010684087 -0.0026969907 0.00024967158 -0.009519836
-0.00078931596 -0.003157947 -0.0047071283 -0.00035253592 -0.0050346116 -0.010519376 -0.0030556177 -0.009470608
-0.0076398114 -0.003693188 -0.002103492 -0.004973433 -0.0073308405 -0.0015482199 -0.006283247 -0.0102857845
-0.002314005 -0.00062642904 -0.0034344948 0.00029078036 -0.008930147 -0.006883727 -0.009516921 -0.001105863
-0.0027655899 -0.0032400363 -0.009637709 -0.00076976186 -0.00083896413 -0.0018090463 -0.0068408675 -0.0015767901
-0.00092635915 -0.007164177 -0.0042278417 -0.003976786 -0.0052521727 -0.007511295 -0.012040602 -0.0031922725
00000000: b730 cfbb d23e 9cbb 5b6b b0ba 5c5c 43bc
00000010: ddb0 f7bb 87e6 83bb 0977 a0ba 186e 8cbb
00000020: e17d 95bb cbc1 e9bb bf38 94bb 1488 15bb
00000030: b22d 12bc 7cf3 5bbc a773 80ba 568b 54bb
00000040: db89 09bc 98fe 4dbb 213e 38bb 235c f1ba
00000050: 7d43 20bc 993c 3abb 7583 5739 5cd8 21bc
00000060: 631b 54ba 4fcb 3fbb 2830 8cbb c88b c7b9
00000070: ffb3 a6bb 067b 2cbc c8dc 4abb 7787 12bc
00000080: 7e4e 05bc 0c00 80bb 5d05 17bb 015b 9fbb
00000090: 040e e1bb 2dea c0ba 5bea babb c4fb 29bc
000000a0: 529a 15bb 0625 2eba c7b8 67bb df15 8c39
000000b0: 3b5e 12bc cb82 d4bb bfd6 17bc f523 95ba
000000c0: 4659 3ebb 5410 64bb 15fe 1ebc da76 45ba
000000d0: 5a57 5dba ba01 f1ba 6e65 d3bb 8261 d5ba
000000e0: b899 66ba ca49 d9bb c416 8ebb 8dc2 88bb
000000f0: 6558 a9bb ffcf eabb 49df 37bc 2b70 62bb
00000100: 4dd5 7d3f 8d51 7e3f 3f84 7f3f 7b15 7c3f
00000110: 62f2 7c3f 2c86 7e3f b28d 7f3f 3b7f 7e3f
00000120: 554a 7e3f d67d 7d3f de40 7e3f c92f 7f3f
00000130: ab08 7d3f d33a 7b3f 45ab 7f3f f2df 7e3f
00000140: 4f1f 7d3f d3f5 7e3f 37f4 7e3f 4762 7f3f
00000150: 2095 7c3f 7cf9 7e3f 1010 803f 8bc4 7c3f
00000160: 1dbc 7f3f 14cc 7e3f 2759 7e3f 0ddc 7f3f
00000170: 7130 7e3f 1b6c 7c3f 9001 7f3f f890 7c3f
00000180: e51a 7d3f 29d1 7e3f b040 7f3f cd30 7e3f
00000190: 3e90 7d3f a46f 7f3f 12da 7d3f 0070 7c3f
000001a0: 801c 7f3f 27c8 7f3f 27b4 7e3f c50b 803f
000001b0: acd9 7c3f 9075 7d3f b0e5 7c3f 3a8e 7f3f
000001c0: 3eff 7e3f 12c6 7e3f f78c 7c3f fbb1 7f3f
000001d0: fb97 7f3f f95d 7f3f f393 7d3f 516b 7f3f
000001e0: 61b4 7f3f 1f7d 7d3f 1784 7e3f 4c7e 7e3f
000001f0: ae31 7e3f fd34 7d3f 38d8 7b3f 4ad6 7e3f
00000200: c9d9 34bd 026b f73b 8879 a8bb 25cf 383d
00000210: 13dd b9bb 96d7 7fbc c0b9 71bb f779 963c
00000220: 3e8d 48bd 392a 30bd 5048 b53b 356a 233c
00000230: 8ce3 63bd 1d64 2ebd 62a5 393c 483a 2cba
00000240: 3008 0fbd 2978 a0bc 5076 d33c 4bee 06bc
00000250: 35dc 1c3d 3530 eb3b ec4f 423c 1e0f 6c3c
00000260: f680 a63c 57a7 a2bc 20b9 6f3c f9b0 7e3c
00000270: e149 a1bb 59e8 90bb 7107 07bd b191 713c
00000280: 81c6 853c 3d6d a3bb 2f14 783c 5912 2b3b
00000290: 7e1b 183d f3a7 09bc 0b7d 5bbd 5c22 edbc
000002a0: 7377 50bc a017 6d3b c432 8f3c 4595 4c3c
000002b0: ea5c 7dbc 25ed 973c ee49 6abc 97f4 13bd
000002c0: b151 d03c 18ef 733c 5dcc 883b 6801 883c
000002d0: ad34 0dbc 39aa a13c d7e4 363d 004f 9b3c
000002e0: 8b7d 2fbc 74b6 173c 33d1 13bd 7052 383c
000002f0: 0b4a 653c 4d6a 573c 4d53 063d c4ac 913c
00000300: deb2 c4bb 12e5 96bb 6b0b bbba 3816 48bc
00000310: 5d48 05bc ec66 8dbb 96f4 96ba ac4e 87bb
00000320: a280 a7bb 2d9c dfbb 8442 9ebb 424c 17bb
00000330: f548 03bc ccdf 68bc 0f7f 82ba fe3b 53bb
00000340: 6137 febb 58fc 58bb 907c 26bb f8e1 f1ba
00000350: 4f0c 2fbc ffbf 30bb 5ae6 8239 16f9 1bbc
00000360: 19ea 4eba 8ff5 4ebb 413e 9abb 92d4 b8b9
00000370: 62f9 a4bb 7659 2cbc c240 48bb 9c2a 1bbc
00000380: 6257 fabb 6a09 72bb bdda 09bb 2ef8 a2bb
00000390: 8c37 f0bb a4ed caba b2e3 cdbb b585 28bc
000003a0: 90a6 17bb f136 24ba 4315 61bb e173 9839
000003b0: c04f 12bc e390 e1bb dcec 1bbc 9bf2 90ba
000003c0: e63e 35bb ca56 54bb 7be7 1dbc d8c9 49ba
000003d0: eeed 5bba 851d edba 5b29 e0bb 4cac ceba
000003e0: e9d6 72ba 79c1 eabb b589 8abb b34f 82bb
000003f0: 6b1a acbb 4f21 f6bb f245 45bc 7235 51bb

sequential/dense/BiasAdd/ReadVariableOp f4 [32]
0.00011331199 -0.00083829084 -0.0006442633 -0.00030117642 6.261462e-05 0.00063824566 0.00033152473 0.00028960602
0.00024631922 0.0008924905 0.00015707224 0.00032284652 -0.00038612605 -0.00016094219 -0.00015661855 2.8824983e-05
-9.225387e-05 -0.00034177792 -0.00078455405 -0.00035389137 -0.00037383894 0.00016294628 -0.00017769239 -4.8387003e-05
-0.00094740355 -0.00049658684 -0.00047804846 0.0007219034 0.00046644342 3.7040685e-05 -0.00024582553 -2.380752e-06
00000000: e9a1 ed38 bfc0 5bba c7e3 28ba 37e7 9db9
00000010: f84f 8338 f14f 273a 7fd0 ad39 43d6 9739
00000020: 6824 8139 06f6 693a c2b3 2439 ba43 a939
00000030: f670 cab9 97c2 28b9 f939 24b9 2ecd f137
00000040: 6b78 c1b8 a830 b3b9 88aa 4dba 7f8a b9b9
00000050: d0ff c3b9 8fdc 2a39 f052 3ab9 26f3 4ab8
00000060: 2d5b 78ba 612d 02ba 94a2 fab9 1e3e 3d3a
00000070: fa8c f439 225c 1b38 25e2 80b9 02c5 1fb6

sequential/dense/MatMul1 i1 [32, 64] scale=0.0020993687 zero_point=0
-0.058782324 0.15115455 0.08817349 0.07347791 -0.14905518 0.027291793 -0.20573813 0.10286906
0.069279164 -0.1007697 0.1679495 -0.17634697 0.01679495 -0.11966401 0.056682955 -0.08397475
-0.11966401 -0.12386276 -0.018894318 0.21203624 0.20573813 -0.20363876 -0.052484218 -0.09027286
0.08817349 0.081875384 0.16165139 0.006298106 0.15535328 -0.09447159 -0.10286906 -0.046186112
-0.22463246 0.13645896 -0.14695582 -0.23932803 -0.21413562 -0.0041987374 0.03568927 -0.19944003
-0.18054572 0.01679495 -0.0041987374 -0.23302993 -0.07977601 -0.17844634 0.11966401 0.1679495
-0.16585013 0.2078375 0.19944003 0.008397475 -0.11546528 0.018894318 0.19524129 -0.22253308
-0.069279164 0.0 0.044086743 -0.044086743 -0.0335899 -0.069279164 0.008397475 -0.092372224
-0.069279164 -0.07347791 -0.2015394 -0.1343596 -0.041987374 -0.05038485 0.069279164 0.056682955
-0.15955202 0.22673182 -0.15955202 -0.17424761 -0.03149053 -0.1343596 0.018894318 -0.19314192
-0.22043371 0.24352677 0.18474445 0.18684381 -0.21413562 0.22883119 0.19524129 -0.17634697
-0.12596212 -0.21413562 0.21413562 -0.23932803 0.09867033 -0.1343596 0.0671798 0.1007697
-0.03568927 -0.18684381 -0.19734067 -0.11336591 0.11756465 -0.13226023 -0.20363876 0.052484218
0.0335899 -0.060881693 -0.1007697 0.2015394 0.22883119 -0.22883119 -0.21833435 0.18894318
0.11546528 0.14905518 -0.16165139 -0.15535328 -0.15745266 0.1007697 -0.11966401 -0.18264508
0.07137854 0.12596212 0.075577274 -0.104968436 -0.17844634 -0.03568927 0.03149053 0.2351293
0.06298106 0.06298106 0.014695581 0.15325391 0.11336591 0.07347791 -0.044086743 0.052484218
-0.12806149 0.17424761 -0.24772552 -0.14905518 -0.058782324 -0.13226023 0.07767664 0.20363876
-0.010496844 0.21833435 0.24772552 -0.09867033 -0.19944003 -0.16165139 -0.09447159 -0.13645896
-0.17214823 -0.14485644 0.07137854 0.03568927 -0.104968436 -0.21623498 0.11126654 -0.21413562
0.2015394 -0.058782324 -0.15745266 -0.22883119 0.07767664 0.03568927 -0.17004886 -0.0041987374
0.18054572 0.1007697 -0.14065771 -0.065080434 -0.22463246 0.07137854 0.052484218 -0.046186112
0.08397475 0.18474445 0.21203624 -0.12806149 0.11126654 0.086074114 0.0 -0.19314192
-0.020993687 0.054583587 0.029391162 -0.14065771 0.19944003 -0.23932803 0.15115455 0.12596212
-0.10706781 0.1679495 0.0041987374 -0.046186112 -0.056682955 -0.10286906 0.04828548 0.07347791
-0.15745266 0.060881693 0.17844634 -0.2015394 -0.1343596 0.22043371 -0.2078375 0.16375077
-0.20573813 0.13226023 -0.11336591 0.12386276 0.121763386 -0.0041987374 -0.018894318 -0.21833435
0.092372224 0.018894318 -0.046186112 -0.09447159 0.09657096 0.2351293 0.04828548 0.010496844
-0.23722866 -0.008397475 0.15535328 -0.07767664 0.012596212 0.23302993 -0.05038485 -0.17004886
0.023093056 -0.16165139 -0.15535328 -0.06298106 0.12386276 0.121763386 -0.11756465 0.027291793
0.08817349 -0.039888006 0.14275707 0.23722866 0.05038485 -0.08397475 -0.0335899 -0.13226023
0.13855833 -0.13226023 -0.17844634 -0.14275707 0.13855833 0.09657096 -0.09447159 0.07347791
00000000: e448 2a23 b90d 9e31 21d0 50ac 08c7 1bd8
00000010: c7c5 f765 629f e7d5 2a27 4d03 4ad3 cfea
00000020: 9541 ba8e 9afe 11a1 aa08 fe91 daab 3950
00000030: b163 5f04 c909 5d96 df00 15eb f0df 04d4
00000040: dfdd a0c0 ece8 211b b46c b4ad f1c0 09a4
00000050: 9774 5859 9a6d 5dac c49a 668e 2fc0 2030
00000060: efa7 a2ca 38c1 9f19 10e3 d060 6d93 985a
00000070: 3747 b3b6 b530 c7a9 223c 24ce abef 0f70
00000080: 1e1e 0749 3623 eb19 c353 8ab9 e4c1 2561
00000090: fb68 76d1 a1b3 d3bf aebb 2211 ce99 359a
000000a0: 60e4 b593 2511 affe 5630 bde1 9522 19ea
000000b0: 2858 65c3 3529 00a4 f61a 0ebd 5f8e 483c
000000c0: cd50 02ea e5cf 1723 b51d 55a0 c069 9d4e
000000d0: 9e3f ca3b 3afe f798 2c09 ead3 2e70 1705
000000e0: 8ffc 4adb 066f e8af 0bb3 b6e2 3b3a c80d
000000f0: 2aed 4471 18d8 f0c1 42c1 abbc 422e d323

sequential/lstm/Read_2/ReadVariableOp1 f4 [256]
-0.006322946 -0.004768231 -0.0013459729 -0.011923876 -0.0075589255 -0.0040252837 -0.0012242506 -0.004285585
-0.004562125 -0.0071336976 -0.004523366 -0.0022816705 -0.008922027 -0.01342475 -0.0009800092 -0.0032431684
-0.008394684 -0.0031432267 -0.0028113204 -0.00184143 -0.009781715 -0.0028417467 0.0002055297 -0.009878244
-0.0008091239 -0.0029265468 -0.0042782016 -0.00038060383 -0.005087375 -0.010527378 -0.003095435 -0.00894343
-0.00813639 -0.0039062556 -0.0023043968 -0.0048631434 -0.006868126 -0.0014718227 -0.005704207 -0.010374967
-0.0022827578 -0.000664309 -0.0035357939 0.00026719176 -0.008933599 -0.0064853183 -0.009267508 -0.0011378514
-0.002904491 -0.0034799771 -0.009704133 -0.0007532664 -0.00084434974 -0.0018387355 -0.0064513003 -0.001627967
-0.00087967096 -0.006631111 -0.00433621 -0.004173583 -0.005168008 -0.0071659083 -0.011222669 -0.003455172
0.99153596 0.99343187 0.99811167 0.98470277 0.98807347 0.9942348 0.99825585 0.9941289
0.9933217 0.99020135 0.9931773 0.9968229 0.9884135 0.98136634 0.9987071 0.99560463
0.988759 0.9959385 0.9959139 0.99759334 0.98665047 0.9959943 1.0004902 0.987374
0.99896413 0.9953015 0.99354786 0.99945146 0.99292666 0.98602456 0.9961176 0.98658705
0.9886916 0.99537903 0.9970808 0.99293214 0.9904822 0.99779725 0.99160874 0.986084
0.9965286 0.99914783 0.9949364 1.0003592 0.9876964 0.9900751 0.98787975 0.99826396
0.9960822 0.9952098 0.98652595 0.9988095 0.9984128 0.99752766 0.9905388 0.99773127
0.9988461 0.99019045 0.99420303 0.99411464 0.99294555 0.9890898 0.983768 0.9954573
-0.04415301 0.007550598 -0.005141441 0.045119423 -0.005672106 -0.015615365 -0.0036884397 0.018368704
-0.048962824 -0.043009017 0.005532302 0.009974052 -0.055636927 -0.042575944 0.011330934 -0.0006569964
-0.034919918 -0.019588547 0.025813252 -0.008235524 0.038295943 0.0071773776 0.011859875 0.014407901
0.020325165 -0.019855184 0.01463154 0.015545123 -0.004922137 -0.0044222292 -0.03296608 0.014744208
0.016330006 -0.0049873875 0.015141531 0.0026103465 0.037135594 -0.008401859 -0.053586047 -0.028947048
-0.012723791 0.0036177412 0.017480262 0.0124867605 -0.015464047 0.018545697 -0.014299853 -0.03612193
0.025429578 0.014888547 0.0041747526 0.016602233 -0.008618516 0.019734489 0.044651832 0.018958569
-0.010711084 0.009259809 -0.03608818 0.011250123 0.013994704 0.013147903 0.032794286 0.017782576
-0.006002768 -0.004604944 -0.0014270371 -0.012212329 -0.0081349285 -0.0043152478 -0.0011516984 -0.0041292515
-0.00511177 -0.0068240375 -0.0048297066 -0.0023086225 -0.008013 -0.014213514 -0.0009956079 -0.0032231803
-0.0077580665 -0.0033109393 -0.0025403835 -0.0018454185 -0.010684087 -0.0026969907 0.00024967158 -0.009519836
-0.00078931596 -0.003157947 -0.0047071283 -0.00035253592 -0.0050346116 -0.010519376 -0.0030556177 -0.009470608
-0.0076398114 -0.003693188 -0.002103492 -0.004973433 -0.0073308405 -0.0015482199 -0.006283247 -0.0102857845
-0.002314005 -0.00062642904 -0.0034344948 0.00029078036 -0.008930147 -0.006883727 -0.009516921 -0.001105863
-0.0027655899 -0.0032400363 -0.009637709 -0.00076976186 -0.00083896413 -0.0018090463 -0.0068408675 -0.0015767901
-0.00092635915 -0.007164177 -0.0042278417 -0.003976786 -0.0052521727 -0.007511295 -0.012040602 -0.0031922725
00000000: b730 cfbb d23e 9cbb 5b6b b0ba 5c5c 43bc
00000010: ddb0 f7bb 87e6 83bb 0977 a0ba 186e 8cbb
00000020: e17d 95bb cbc1 e9bb bf38 94bb 1488 15bb
00000030: b22d 12bc 7cf3 5bbc a773 80ba 568b 54bb
00000040: db89 09bc 98fe 4dbb 213e 38bb 235c f1ba
00000050: 7d43 20bc 993c 3abb 7583 5739 5cd8 21bc
00000060: 631b 54ba 4fcb 3fbb 2830 8cbb c88b c7b9
00000070: ffb3 a6bb 067b 2cbc c8dc 4abb 7787 12bc
00000080: 7e4e 05bc 0c00 80bb 5d05 17bb 015b 9fbb
00000090: 040e e1bb 2dea c0ba 5bea babb c4fb 29bc
000000a0: 529a 15bb 0625 2eba c7b8 67bb df15 8c39
000000b0: 3b5e 12bc cb82 d4bb bfd6 17bc f523 95ba
000000c0: 4659 3ebb 5410 64bb 15fe 1ebc da76 45ba
000000d0: 5a57 5dba ba01 f1ba 6e65 d3bb 8261 d5ba
000000e0: b899 66ba ca49 d9bb c416 8ebb 8dc2 88bb
000000f0: 6558 a9bb ffcf eabb 49df 37bc 2b70 62bb
00000100: 4dd5 7d3f 8d51 7e3f 3f84 7f3f 7b15 7c3f
00000110: 62f2 7c3f 2c86 7e3f b28d 7f3f 3b7f 7e3f
00000120: 554a 7e3f d67d 7d3f de40 7e3f c92f 7f3f
00000130: ab08 7d3f d33a 7b3f 45ab 7f3f f2df 7e3f
00000140: 4f1f 7d3f d3f5 7e3f 37f4 7e3f 4762 7f3f
00000150: 2095 7c3f 7cf9 7e3f 1010 803f 8bc4 7c3f
00000160: 1dbc 7f3f 14cc 7e3f 2759 7e3f 0ddc 7f3f
00000170: 7130 7e3f 1b6c 7c3f 9001 7f3f f890 7c3f
00000180: e51a 7d3f 29d1 7e3f b040 7f3f cd30 7e3f
00000190: 3e90 7d3f a46f 7f3f 12da 7d3f 0070 7c3f
000001a0: 801c 7f3f 27c8 7f3f 27b4 7e3f c50b 803f
000001b0: acd9 7c3f 9075 7d3f b0e5 7c3f 3a8e 7f3f
000001c0: 3eff 7e3f 12c6 7e3f f78c 7c3f fbb1 7f3f
000001d0: fb97 7f3f f95d 7f3f f393 7d3f 516b 7f3f
000001e0: 61b4 7f3f 1f7d 7d3f 1784 7e3f 4c7e 7e3f
000001f0: ae31 7e3f fd34 7d3f 38d8 7b3f 4ad6 7e3f
00000200: c9d9 34bd 026b f73b 8879 a8bb 25cf 383d
00000210: 13dd b9bb 96d7 7fbc c0b9 71bb f779 963c
00000220: 3e8d 48bd 392a 30bd 5048 b53b 356a 233c
00000230: 8ce3 63bd 1d64 2ebd 62a5 393c 483a 2cba
00000240: 3008 0fbd 2978 a0bc 5076 d33c 4bee 06bc
00000250: 35dc 1c3d 3530 eb3b ec4f 423c 1e0f 6c3c
00000260: f680 a63c 57a7 a2bc 20b9 6f3c f9b0 7e3c
00000270: e149 a1bb 59e8 90bb 7107 07bd b191 713c
00000280: 81c6 853c 3d6d a3bb 2f14 783c 5912 2b3b
00000290: 7e1b 183d f3a7 09bc 0b7d 5bbd 5c22 edbc
000002a0: 7377 50bc a017 6d3b c432 8f3c 4595 4c3c
000002b0: ea5c 7dbc 25ed 973c ee49 6abc 97f4 13bd
000002c0: b151 d03c 18ef 733c 5dcc 883b 6801 883c
000002d0: ad34 0dbc 39aa a13c d7e4 363d 004f 9b3c
000002e0: 8b7d 2fbc 74b6 173c 33d1 13bd 7052 383c
000002f0: 0b4a 653c 4d6a 573c 4d53 063d c4ac 913c
00000300: deb2 c4bb 12e5 96bb 6b0b bbba 3816 48bc
00000310: 5d48 05bc ec66 8dbb 96f4 96ba ac4e 87bb
00000320: a280 a7bb 2d9c dfbb 8442 9ebb 424c 17bb
00000330: f548 03bc ccdf 68bc 0f7f 82ba fe3b 53bb
00000340: 6137 febb 58fc 58bb 907c 26bb f8e1 f1ba
00000350: 4f0c 2fbc ffbf 30bb 5ae6 8239 16f9 1bbc
00000360: 19ea 4eba 8ff5 4ebb 413e 9abb 92d4 b8b9
00000370: 62f9 a4bb 7659 2cbc c240 48bb 9c2a 1bbc
00000380: 6257 fabb 6a09 72bb bdda 09bb 2ef8 a2bb
00000390: 8c37 f0bb a4ed caba b2e3 cdbb b585 28bc
000003a0: 90a6 17bb f136 24ba 4315 61bb e173 9839
000003b0: c04f 12bc e390 e1bb dcec 1bbc 9bf2 90ba
000003c0: e63e 35bb ca56 54bb 7be7 1dbc d8c9 49ba
000003d0: eeed 5bba 851d edba 5b29 e0bb 4cac ceba
000003e0: e9d6 72ba 79c1 eabb b589 8abb b34f 82bb
000003f0: 6b1a acbb 4f21 f6bb f245 45bc 7235 51bb

while/MatMul f4 [256, 2]
-0.12460945 0.07600636 -0.022645893 -0.06896194 -0.00091255107 0.028953915 0.0122372415 -0.13884443
0.08881335 -0.0032936404 0.13444066 -0.008726332 0.11170534 -0.123563156 -0.0973405 0.13409911
0.0018627167 0.08915714 0.037670184 -0.10422189 0.14047791 0.07066828 -0.054897908 0.10172125
-0.12796007 -0.14703824 -0.026074769 0.117465824 -0.032679595 0.07779566 -0.11134974 -0.005022149
-0.019912101 -0.097832225 0.037780594 -0.0037680238 -0.06924556 -0.10832454 -0.014838139 -0.12232587
0.0013428549 0.05046897 0.0071748276 0.04620774 0.011445682 0.13454263 0.010346017 -0.12655774
-0.022545805 -0.045729164 0.014352755 0.012213196 0.11719952 0.10345026 0.001951498 -0.14002019
-0.12722667 -0.12943427 -0.14232013 -0.027412845 -0.05777076 -0.05947776 0.11249053 -0.0087452205
-0.10416885 0.14080411 -0.06816884 -0.12983683 -0.14439783 -0.111289605 0.008180368 0.12806381
-0.07601298 0.11089674 0.030631956 0.02694763 -0.038774736 0.11703143 -0.09099376 -0.003659333
-0.12040177 0.11474087 -0.121516824 -0.09658833 0.13288544 -0.15003036 0.017445447 0.054244027
-0.09316323 0.11313309 0.14393625 -0.014693054 -0.010153506 0.003966496 -0.0385508 -0.043682363
-0.024509229 -0.09346728 -0.11608999 -0.094853975 0.021273214 -0.12812974 0.058748778 0.044253215
-0.05530717 -0.06456294 -0.1305874 0.14325339 -0.036942746 0.0044462085 -0.085624024 -0.022759223
0.03821289 0.1284319 0.12480428 0.03101373 -0.107593626 -0.10984687 -0.016343653 -0.00796753
0.053646922 -0.1295516 0.13997982 0.10573374 -0.013463038 0.13011624 0.079580486 -0.087671444
-0.14019169 -0.009540537 0.052621324 0.09437718 -0.068955086 -0.09605949 -0.023997905 -0.114945605
-0.15569182 0.116044775 -0.0022281345 -0.13322835 0.06634886 0.057292864 -0.08191761 -0.15550692
-0.0033329579 -0.044146962 0.09105424 -0.1477091 0.08137486 0.14606254 -0.037579086 -0.09083944
-0.14470077 0.03241431 -0.10116408 0.046447877 0.13498399 -0.11999621 -0.01735962 0.06408651
0.032067668 -0.105771646 -0.083334416 -0.009085208 0.11634599 -0.01318976 0.03258236 0.04544522
0.106545985 -0.12185438 0.06031338 0.08178372 0.10516912 0.008530413 -0.15650012 0.08646398
-0.14327519 0.015093113 -0.050030038 0.08903779 0.14229618 -0.06601707 0.09162343 0.14161223
0.11394894 -0.014150388 0.12765351 0.026140343 -0.109377615 -0.07477615 0.08943184 0.004823082
-0.07621235 -0.023349768 0.02682606 -0.11933652 0.06575001 0.14980698 0.0694973 -0.07389127
0.052309785 -0.09613733 -0.13362196 -0.115147434 -0.14675789 0.11185821 -0.12241859 0.088471614
-0.1388777 0.13420449 -0.12692368 0.046353124 -0.0790116 0.118104056 -0.12824959 0.047440812
0.005148929 -0.03951851 0.015902659 0.14326423 0.04742885 -0.13362306 -0.075693056 -0.11797129
-0.10055331 0.08973809 0.0344037 -0.069181114 0.09921584 -0.017172007 -0.09537995 0.030629478
-0.07687778 0.09660745 0.1165833 -0.0062930617 0.044434387 0.11254882 0.03653438 -0.008131018
-0.055519927 0.12852068 0.09529461 0.062276922 -0.013837114 -0.013630776 -0.10900564 0.104695715
0.10518063 0.11701311 -0.043572906 0.10045569 0.12508382 -0.019127429 -0.1414447 -0.071563445
00000000: 3d33 ffbd 39a9 9b3d e183 b9bc eb3b 8dbd
00000010: 4438 6fba c330 ed3c b67e 483c 3c2d 0ebe
00000020: c6e3 b53d 1eda 57bb d0aa 093e e4f8 0ebc
00000030: c5c5 e43d ae0e fdbd 755a c7bd 4751 093e
00000040: 6726 f43a 0598 b63d 0d4c 1a3d 4972 d5bd
00000050: 71d9 0f3e 88ba 903d a1dc 60bd 3b53 d03d
00000060: f707 03be 3191 16be c19a d5bc ec91 f03d
00000070: 0adb 05bd 5553 9f3d 550b e4bd d790 a4bb
00000080: b41e a3bc 435c c8bd d3bf 1a3d f3f0 76bb
00000090: 9ed0 8dbd 42d9 ddbd aa1b 73bc fc85 fabd
000000a0: bc02 b03a 8db8 4e3d d11a eb3b 5444 3d3d
000000b0: ab86 3b3c 8bc5 093e 5782 293c 5a98 01be
000000c0: fbb1 b8bc 814e 3bbd d127 6b3c db19 483c
000000d0: 4d06 f03d bbdd d33d 68c9 ff3a 7461 0fbe
000000e0: b547 02be 6b8a 04be 5ebc 11be e790 e0bc
000000f0: 08a1 6cbd f49e 73bd 6f61 e63d 1d48 0fbc
00000100: 7a56 d5bd f42e 103e 1b9c 8bbd f2f3 04be
00000110: 06dd 13be ceeb e3bd f306 063c 2923 033e
00000120: b1ac 9bbd d41d e33d deef fa3c 47c1 dc3c
00000130: 42d2 1ebd 2dae ef3d f05a babd 6cd1 6fbb
00000140: 3495 f6bd 43fd ea3d d0dd f8bd 1ad0 c5bd
00000150: 1f13 083e 8fa1 19be c1e9 8e3c fc2e 5e3d
00000160: 5dcc bebd 52b2 e73d 0664 133e 23bb 70bc
00000170: e45a 26bc 61f9 813b 72e7 1dbd 47ec 32bd
00000180: 94c7 c8bc c66b bfbd 97c0 edbd cd42 c2bd
00000190: 2a45 ae3c 7134 03be 8fa2 703d dc42 353d
000001a0: c589 62bd 9339 84bd b4b8 05be 04b1 123e
000001b0: 4751 17bd 80b1 913b a65b afbd 8d71 babc
000001c0: 1f85 1c3d a783 033e 6399 ff3d 8210 fe3c
000001d0: 0c5a dcbd 65f7 e0bd 20e3 85bc 3e8a 02bc
000001e0: e0bc 5b3d 2da9 04be df56 0f3e ee8a d83d
000001f0: 1394 5cbc 313d 053e 18fb a23d 168d b3bd
00000200: 698e 0fbe ea4f 1cbc 7589 573d d348 c13d
00000210: 5338 8dbd d7ba c4bd 4197 c4bc 9a68 ebbd
00000220: ad6d 1fbe e2a8 ed3d e505 12bb 036d 08be
00000230: e9e1 873d ecab 6a3d 6bc4 a7bd 353d 1fbe
00000240: c16d 5abb 72d3 34bd a57a ba3d 0e41 17be
00000250: dda7 a63d 6b91 153e 87ec 19bd 070a babd
00000260: 702c 14be dec4 043d 1d2f cfbd 2140 3e3d
00000270: 3e39 0a3e 93c0 f5bd c335 8ebc ca3f 833d
00000280: 6359 033d ce9e d8bd 3cab aabd 20da 14bc
00000290: ce46 ee3d dd19 58bc 1575 053d c424 3a3d
000002a0: c834 da3d ca8e f9bd 2a0b 773d 397e a73d
000002b0: e862 d73d 25c3 0b3c 9141 20be 0714 b13d
000002c0: bbb6 12be 1b49 773c 4cec 4cbd 7259 b63d
000002d0: 17b6 113e f533 87bd 11a5 bb3d cc02 113e
000002e0: 105e e93d 07d7 67bc 9ab7 023e 4624 d63c
000002f0: 5f01 e0bd 3d24 99bd 0a28 b73d f20a 9e3b
00000300: 3815 9cbd 0348 bfbc 53c2 db3c b566 f4bd
00000310: f1a7 863d 0067 193e 9a54 8e3d 4e54 97bd
00000320: c942 563d a6e3 c4bd 32d4 08be 6bd2 ebbd
00000330: b347 16be eb15 e53d 99b6 fabd 9b30 b53d
00000340: f535 0ebe e76c 093e 48f8 01be c6dc 3d3d
00000350: d5d0 a1bd 8ae0 f13d dc53 03be 4c51 423d
00000360: 59b8 a83b 29de 21bd 4b46 823c dcb3 123e
00000370: c144 423d 7cd4 08be f604 9bbd ef9a f1bd
00000380: e5ee cdbd 9bc8 b73d e5ea 0c3d d4ae 8dbd
00000390: ad31 cb3d 4fac 8cbc 9056 c3bd acea fa3c
000003a0: 1972 9dbd 20da c53d 3ac3 ee3d 0736 cebb
000003b0: d500 363d ff7f e63d 13a5 153d f637 05bc
000003c0: dd68 63bd ed9a 033e d229 c33d 1616 7f3d
000003d0: 10b5 62bc 9e53 5fbc 593e dfbd b56a d63d
000003e0: f168 d73d 92a4 ef3d 8179 32bd b6bb cd3d
000003f0: f915 003e 20b1 9cbc e1d6 10be db8f 92bd

while/MatMul_1 i1 [256, 64] scale=0.002144194 zero_point=0
-0.06432582 0.015009358 -0.1072097 0.015009358 -0.06003743 0.030018715 -0.02144194 -0.06432582
-0.06647001 -0.012865163 -0.083623566 0.05360485 0.017153552 0.02144194 -0.15867035 0.1072097
-0.03859549 0.047172267 -0.05360485 0.025730327 -0.03859549 0.015009358 0.062181626 0.040739685
0.18225649 0.0064325817 -0.012865163 0.0364513 -0.083623566 -0.0364513 -0.06647001 -0.04288388
-0.015009358 -0.027874522 0.008576776 -0.019297745 0.023586133 0.05360485 0.07504679 -0.083623566
0.10292131 0.025730327 0.030018715 -0.012865163 0.008576776 0.040739685 0.017153552 0.030018715
0.02144194 0.09220034 -0.025730327 -0.027874522 0.03216291 -0.03859549 0.027874522 -0.01072097
-0.002144194 0.10935389 -0.14794938 0.008576776 -0.0064325817 -0.03859549 -0.051460654 0.117930666
-0.025730327 0.027874522 -0.008576776 0.1072097 -0.0364513 0.01072097 -0.027874522 0.019297745
0.0 0.03216291 0.051460654 -0.008576776 0.017153552 -0.03859549 -0.015009358 0.047172267
0.008576776 -0.03859549 -0.083623566 0.030018715 0.05789324 -0.002144194 0.05360485 0.055749044
0.027874522 0.13508423 0.015009358 -0.05789324 0.05360485 0.10077712 0.055749044 0.051460654
-0.03216291 -0.023586133 0.062181626 0.11364228 -0.004288388 -0.08147937 0.01072097 -0.05360485
-0.01072097 -0.049316462 0.0729026 -0.008576776 0.122219056 -0.012865163 -0.027874522 -0.05360485
0.083623566 -0.015009358 -0.051460654 0.040739685 0.12865163 0.062181626 0.017153552 0.004288388
-0.030018715 -0.030018715 0.027874522 -0.06861421 0.025730327 -0.025730327 -0.004288388 0.051460654
0.019297745 0.040739685 0.05789324 -0.122219056 -0.040739685 -0.049316462 -0.008576776 0.1050655
0.019297745 -0.01072097 0.047172267 0.0064325817 -0.06861421 0.14794938 -0.08147937 0.027874522
0.12865163 0.019297745 0.040739685 0.083623566 0.06432582 -0.015009358 0.08576776 0.06432582
0.16724713 0.03859549 -0.01072097 -0.025730327 0.055749044 0.098632924 -0.10077712 0.10292131
-0.06003743 -0.0364513 0.03859549 -0.051460654 -0.0064325817 -0.030018715 -0.025730327 -0.023586133
-0.15652616 -0.008576776 -0.04502807 -0.004288388 0.0364513 -0.06003743 -0.023586133 -0.07504679
-0.023586133 0.0364513 -0.04288388 0.0707584 0.023586133 0.07504679 -0.04502807 -0.1415168
0.030018715 0.025730327 -0.017153552 0.05789324 0.05789324 0.049316462 0.06861421 0.04502807
0.06861421 0.023586133 0.07719098 0.03216291 -0.05360485 -0.055749044 -0.062181626 -0.004288388
0.0 0.083623566 0.030018715 -0.02144194 0.023586133 -0.06647001 0.017153552 -0.07504679
0.030018715 0.017153552 0.11578648 -0.015009358 0.04288388 0.0064325817 -0.040739685 0.05789324
-0.07504679 0.062181626 -0.023586133 0.027874522 -0.017153552 -0.025730327 -0.10077712 -0.083623566
0.025730327 0.030018715 -0.0707584 0.05789324 -0.04288388 0.034307104 0.002144194 -0.0707584
-0.07719098 -0.094344534 -0.01072097 0.023586133 0.017153552 0.01072097 -0.079335175 -0.09005614
-0.017153552 0.002144194 -0.051460654 -0.03859549 -0.004288388 -0.012865163 -0.098632924 0.03216291
0.055749044 -0.008576776 0.030018715 -0.09005614 -0.05789324 -0.055749044 -0.049316462 0.12865163
00000000: e207 ce07 e40e f6e2 e1fa d919 080a b632
00000010: ee16 e70c ee07 1d13 5503 fa11 d9ef e1ec
00000020: f9f3 04f7 0b19 23d9 300c 0efa 0413 080e
00000030: 0a2b f4f3 0fee 0dfb ff33 bb04 fdee e837
00000040: f40d fc32 ef05 f309 000f 18fc 08ee f916
00000050: 04ee d90e 1bff 191a 0d3f 07e5 192f 1a18
00000060: f1f5 1d35 feda 05e7 fbe9 22fc 39fa f3e7
00000070: 27f9 e813 3c1d 0802 f2f2 0de0 0cf4 fe18
00000080: 0913 1bc7 ede9 fc31 09fb 1603 e045 da0d
00000090: 3c09 1327 1ef9 281e 4e12 fbf4 1a2e d130
000000a0: e4ef 12e8 fdf2 f4f5 b7fc ebfe 11e4 f5dd
000000b0: f511 ec21 0b23 ebbe 0e0c f81b 1b17 2015
000000c0: 200b 240f e7e6 e3fe 0027 0ef6 0be1 08dd
000000d0: 0e08 36f9 1403 ed1b dd1d f50d f8f4 d1d9
000000e0: 0c0e df1b ec10 01df dcd4 fb0b 0805 dbd6
000000f0: f801 e8ee fefa d20f 1afc 0ed6 e5e6 e93c
