model/keypoint_classifier/keypoint_classifier.tflite (tflite, 117032 bytes, 8 tensors)

sequential_4/lstm_4/Read_2/ReadVariableOp f4 [512]
0	0x3d776883	0.060402405
1	0xbbc59c2c	-0.00603058
2	0xba18960c	-0.00058206986
3	0x3c0139a5	0.007887279
4	0x3dacde9e	0.08440898
5	0x3d12f50a	0.03587822
6	0x3d367e9b	0.044554334
7	0xbc0c8d2b	-0.008578579
8	0x3cc25842	0.023723725
9	0x3c9e4859	0.019321607
10	0x3d2617c9	0.040550027
11	0xbcd9aea3	-0.026572531
12	0x3baf7169	0.0053540957
13	0xbca26633	-0.019824123
14	0x3ac70a37	0.0015185539
15	0x3d2f7e28	0.04284492
16	0x3ca896aa	0.020579655
17	0x3c32da74	0.010916341
18	0xbc4b2351	-0.012398557
19	0x3c3100ca	0.010803411
20	0x3d31e013	0.043426584
21	0x3b9140ab	0.004432758
22	0x3c95480d	0.018222833
23	0x3cf1656e	0.02946731
24	0x3d120dc2	0.03565765
25	0x3a8508ea	0.0010149751
26	0xbb96a29c	-0.0045970213
27	0xbcaeb578	-0.021326765
28	0x3d29c10f	0.04144388
29	0x3cad0622	0.021121088
30	0xbc74456a	-0.014909128
31	0xbd1888ec	-0.037239954
32	0x3d5c2326	0.053744458
33	0x3bb5f946	0.0055533974
34	0xbb98335d	-0.004644795
35	0x3c7ce53c	0.015435513
36	0xbc938313	-0.018006837
37	0xbc825612	-0.015910182
38	0xbc69f69d	-0.014279989
39	0x3c4197d0	0.01181598
40	0x3c548b18	0.012972616
41	0x3cfe846e	0.031069007
42	0x3d7499d0	0.059717
43	0x3d2b449d	0.04181348
44	0x3cf84e8e	0.030310895
45	0x3c3d2b57	0.011545978
46	0x3cbc5ca2	0.02299339
47	0x3bfbacf2	0.007680529
48	0x3c2a6478	0.01039993
49	0x3c64f423	0.013974222
50	0x3d1263fc	0.035739884
51	0x3cf049eb	0.029332122
52	0x3c60e787	0.013727075
53	0x3cc5ff84	0.02416969
54	0x3c1aed2d	0.009455961
55	0x3d09e949	0.033669744
56	0x3c4c17c5	0.012456839
57	0x3a89bd00	0.0010508597
58	0xbbb5e48a	-0.0055509256
59	0x3cad5f4f	0.02116361
60	0x3d280252	0.041017838
61	0xbc6f5597	-0.014607809
62	0xbc66c04a	-0.014083931
63	0x3cc591ee	0.024117436
64	0xbc041467	-0.008061505
65	0x3c16b7fc	0.009199139
66	0x3c6c3b3e	0.014418421
67	0xbc8474a8	-0.016168907
68	0x3d99c537	0.07508319
69	0xbc104f0c	-0.008807909
70	0x3c362cf7	0.011119119
71	0x3c3698c1	0.011144818
72	0xbc4ab23a	-0.012371594
73	0xbc8c39a2	-0.017117325
74	0x3c600ada	0.013674462
75	0xbc25d808	-0.010122307
76	0xbbb49fab	-0.005512198
77	0xbb2c8e91	-0.0026330093
78	0xbc8ee537	-0.017443283
79	0x3c5fab05	0.013651614
80	0x3d24d658	0.040243477
81	0x3c52b34a	0.012860129
82	0xbba782e1	-0.0051120375
83	0x3c9e2ce3	0.019308513
84	0x3cbde999	0.023182677
85	0xbcd374a8	-0.025812462
86	0xbcfdb96a	-0.030972201
87	0x3c80b501	0.01571131
88	0xbc30c2a3	-0.0107885925
89	0x39937cdd	0.00028131055
90	0x3b2cc353	0.002636154
91	0x3aa82324	0.0012827856
92	0x3cfa202a	0.030532915
93	0x3d2c0ebd	0.042006243
94	0xbc5f0c3f	-0.01361376
95	0x3d360eca	0.044447698
96	0x3c82e834	0.015979864
97	0x3c2bae71	0.010478602
98	0x3d114e25	0.035474915
99	0x3c1f876a	0.009736875
100	0x3b7d653e	0.0038665081
101	0x39b2f88b	0.00034135985
102	0x3cd87e0c	0.026427291
103	0x3cfa72af	0.030572264
104	0x3c972e75	0.01845477
105	0x3c352e6e	0.011058433
106	0x3a5d9fd4	0.0008454297
107	0xbd40e7e6	-0.047096156
108	0x3caaa99c	0.02083283
109	0x3c39cd6d	0.011340481
110	0x3d1dee47	0.038557317
111	0xbd1cc9ce	-0.038278393
112	0xbbb2183f	-0.0054350193
113	0x3cd40a66	0.025883865
114	0x3bcc2b36	0.006230737
115	0x3c95fcce	0.018309023
116	0xbc81497d	-0.015782112
117	0x3cec7743	0.028865462
118	0x3a9f479c	0.0012152079
119	0x3d447562	0.047963507
120	0x3b60ce29	0.0034302569
121	0x3cc2234a	0.023698468
122	0x3c319978	0.010839812
123	0x3d05a35e	0.032626502
124	0xbceb69a4	-0.028736897
125	0xbd8793b3	-0.06619968
126	0x3c994c27	0.01871307
127	0xbc9aac7f	-0.01888108
128	0x3f8a9a16	1.0828273
129	0x3f80c6e4	1.0060697
130	0x3f8191f2	1.0122664
131	0x3f7d4283	0.98929614
132	0x3f87a658	1.0597639
133	0x3f7fd40a	0.9993292
134	0x3f7990e6	0.9748672
135	0x3f85d524	1.045567
136	0x3f84237e	1.0323331
137	0x3f81dffc	1.014648
138	0x3f835c29	1.02625
139	0x3f801a60	1.0008049
140	0x3f7b8780	0.9825363
141	0x3f83c812	1.0295432
142	0x3f7f80fd	0.99806195
143	0x3f849802	1.0358889
144	0x3f8534b0	1.0406704
145	0x3f81e9ef	1.0149516
146	0x3f835bee	1.026243
147	0x3f78deca	0.9721495
148	0x3f86d803	1.0534672
149	0x3f84752c	1.0348258
150	0x3f81ffca	1.0156186
151	0x3f7d77e1	0.99011046
152	0x3f836972	1.0266554
153	0x3f7e7dc2	0.9941064
154	0x3f7d555c	0.98958373
155	0x3f7ab2d4	0.9792912
156	0x3f87b69c	1.0602603
157	0x3f7e6694	0.9937527
158	0x3f7263ac	0.9468334
159	0x3f8037bf	1.0017012
160	0x3f814b23	1.0101055
161	0x3f85729b	1.04256
162	0x3f826e71	1.0189954
163	0x3f8308d5	1.023707
164	0x3f7edf40	0.995594
165	0x3f85121c	1.0396152
166	0x3f7b7fe4	0.9824202
167	0x3f87d440	1.0611649
168	0x3f808517	1.0040616
169	0x3f845ef8	1.0341482
170	0x3f850c0a	1.0394299
171	0x3f833957	1.0251874
172	0x3f816919	1.0110198
173	0x3f85873e	1.0431898
174	0x3f80c4cb	1.0060056
175	0x3f8283bf	1.0196456
176	0x3f81c3c1	1.0137864
177	0x3f86fc58	1.0545759
178	0x3f7db956	0.99110925
179	0x3f815a2d	1.0105644
180	0x3f82a756	1.0207317
181	0x3f839c0d	1.0281998
182	0x3f88a9c4	1.0676808
183	0x3f7f6be8	0.99774027
184	0x3f81f789	1.0153667
185	0x3f80a704	1.0050969
186	0x3f850347	1.0391625
187	0x3f848338	1.0352545
188	0x3f8257dc	1.0183063
189	0x3f7f4ac8	0.9972348
190	0x3f81f685	1.0153357
191	0x3f83d25d	1.0298573
192	0x3f85a249	1.044015
193	0x3f82b433	1.0211242
194	0x3f837c9c	1.0272403
195	0x3f843c66	1.0330932
196	0x3f863e62	1.0487788
197	0x3f811852	1.0085547
198	0x3f811ef8	1.0087576
199	0x3f807d80	1.00383
200	0x3f82bc45	1.0213705
201	0x3f8645fc	1.0490108
202	0x3f819f8b	1.0126814
203	0x3f8bb5f9	1.0914909
204	0x3f8104f9	1.0079643
205	0x3f7c5787	0.98571056
206	0x3f7e51b5	0.99343425
207	0x3f832d73	1.0248245
208	0x3f8832e2	1.0640528
209	0x3f77cf4a	0.96800673
210	0x3f82e462	1.0225947
211	0x3f82b655	1.0211893
212	0x3f856b32	1.0423338
213	0x3f84a776	1.0363605
214	0x3f7b1978	0.9808574
215	0x3f83663c	1.0265574
216	0x3f80d1c4	1.0064015
217	0x3f89d00d	1.0766617
218	0x3f7fdb7f	0.999443
219	0x3f82c9f8	1.0217886
220	0x3f8372dd	1.0269428
221	0x3f84af9f	1.0366095
222	0x3f81ab83	1.0130466
223	0x3f8aadc9	1.0834285
224	0x3f80d9f8	1.0066519
225	0x3f806394	1.0030389
226	0x3f844bf6	1.0335681
227	0x3f822db6	1.01702
228	0x3f825c08	1.0184336
229	0x3f830e34	1.023871
230	0x3f83a836	1.0285709
231	0x3f8593d5	1.043574
232	0x3f8777d6	1.0583446
233	0x3f7fa746	0.99864614
234	0x3f82b575	1.0211626
235	0x3f7dcab0	0.991374
236	0x3f862f25	1.0483137
237	0x3f81363a	1.0094674
238	0x3f88c832	1.0686095
239	0x3f80ea4d	1.0071503
240	0x3f7e0073	0.99219435
241	0x3f7cfc0f	0.9882211
242	0x3f83ab6a	1.0286686
243	0x3f80618c	1.0029769
244	0x3f82d636	1.0221622
245	0x3f80a3b1	1.0049955
246	0x3f8153dd	1.0103718
247	0x3f85f9bf	1.0466841
248	0x3f8414c0	1.0318832
249	0x3f86ef02	1.0541689
250	0x3f822a68	1.0169191
251	0x3f802e9d	1.0014225
252	0x3f8325f3	1.0245956
253	0x3f80413d	1.0019909
254	0x3f7f1104	0.9963534
255	0x3f7562eb	0.9585406

sequential_4/dense_9/BiasAdd/ReadVariableOp f4 [76]
0	0x3d08c04e	0.03338652
1	0xbc2bcf84	-0.010486487
2	0x3b26ae76	0.0025433577
3	0x3c9a6de9	0.018851237
4	0x3cccc677	0.02499698
5	0xbc602f2b	-0.013683121
6	0xbd587e82	-0.052855022
7	0x3bfaf502	0.0076586017
8	0xbca9da1e	-0.02073389
9	0x3d08b614	0.03337677
10	0xbd2068f9	-0.03916261
11	0x3cd4e360	0.025987327
12	0xbc9ac3cc	-0.018892191
13	0xbadc762e	-0.0016819888
14	0xbd660496	-0.056156717
15	0xbca5c80e	-0.020236995
16	0xbd236a7e	-0.03989648
17	0xbbddd49b	-0.0067697293
18	0xbc7480a9	-0.014923253
19	0xbcc5dd84	-0.024153478
20	0xbc8e109f	-0.01734191
21	0x3c9d8a0c	0.019230865
22	0xbceaedd1	-0.028677853
23	0xbd1bf764	-0.038077727
24	0xbcb98092	-0.022644315
25	0xbce934bb	-0.028467527
26	0xbd45bf5e	-0.048278205
27	0xbd0d9630	-0.034567058
28	0x3bac4297	0.0052569616
29	0xbca35f3a	-0.019942869
30	0xbca52999	-0.020161437
31	0x3d440cd6	0.047863804
32	0xb794cb10	-1.7737533e-05
33	0x3c9ccb69	0.019139962
34	0xbc447528	-0.011990823
35	0x3c6ae8b5	0.014337708
36	0x3d0d5f00	0.034514427
37	0x3cffce7e	0.031226393
38	0xbbb3d51d	-0.0054880516
39	0xbc5d2424	-0.013497386
40	0x3c341d72	0.010993348
41	0xbc6ed7d4	-0.014577825
42	0xbd150d1b	-0.03638945
43	0x3c7eaae9	0.015543678
44	0x3c1647ec	0.009172421
45	0xbcf649a7	-0.030064417
46	0x3c12831d	0.008942393
47	0xbcab4124	-0.020905085
48	0xbc3737d8	-0.011182748
49	0xbca02f52	-0.019553814
50	0x3badf866	0.0053091524
51	0xbc8be4e2	-0.017076913
52	0x3d207211	0.039171282
53	0xbc847f24	-0.016173907
54	0xbaa15bb6	-0.0012310657
55	0xbbbc6413	-0.0057492345
56	0xbb0c122c	-0.0021373136
57	0xbcb7ff2b	-0.02246054
58	0x3d0733f1	0.03300852
59	0xbd44694c	-0.04795198
60	0xbc301d04	-0.010749105
61	0xbb738778	-0.0037159603
62	0xbd512d75	-0.05106874
63	0xbcdb2457	-0.026750727
64	0x3c9d57cb	0.019206902
65	0x3d387c1e	0.045040242
66	0x3c990743	0.01868022
67	0xbc99de81	-0.018782856
68	0xbce3b363	-0.0277955
69	0xbc88991f	-0.016674576
70	0x3b2f175f	0.002671681
71	0xbc38eb94	-0.011286635
72	0xbb48172d	-0.0030531392
73	0x3cb316b5	0.021861413
74	0x3d40dfec	0.04708855
75	0xbd8a3647	-0.06748634

sequential_4/dense_8/BiasAdd/ReadVariableOp f4 [64]
0	0x3d3c652a	0.045994915
1	0x3dc3331a	0.09531231
2	0x3d2cac8b	0.042156737
3	0x3e04bf8f	0.12963699
4	0x3d3802e2	0.044924624
5	0x3dce14c6	0.10062556
6	0x3d27b2f9	0.040942166
7	0x3d7e920d	0.062151004
8	0x3d925020	0.07144189
9	0x3dddddcd	0.10833321
10	0x3df900dd	0.12158368
11	0x3d71fb57	0.059077587
12	0x3da10388	0.07862002
13	0x3d568f97	0.05238303
14	0x3d89c735	0.06727449
15	0x3daac059	0.08337469
16	0x3dbb6f31	0.091520675
17	0x3dc38e97	0.09548681
18	0x3df47671	0.119366534
19	0x3d5d5fbe	0.054046385
20	0x3d1cafc0	0.038253546
21	0x3d9b0dbf	0.07570981
22	0x3da90c44	0.082542926
23	0x3db40ad1	0.087911256
24	0x3d817b9c	0.06322405
25	0x3d6870db	0.056748252
26	0x3e018e20	0.12651873
27	0x3daf4bfa	0.08559413
28	0x3db8f2ac	0.09030661
29	0x3df2a5ee	0.11848055
30	0x3d6eb5fc	0.058279023
31	0x3d6701ce	0.056398205
32	0x3dc0c4c6	0.094125316
33	0x3d434b6f	0.04767936
34	0x3d097769	0.033561144
35	0x3d08d2a2	0.033404
36	0x3d1317e2	0.03591145
37	0x3d4ae88b	0.049538177
38	0x3dfb02a0	0.1225636
39	0x3dbaa35e	0.09113191
40	0x3d9b4964	0.075823575
41	0x3df0563e	0.117351994
42	0x3dcee73d	0.10102699
43	0x3e0a3678	0.1349734
44	0x3d7f7b32	0.062373348
45	0x3db36014	0.0875856
46	0x3dd7df58	0.10540646
47	0x3dd89b0d	0.105764486
48	0x3d72157d	0.059102524
49	0x3d903312	0.07040991
50	0x3e1e75bd	0.15474601
51	0x3d4a9fad	0.049468685
52	0x3cd36d43	0.025808936
53	0x3d998ce9	0.074975796
54	0x3de5fc06	0.1122971
55	0x3db21a41	0.08696414
56	0x3dca99d5	0.098926224
57	0x3deb0100	0.114748
58	0x3e01db89	0.12681402
59	0x3d9a621e	0.075382456
60	0x3d86072d	0.065443374
61	0x3dede3ab	0.1161569
62	0x3dc6ca7d	0.0970659
63	0x3df49b20	0.1194365

sequential_4/dense_8/Tensordot/MatMul1 i1 [64, 128] scale=0.0038737587 zero_point=0
0	0x09	0.03486383
1	0x1b	0.10459149
2	0xe7	-0.096843965
3	0x42	0.25566807
4	0xf1	-0.05810638
5	0xf9	-0.027116312
6	0xfc	-0.015495035
7	0xdf	-0.12783404
8	0xca	-0.20918298
9	0xd5	-0.16657163
10	0xea	-0.08522269
11	0xe4	-0.10846525
12	0x0e	0.054232623
13	0xcd	-0.1975617
14	0x19	0.096843965
15	0xf3	-0.05035886
16	0xbb	-0.26728934
17	0xc8	-0.2169305
18	0x13	0.07360142
19	0x09	0.03486383
20	0x13	0.07360142
21	0x02	0.0077475174
22	0x3a	0.22467801
23	0xef	-0.0658539
24	0xf0	-0.06198014
25	0xf6	-0.038737588
26	0xe8	-0.09297021
27	0x12	0.06972766
28	0x20	0.12396028
29	0x2c	0.17044538
30	0xf4	-0.046485104
31	0xfa	-0.023242552
32	0x30	0.18594041
33	0xd7	-0.1588241
34	0xd4	-0.17044538
35	0xee	-0.06972766
36	0x38	0.2169305
37	0x0b	0.042611346
38	0x23	0.13558155
39	0x0f	0.05810638
40	0xdf	-0.12783404
41	0xe7	-0.096843965
42	0x1d	0.112339005
43	0xd2	-0.1781929
44	0x20	0.12396028
45	0xf4	-0.046485104
46	0x3b	0.22855176
47	0xed	-0.07360142
48	0xde	-0.1317078
49	0x01	0.0038737587
50	0x32	0.19368793
51	0x15	0.08134893
52	0x38	0.2169305
53	0xb9	-0.27503687
54	0xde	-0.1317078
55	0x0a	0.038737588
56	0xf2	-0.054232623
57	0x0a	0.038737588
58	0xd0	-0.18594041
59	0x03	0.011621276
60	0x36	0.20918298
61	0x15	0.08134893
62	0x3e	0.24017304
63	0xe3	-0.112339005
64	0x2c	0.17044538
65	0x2f	0.18206666
66	0x36	0.20918298
67	0xfa	-0.023242552
68	0xf1	-0.05810638
69	0x30	0.18594041
70	0xd2	-0.1781929
71	0xe9	-0.08909645
72	0x07	0.027116312
73	0x65	0.39124963
74	0x00	0.0
75	0x39	0.22080424
76	0x01	0.0038737587
77	0x07	0.027116312
78	0x0f	0.05810638
79	0xc5	-0.22855176
80	0xdd	-0.13558155
81	0x12	0.06972766
82	0x0e	0.054232623
83	0x3e	0.24017304
84	0xcb	-0.20530921
85	0xb2	-0.30215317
86	0xe7	-0.096843965
87	0xfc	-0.015495035
88	0x39	0.22080424
89	0x1a	0.10071772
90	0xf7	-0.03486383
91	0x0d	0.05035886
92	0x27	0.15107659
93	0x06	0.023242552
94	0x09	0.03486383
95	0x26	0.14720283
96	0xea	-0.08522269
97	0xbf	-0.2517943
98	0xe9	-0.08909645
99	0x05	0.019368794
100	0xeb	-0.08134893
101	0xe1	-0.12008652
102	0xbe	-0.25566807
103	0x3d	0.23629928
104	0xd9	-0.15107659
105	0x06	0.023242552
106	0xdc	-0.13945532
107	0x1e	0.11621276
108	0x22	0.1317078
109	0xfe	-0.0077475174
110	0x2e	0.1781929
111	0x0d	0.05035886
112	0x07	0.027116312
113	0xfd	-0.011621276
114	0x39	0.22080424
115	0xd6	-0.16269787
116	0x10	0.06198014
117	0xda	-0.14720283
118	0xd3	-0.17431915
119	0x23	0.13558155
120	0x47	0.27503687
121	0xf5	-0.042611346
122	0x02	0.0077475174
123	0x20	0.12396028
124	0x30	0.18594041
125	0xc0	-0.24792056
126	0x13	0.07360142
127	0x1d	0.112339005
128	0xe9	-0.08909645
129	0xca	-0.20918298
130	0x07	0.027116312
131	0xea	-0.08522269
132	0x05	0.019368794
133	0x00	0.0
134	0xf1	-0.05810638
135	0x16	0.08522269
136	0x2c	0.17044538
137	0xec	-0.077475175
138	0x15	0.08134893
139	0x0a	0.038737588
140	0x34	0.20143545
141	0xee	-0.06972766
142	0x0c	0.046485104
143	0xed	-0.07360142
144	0x0a	0.038737588
145	0x39	0.22080424
146	0x11	0.0658539
147	0xd8	-0.15495035
148	0x1e	0.11621276
149	0xeb	-0.08134893
150	0xe8	-0.09297021
151	0x21	0.12783404
152	0xd0	-0.18594041
153	0x22	0.1317078
154	0x27	0.15107659
155	0x1a	0.10071772
156	0x1a	0.10071772
157	0x05	0.019368794
158	0xb4	-0.29440567
159	0xd9	-0.15107659
160	0xde	-0.1317078
161	0x37	0.21305673
162	0x08	0.03099007
163	0x0a	0.038737588
164	0x18	0.09297021
165	0x2b	0.16657163
166	0xd6	-0.16269787
167	0xfe	-0.0077475174
168	0x00	0.0
169	0xe0	-0.12396028
170	0xca	-0.20918298
171	0x2c	0.17044538
172	0xfa	-0.023242552
173	0xfe	-0.0077475174
174	0x0c	0.046485104
175	0x2a	0.16269787
176	0x10	0.06198014
177	0x33	0.1975617
178	0xd6	-0.16269787
179	0x3a	0.22467801
180	0x11	0.0658539
181	0x76	0.45710352
182	0xf5	-0.042611346
183	0x12	0.06972766
184	0xeb	-0.08134893
185	0xec	-0.077475175
186	0xb9	-0.27503687
187	0x4e	0.30215317
188	0x03	0.011621276
189	0x2c	0.17044538
190	0xb2	-0.30215317
191	0xd8	-0.15495035
192	0xc6	-0.22467801
193	0xe0	-0.12396028
194	0x2b	0.16657163
195	0x0d	0.05035886
196	0xc0	-0.24792056
197	0xc8	-0.2169305
198	0x3a	0.22467801
199	0x24	0.13945532
200	0x2a	0.16269787
201	0x0d	0.05035886
202	0xfb	-0.019368794
203	0xf3	-0.05035886
204	0xcb	-0.20530921
205	0x16	0.08522269
206	0xde	-0.1317078
207	0xea	-0.08522269
208	0xee	-0.06972766
209	0xaf	-0.31377447
210	0xf0	-0.06198014
211	0x07	0.027116312
212	0xf8	-0.03099007
213	0x20	0.12396028
214	0xde	-0.1317078
215	0xfb	-0.019368794
216	0xc6	-0.22467801
217	0x12	0.06972766
218	0x06	0.023242552
219	0x17	0.08909645
220	0xda	-0.14720283
221	0xf9	-0.027116312
222	0x3e	0.24017304
223	0xfa	-0.023242552
224	0xbf	-0.2517943
225	0x1a	0.10071772
226	0x2f	0.18206666
227	0xd3	-0.17431915
228	0x2c	0.17044538
229	0xe8	-0.09297021
230	0x2c	0.17044538
231	0xd9	-0.15107659
232	0x04	0.015495035
233	0xe6	-0.10071772
234	0x1a	0.10071772
235	0x36	0.20918298
236	0xe0	-0.12396028
237	0x1c	0.10846525
238	0xdf	-0.12783404
239	0x2f	0.18206666
240	0x06	0.023242552
241	0xee	-0.06972766
242	0x3e	0.24017304
243	0x08	0.03099007
244	0x06	0.023242552
245	0xc5	-0.22855176
246	0x6f	0.42998722
247	0x15	0.08134893
248	0x5f	0.36800706
249	0xfd	-0.011621276
250	0xd8	-0.15495035
251	0xc8	-0.2169305
252	0xf3	-0.05035886
253	0xd3	-0.17431915
254	0xb9	-0.27503687
255	0xf9	-0.027116312

sequential_4/dense_9/Tensordot/MatMul i1 [76, 64] scale=0.0052274037 zero_point=0
0	0xbd	-0.35023606
1	0xef	-0.08886586
2	0x0b	0.057501443
3	0xa3	-0.48614854
4	0xfb	-0.026137019
5	0xad	-0.43387452
6	0x1b	0.1411399
7	0x13	0.09932067
8	0xdc	-0.18818653
9	0x1e	0.15682212
10	0x09	0.04704663
11	0xb6	-0.3868279
12	0xe0	-0.16727692
13	0xe1	-0.16204952
14	0x0a	0.052274037
15	0xed	-0.09932067
16	0xe4	-0.14636731
17	0xee	-0.09409326
18	0xd1	-0.24568798
19	0x0d	0.06795625
20	0x29	0.21432355
21	0xd7	-0.21432355
22	0x20	0.16727692
23	0xff	-0.0052274037
24	0x01	0.0052274037
25	0x1f	0.16204952
26	0x96	-0.5541048
27	0xab	-0.44432932
28	0x15	0.109775476
29	0xb6	-0.3868279
30	0xb4	-0.3972827
31	0x05	0.026137019
32	0xe6	-0.1359125
33	0xee	-0.09409326
34	0xd7	-0.21432355
35	0x2e	0.24046057
36	0x22	0.17773172
37	0xf5	-0.057501443
38	0xd0	-0.25091538
39	0x0e	0.073183656
40	0xf9	-0.036591828
41	0xc7	-0.297962
42	0x81	-0.6638803
43	0xe7	-0.13068509
44	0x0d	0.06795625
45	0xc9	-0.2875072
46	0x18	0.12545769
47	0xbc	-0.35546345
48	0x41	0.33978125
49	0xa1	-0.49660334
50	0xc1	-0.32932642
51	0x13	0.09932067
52	0xe3	-0.15159471
53	0xfb	-0.026137019
54	0xf0	-0.08363846
55	0xfc	-0.020909615
56	0x1e	0.15682212
57	0x3f	0.32932642
58	0xb4	-0.3972827
59	0xd2	-0.24046057
60	0xd4	-0.23000577
61	0xb9	-0.37114567
62	0x37	0.2875072
63	0x33	0.2665976
64	0xfd	-0.015682211
65	0xcb	-0.2770524
66	0xf4	-0.062728845
67	0xcd	-0.2665976
68	0xd7	-0.21432355
69	0xea	-0.115002885
70	0x18	0.12545769
71	0xe0	-0.16727692
72	0xc8	-0.29273462
73	0xca	-0.2822798
74	0xeb	-0.109775476
75	0x03	0.015682211
76	0xd2	-0.24046057
77	0xed	-0.09932067
78	0x0f	0.07841106
79	0xd1	-0.24568798
80	0x25	0.19341394
81	0xf8	-0.04181923
82	0xcf	-0.2561428
83	0x1c	0.14636731
84	0x16	0.115002885
85	0xde	-0.17773172
86	0xe0	-0.16727692
87	0xec	-0.104548074
88	0xec	-0.104548074
89	0xee	-0.09409326
90	0xf8	-0.04181923
91	0xd1	-0.24568798
92	0xe7	-0.13068509
93	0xa8	-0.46001154
94	0xb4	-0.3972827
95	0x04	0.020909615
96	0x2c	0.23000577
97	0xf5	-0.057501443
98	0xd4	-0.23000577
99	0x2d	0.23523317
100	0x0d	0.06795625
101	0x23	0.18295912
102	0xaa	-0.4495567
103	0x1e	0.15682212
104	0xee	-0.09409326
105	0xfd	-0.015682211
106	0x13	0.09932067
107	0x06	0.031364422
108	0xee	-0.09409326
109	0xdb	-0.19341394
110	0x00	0.0
111	0xd6	-0.21955095
112	0xf8	-0.04181923
113	0xde	-0.17773172
114	0x08	0.04181923
115	0xe4	-0.14636731
116	0x20	0.16727692
117	0xe2	-0.15682212
118	0xb8	-0.37637305
119	0x08	0.04181923
120	0x05	0.026137019
121	0x11	0.08886586
122	0xe8	-0.12545769
123	0xdb	-0.19341394
124	0x0c	0.062728845
125	0x21	0.17250432
126	0xcb	-0.2770524
127	0x00	0.0
128	0x16	0.115002885
129	0xff	-0.0052274037
130	0xeb	-0.109775476
131	0xc1	-0.32932642
132	0xe6	-0.1359125
133	0xd6	-0.21955095
134	0x2c	0.23000577
135	0xc9	-0.2875072
136	0x10	0.08363846
137	0xff	-0.0052274037
138	0xd2	-0.24046057
139	0x07	0.036591828
140	0xf6	-0.052274037
141	0xe5	-0.1411399
142	0xd3	-0.23523317
143	0xb8	-0.37637305
144	0xae	-0.4286471
145	0xfd	-0.015682211
146	0xdb	-0.19341394
147	0x22	0.17773172
148	0x05	0.026137019
149	0xe7	-0.13068509
150	0x0e	0.073183656
151	0xc4	-0.31364423
152	0x1f	0.16204952
153	0xbc	-0.35546345
154	0xef	-0.08886586
155	0xdf	-0.17250432
156	0xf2	-0.073183656
157	0xe0	-0.16727692
158	0xed	-0.09932067
159	0xe8	-0.12545769
160	0x1a	0.1359125
161	0xff	-0.0052274037
162	0x25	0.19341394
163	0xbe	-0.34500864
164	0x06	0.031364422
165	0x34	0.271825
166	0x12	0.09409326
167	0xd0	-0.25091538
168	0xc7	-0.297962
169	0xe1	-0.16204952
170	0xf6	-0.052274037
171	0x1f	0.16204952
172	0x14	0.104548074
173	0x12	0.09409326
174	0xc6	-0.30318943
175	0xb1	-0.41296488
176	0xef	-0.08886586
177	0x27	0.20386875
178	0xe5	-0.1411399
179	0x1b	0.1411399
180	0xe2	-0.15682212
181	0xdd	-0.18295912
182	0x00	0.0
183	0x05	0.026137019
184	0xe4	-0.14636731
185	0x1b	0.1411399
186	0xdd	-0.18295912
187	0x22	0.17773172
188	0xf2	-0.073183656
189	0xcf	-0.2561428
190	0x08	0.04181923
191	0x04	0.020909615
192	0xf6	-0.052274037
193	0x2d	0.23523317
194	0xf7	-0.04704663
195	0xc8	-0.29273462
196	0x0b	0.057501443
197	0xd4	-0.23000577
198	0xdf	-0.17250432
199	0x32	0.26137018
200	0x13	0.09932067
201	0x15	0.109775476
202	0xbe	-0.34500864
203	0x01	0.0052274037
204	0x06	0.031364422
205	0xbc	-0.35546345
206	0x0c	0.062728845
207	0xc8	-0.29273462
208	0xe9	-0.12023029
209	0x1d	0.15159471
210	0xb6	-0.3868279
211	0xec	-0.104548074
212	0xfe	-0.010454807
213	0x27	0.20386875
214	0x1e	0.15682212
215	0xc3	-0.31887162
216	0xfa	-0.031364422
217	0xef	-0.08886586
218	0x9e	-0.5122856
219	0xc4	-0.31364423
220	0x10	0.08363846
221	0xd1	-0.24568798
222	0xc7	-0.297962
223	0x02	0.010454807
224	0xb5	-0.39205527
225	0xc4	-0.31364423
226	0xa3	-0.48614854
227	0x13	0.09932067
228	0xa5	-0.47569373
229	0x24	0.18818653
230	0xc9	-0.2875072
231	0xe2	-0.15682212
232	0xe3	-0.15159471
233	0x9b	-0.52796775
234	0xb2	-0.4077375
235	0x30	0.25091538
236	0x27	0.20386875
237	0xe6	-0.1359125
238	0x25	0.19341394
239	0xd9	-0.20386875
240	0x06	0.031364422
241	0xf8	-0.04181923
242	0xd8	-0.20909615
243	0xf8	-0.04181923
244	0xf4	-0.062728845
245	0x14	0.104548074
246	0x34	0.271825
247	0x1d	0.15159471
248	0xd2	-0.24046057
249	0x25	0.19341394
250	0x9c	-0.52274036
251	0x20	0.16727692
252	0x18	0.12545769
253	0xb4	-0.3972827
254	0xea	-0.115002885
255	0x34	0.271825

sequential_4/lstm_4/Read_2/ReadVariableOp1 f4 [512]
0	0x3d776883	0.060402405
1	0xbbc59c2c	-0.00603058
2	0xba18960c	-0.00058206986
3	0x3c0139a5	0.007887279
4	0x3dacde9e	0.08440898
5	0x3d12f50a	0.03587822
6	0x3d367e9b	0.044554334
7	0xbc0c8d2b	-0.008578579
8	0x3cc25842	0.023723725
9	0x3c9e4859	0.019321607
10	0x3d2617c9	0.040550027
11	0xbcd9aea3	-0.026572531
12	0x3baf7169	0.0053540957
13	0xbca26633	-0.019824123
14	0x3ac70a37	0.0015185539
15	0x3d2f7e28	0.04284492
16	0x3ca896aa	0.020579655
17	0x3c32da74	0.010916341
18	0xbc4b2351	-0.012398557
19	0x3c3100ca	0.010803411
20	0x3d31e013	0.043426584
21	0x3b9140ab	0.004432758
22	0x3c95480d	0.018222833
23	0x3cf1656e	0.02946731
24	0x3d120dc2	0.03565765
25	0x3a8508ea	0.0010149751
26	0xbb96a29c	-0.0045970213
27	0xbcaeb578	-0.021326765
28	0x3d29c10f	0.04144388
29	0x3cad0622	0.021121088
30	0xbc74456a	-0.014909128
31	0xbd1888ec	-0.037239954
32	0x3d5c2326	0.053744458
33	0x3bb5f946	0.0055533974
34	0xbb98335d	-0.004644795
35	0x3c7ce53c	0.015435513
36	0xbc938313	-0.018006837
37	0xbc825612	-0.015910182
38	0xbc69f69d	-0.014279989
39	0x3c4197d0	0.01181598
40	0x3c548b18	0.012972616
41	0x3cfe846e	0.031069007
42	0x3d7499d0	0.059717
43	0x3d2b449d	0.04181348
44	0x3cf84e8e	0.030310895
45	0x3c3d2b57	0.011545978
46	0x3cbc5ca2	0.02299339
47	0x3bfbacf2	0.007680529
48	0x3c2a6478	0.01039993
49	0x3c64f423	0.013974222
50	0x3d1263fc	0.035739884
51	0x3cf049eb	0.029332122
52	0x3c60e787	0.013727075
53	0x3cc5ff84	0.02416969
54	0x3c1aed2d	0.009455961
55	0x3d09e949	0.033669744
56	0x3c4c17c5	0.012456839
57	0x3a89bd00	0.0010508597
58	0xbbb5e48a	-0.0055509256
59	0x3cad5f4f	0.02116361
60	0x3d280252	0.041017838
61	0xbc6f5597	-0.014607809
62	0xbc66c04a	-0.014083931
63	0x3cc591ee	0.024117436
64	0xbc041467	-0.008061505
65	0x3c16b7fc	0.009199139
66	0x3c6c3b3e	0.014418421
67	0xbc8474a8	-0.016168907
68	0x3d99c537	0.07508319
69	0xbc104f0c	-0.008807909
70	0x3c362cf7	0.011119119
71	0x3c3698c1	0.011144818
72	0xbc4ab23a	-0.012371594
73	0xbc8c39a2	-0.017117325
74	0x3c600ada	0.013674462
75	0xbc25d808	-0.010122307
76	0xbbb49fab	-0.005512198
77	0xbb2c8e91	-0.0026330093
78	0xbc8ee537	-0.017443283
79	0x3c5fab05	0.013651614
80	0x3d24d658	0.040243477
81	0x3c52b34a	0.012860129
82	0xbba782e1	-0.0051120375
83	0x3c9e2ce3	0.019308513
84	0x3cbde999	0.023182677
85	0xbcd374a8	-0.025812462
86	0xbcfdb96a	-0.030972201
87	0x3c80b501	0.01571131
88	0xbc30c2a3	-0.0107885925
89	0x39937cdd	0.00028131055
90	0x3b2cc353	0.002636154
91	0x3aa82324	0.0012827856
92	0x3cfa202a	0.030532915
93	0x3d2c0ebd	0.042006243
94	0xbc5f0c3f	-0.01361376
95	0x3d360eca	0.044447698
96	0x3c82e834	0.015979864
97	0x3c2bae71	0.010478602
98	0x3d114e25	0.035474915
99	0x3c1f876a	0.009736875
100	0x3b7d653e	0.0038665081
101	0x39b2f88b	0.00034135985
102	0x3cd87e0c	0.026427291
103	0x3cfa72af	0.030572264
104	0x3c972e75	0.01845477
105	0x3c352e6e	0.011058433
106	0x3a5d9fd4	0.0008454297
107	0xbd40e7e6	-0.047096156
108	0x3caaa99c	0.02083283
109	0x3c39cd6d	0.011340481
110	0x3d1dee47	0.038557317
111	0xbd1cc9ce	-0.038278393
112	0xbbb2183f	-0.0054350193
113	0x3cd40a66	0.025883865
114	0x3bcc2b36	0.006230737
115	0x3c95fcce	0.018309023
116	0xbc81497d	-0.015782112
117	0x3cec7743	0.028865462
118	0x3a9f479c	0.0012152079
119	0x3d447562	0.047963507
120	0x3b60ce29	0.0034302569
121	0x3cc2234a	0.023698468
122	0x3c319978	0.010839812
123	0x3d05a35e	0.032626502
124	0xbceb69a4	-0.028736897
125	0xbd8793b3	-0.06619968
126	0x3c994c27	0.01871307
127	0xbc9aac7f	-0.01888108
128	0x3f8a9a16	1.0828273
129	0x3f80c6e4	1.0060697
130	0x3f8191f2	1.0122664
131	0x3f7d4283	0.98929614
132	0x3f87a658	1.0597639
133	0x3f7fd40a	0.9993292
134	0x3f7990e6	0.9748672
135	0x3f85d524	1.045567
136	0x3f84237e	1.0323331
137	0x3f81dffc	1.014648
138	0x3f835c29	1.02625
139	0x3f801a60	1.0008049
140	0x3f7b8780	0.9825363
141	0x3f83c812	1.0295432
142	0x3f7f80fd	0.99806195
143	0x3f849802	1.0358889
144	0x3f8534b0	1.0406704
145	0x3f81e9ef	1.0149516
146	0x3f835bee	1.026243
147	0x3f78deca	0.9721495
148	0x3f86d803	1.0534672
149	0x3f84752c	1.0348258
150	0x3f81ffca	1.0156186
151	0x3f7d77e1	0.99011046
152	0x3f836972	1.0266554
153	0x3f7e7dc2	0.9941064
154	0x3f7d555c	0.98958373
155	0x3f7ab2d4	0.9792912
156	0x3f87b69c	1.0602603
157	0x3f7e6694	0.9937527
158	0x3f7263ac	0.9468334
159	0x3f8037bf	1.0017012
160	0x3f814b23	1.0101055
161	0x3f85729b	1.04256
162	0x3f826e71	1.0189954
163	0x3f8308d5	1.023707
164	0x3f7edf40	0.995594
165	0x3f85121c	1.0396152
166	0x3f7b7fe4	0.9824202
167	0x3f87d440	1.0611649
168	0x3f808517	1.0040616
169	0x3f845ef8	1.0341482
170	0x3f850c0a	1.0394299
171	0x3f833957	1.0251874
172	0x3f816919	1.0110198
173	0x3f85873e	1.0431898
174	0x3f80c4cb	1.0060056
175	0x3f8283bf	1.0196456
176	0x3f81c3c1	1.0137864
177	0x3f86fc58	1.0545759
178	0x3f7db956	0.99110925
179	0x3f815a2d	1.0105644
180	0x3f82a756	1.0207317
181	0x3f839c0d	1.0281998
182	0x3f88a9c4	1.0676808
183	0x3f7f6be8	0.99774027
184	0x3f81f789	1.0153667
185	0x3f80a704	1.0050969
186	0x3f850347	1.0391625
187	0x3f848338	1.0352545
188	0x3f8257dc	1.0183063
189	0x3f7f4ac8	0.9972348
190	0x3f81f685	1.0153357
191	0x3f83d25d	1.0298573
192	0x3f85a249	1.044015
193	0x3f82b433	1.0211242
194	0x3f837c9c	1.0272403
195	0x3f843c66	1.0330932
196	0x3f863e62	1.0487788
197	0x3f811852	1.0085547
198	0x3f811ef8	1.0087576
199	0x3f807d80	1.00383
200	0x3f82bc45	1.0213705
201	0x3f8645fc	1.0490108
202	0x3f819f8b	1.0126814
203	0x3f8bb5f9	1.0914909
204	0x3f8104f9	1.0079643
205	0x3f7c5787	0.98571056
206	0x3f7e51b5	0.99343425
207	0x3f832d73	1.0248245
208	0x3f8832e2	1.0640528
209	0x3f77cf4a	0.96800673
210	0x3f82e462	1.0225947
211	0x3f82b655	1.0211893
212	0x3f856b32	1.0423338
213	0x3f84a776	1.0363605
214	0x3f7b1978	0.9808574
215	0x3f83663c	1.0265574
216	0x3f80d1c4	1.0064015
217	0x3f89d00d	1.0766617
218	0x3f7fdb7f	0.999443
219	0x3f82c9f8	1.0217886
220	0x3f8372dd	1.0269428
221	0x3f84af9f	1.0366095
222	0x3f81ab83	1.0130466
223	0x3f8aadc9	1.0834285
224	0x3f80d9f8	1.0066519
225	0x3f806394	1.0030389
226	0x3f844bf6	1.0335681
227	0x3f822db6	1.01702
228	0x3f825c08	1.0184336
229	0x3f830e34	1.023871
230	0x3f83a836	1.0285709
231	0x3f8593d5	1.043574
232	0x3f8777d6	1.0583446
233	0x3f7fa746	0.99864614
234	0x3f82b575	1.0211626
235	0x3f7dcab0	0.991374
236	0x3f862f25	1.0483137
237	0x3f81363a	1.0094674
238	0x3f88c832	1.0686095
239	0x3f80ea4d	1.0071503
240	0x3f7e0073	0.99219435
241	0x3f7cfc0f	0.9882211
242	0x3f83ab6a	1.0286686
243	0x3f80618c	1.0029769
244	0x3f82d636	1.0221622
245	0x3f80a3b1	1.0049955
246	0x3f8153dd	1.0103718
247	0x3f85f9bf	1.0466841
248	0x3f8414c0	1.0318832
249	0x3f86ef02	1.0541689
250	0x3f822a68	1.0169191
251	0x3f802e9d	1.0014225
252	0x3f8325f3	1.0245956
253	0x3f80413d	1.0019909
254	0x3f7f1104	0.9963534
255	0x3f7562eb	0.9585406

while/MatMul_1 i1 [512, 128] scale=0.00371338 zero_point=0
0	0xf8	-0.02970704
1	0x07	0.02599366
2	0xeb	-0.07798098
3	0xe9	-0.08540774
4	0x1c	0.10397464
5	0xf9	-0.02599366
6	0xf8	-0.02970704
7	0xe5	-0.10026126
8	0x01	0.00371338
9	0xe9	-0.08540774
10	0xfd	-0.01114014
11	0x1b	0.10026126
12	0xfe	-0.00742676
13	0x01	0.00371338
14	0xf3	-0.04827394
15	0x01	0.00371338
16	0x02	0.00742676
17	0xf5	-0.040847182
18	0x00	0.0
19	0x0f	0.0557007
20	0xe7	-0.0928345
21	0xfb	-0.0185669
22	0xfe	-0.00742676
23	0xfc	-0.01485352
24	0xfc	-0.01485352
25	0x19	0.0928345
26	0x07	0.02599366
27	0xe9	-0.08540774
28	0x1c	0.10397464
29	0x16	0.081694365
30	0x05	0.0185669
31	0x15	0.07798098
32	0x13	0.07055422
33	0x1c	0.10397464
34	0x03	0.01114014
35	0x18	0.08912112
36	0x01	0.00371338
37	0xed	-0.07055422
38	0x00	0.0
39	0xd8	-0.1485352
40	0x18	0.08912112
41	0x24	0.13368168
42	0x1d	0.107688025
43	0x0f	0.0557007
44	0xf7	-0.03342042
45	0xf1	-0.0557007
46	0xf2	-0.05198732
47	0x12	0.06684084
48	0xea	-0.081694365
49	0x12	0.06684084
50	0x03	0.01114014
51	0x1f	0.115114786
52	0x12	0.06684084
53	0xf5	-0.040847182
54	0xe6	-0.09654788
55	0x2a	0.15596196
56	0x07	0.02599366
57	0xf5	-0.040847182
58	0x29	0.15224858
59	0xff	-0.00371338
60	0xf8	-0.02970704
61	0xfa	-0.02228028
62	0xf0	-0.05941408
63	0x05	0.0185669
64	0xff	-0.00371338
65	0x10	0.05941408
66	0xf6	-0.0371338
67	0x0c	0.04456056
68	0xf5	-0.040847182
69	0x05	0.0185669
70	0x06	0.02228028
71	0x0c	0.04456056
72	0xea	-0.081694365
73	0x22	0.12625492
74	0x00	0.0
75	0xe5	-0.10026126
76	0xdc	-0.13368168
77	0xd7	-0.15224858
78	0xea	-0.081694365
79	0xff	-0.00371338
80	0x08	0.02970704
81	0x11	0.06312746
82	0x17	0.08540774
83	0xf5	-0.040847182
84	0x21	0.12254154
85	0x32	0.185669
86	0x09	0.03342042
87	0xe8	-0.08912112
88	0xf8	-0.02970704
89	0x0d	0.04827394
90	0xf7	-0.03342042
91	0xd5	-0.15967534
92	0x07	0.02599366
93	0x28	0.1485352
94	0x03	0.01114014
95	0xf7	-0.03342042
96	0x20	0.11882816
97	0xee	-0.06684084
98	0x0c	0.04456056
99	0xf1	-0.0557007
100	0x2b	0.15967534
101	0xdc	-0.13368168
102	0x0b	0.040847182
103	0xf5	-0.040847182
104	0x02	0.00742676
105	0x06	0.02228028
106	0x05	0.0185669
107	0x2b	0.15967534
108	0x05	0.0185669
109	0xef	-0.06312746
110	0xe1	-0.115114786
111	0x10	0.05941408
112	0xf0	-0.05941408
113	0x20	0.11882816
114	0xfe	-0.00742676
115	0xf4	-0.04456056
116	0xfe	-0.00742676
117	0xfe	-0.00742676
118	0x25	0.13739507
119	0xe6	-0.09654788
120	0xf5	-0.040847182
121	0xee	-0.06684084
122	0xec	-0.0742676
123	0x01	0.00371338
124	0x09	0.03342042
125	0x15	0.07798098
126	0xed	-0.07055422
127	0xf0	-0.05941408
128	0x07	0.02599366
129	0x02	0.00742676
130	0xf9	-0.02599366
131	0x0e	0.05198732
132	0xfd	-0.01114014
133	0xfd	-0.01114014
134	0x0e	0.05198732
135	0xf8	-0.02970704
136	0xf0	-0.05941408
137	0xf2	-0.05198732
138	0x14	0.0742676
139	0xe8	-0.08912112
140	0x1f	0.115114786
141	0x0e	0.05198732
142	0xf8	-0.02970704
143	0x18	0.08912112
144	0xef	-0.06312746
145	0x09	0.03342042
146	0xf6	-0.0371338
147	0x07	0.02599366
148	0xfe	-0.00742676
149	0x10	0.05941408
150	0x0c	0.04456056
151	0xf6	-0.0371338
152	0xf2	-0.05198732
153	0xfc	-0.01485352
154	0x0f	0.0557007
155	0xdc	-0.13368168
156	0xf0	-0.05941408
157	0xeb	-0.07798098
158	0xf2	-0.05198732
159	0xfb	-0.0185669
160	0xf2	-0.05198732
161	0xcf	-0.18195562
162	0x02	0.00742676
163	0xde	-0.12625492
164	0x12	0.06684084
165	0xe6	-0.09654788
166	0xfe	-0.00742676
167	0xfe	-0.00742676
168	0xfe	-0.00742676
169	0x07	0.02599366
170	0x0b	0.040847182
171	0x28	0.1485352
172	0x08	0.02970704
173	0x14	0.0742676
174	0x07	0.02599366
175	0xea	-0.081694365
176	0xef	-0.06312746
177	0xe3	-0.107688025
178	0x08	0.02970704
179	0xdc	-0.13368168
180	0xf1	-0.0557007
181	0x00	0.0
182	0x0f	0.0557007
183	0xf8	-0.02970704
184	0x15	0.07798098
185	0x01	0.00371338
186	0xdd	-0.1299683
187	0x0a	0.0371338
188	0xf1	-0.0557007
189	0x16	0.081694365
190	0xdb	-0.13739507
191	0x00	0.0
192	0x03	0.01114014
193	0x0b	0.040847182
194	0x00	0.0
195	0x01	0.00371338
196	0x18	0.08912112
197	0x11	0.06312746
198	0xf1	-0.0557007
199	0xf2	-0.05198732
200	0xf5	-0.040847182
201	0x09	0.03342042
202	0x23	0.1299683
203	0x09	0.03342042
204	0xed	-0.07055422
205	0xfb	-0.0185669
206	0x34	0.19309576
207	0xe1	-0.115114786
208	0x13	0.07055422
209	0x05	0.0185669
210	0x07	0.02599366
211	0xf6	-0.0371338
212	0xf9	-0.02599366
213	0x0a	0.0371338
214	0x00	0.0
215	0x02	0.00742676
216	0x11	0.06312746
217	0x01	0.00371338
218	0x04	0.01485352
219	0xf2	-0.05198732
220	0x03	0.01114014
221	0xec	-0.0742676
222	0xf4	-0.04456056
223	0x1d	0.107688025
224	0x0f	0.0557007
225	0xef	-0.06312746
226	0x07	0.02599366
227	0xfc	-0.01485352
228	0xff	-0.00371338
229	0xfd	-0.01114014
230	0x1f	0.115114786
231	0xff	-0.00371338
232	0x0a	0.0371338
233	0xfd	-0.01114014
234	0x0a	0.0371338
235	0x0f	0.0557007
236	0xef	-0.06312746
237	0xe1	-0.115114786
238	0xe7	-0.0928345
239	0x0f	0.0557007
240	0xfc	-0.01485352
241	0x21	0.12254154
242	0x0a	0.0371338
243	0x00	0.0
244	0xfe	-0.00742676
245	0x0b	0.040847182
246	0x1b	0.10026126
247	0x0f	0.0557007
248	0x0d	0.04827394
249	0xfe	-0.00742676
250	0xd7	-0.15224858
251	0x12	0.06684084
252	0xfa	-0.02228028
253	0x30	0.17824224
254	0x18	0.08912112
255	0xf4	-0.04456056

while/MatMul i1 [512, 40] scale=0.0017353403 zero_point=0
0	0xde	-0.059001572
1	0xc0	-0.11106178
2	0x03	0.005206021
3	0x1e	0.05206021
4	0xb8	-0.12494451
5	0x0f	0.026030105
6	0xb2	-0.13535655
7	0x0d	0.022559425
8	0xd4	-0.07635497
9	0xd0	-0.083296336
10	0x1e	0.05206021
11	0xf5	-0.019088743
12	0xfd	-0.005206021
13	0xf5	-0.019088743
14	0x29	0.071148954
15	0xf3	-0.022559425
16	0x2d	0.07809032
17	0xe6	-0.04511885
18	0x10	0.027765445
19	0x27	0.06767827
20	0x25	0.06420759
21	0x31	0.08503167
22	0x20	0.05553089
23	0xe6	-0.04511885
24	0x3e	0.1075911
25	0xd0	-0.083296336
26	0xe6	-0.04511885
27	0xe2	-0.05206021
28	0xb8	-0.12494451
29	0x2b	0.074619636
30	0x23	0.060736913
31	0xe5	-0.04685419
32	0x36	0.09370838
33	0xc2	-0.1075911
34	0x05	0.008676702
35	0x24	0.062472254
36	0xdb	-0.06420759
37	0x39	0.0989144
38	0x0f	0.026030105
39	0x4a	0.12841518
40	0x1c	0.048589528
41	0x29	0.071148954
42	0xcb	-0.09197304
43	0xeb	-0.036442146
44	0x1b	0.04685419
45	0xe3	-0.05032487
46	0xd6	-0.07288429
47	0xcf	-0.08503167
48	0xe2	-0.05206021
49	0x2f	0.081561
50	0x05	0.008676702
51	0xd5	-0.074619636
52	0xe4	-0.048589528
53	0x0e	0.024294764
54	0x36	0.09370838
55	0xf5	-0.019088743
56	0xdc	-0.062472254
57	0x2e	0.079825655
58	0xec	-0.03470681
59	0x08	0.013882723
60	0x0d	0.022559425
61	0x24	0.062472254
62	0x10	0.027765445
63	0xf0	-0.027765445
64	0xf5	-0.019088743
65	0x0b	0.019088743
66	0xfe	-0.0034706807
67	0xe7	-0.04338351
68	0xf4	-0.020824084
69	0xd2	-0.079825655
70	0x08	0.013882723
71	0xd2	-0.079825655
72	0xc1	-0.109326445
73	0xd1	-0.081561
74	0x13	0.032971468
75	0xba	-0.12147383
76	0x31	0.08503167
77	0x23	0.060736913
78	0x27	0.06767827
79	0x45	0.11973848
80	0xb1	-0.13709189
81	0x11	0.029500786
82	0xb3	-0.1336212
83	0x16	0.038177487
84	0x02	0.0034706807
85	0x2d	0.07809032
86	0xfd	-0.005206021
87	0xdb	-0.06420759
88	0xf5	-0.019088743
89	0x08	0.013882723
90	0x00	0.0
91	0x04	0.0069413614
92	0x05	0.008676702
93	0xcf	-0.08503167
94	0x2f	0.081561
95	0x01	0.0017353403
96	0xd2	-0.079825655
97	0x23	0.060736913
98	0xf6	-0.017353404
99	0xca	-0.09370838
100	0xd6	-0.07288429
101	0x2b	0.074619636
102	0xc0	-0.11106178
103	0x3f	0.109326445
104	0xd2	-0.079825655
105	0x19	0.04338351
106	0x04	0.0069413614
107	0x26	0.065942936
108	0x03	0.005206021
109	0xd7	-0.071148954
110	0x4a	0.12841518
111	0x45	0.11973848
112	0x2b	0.074619636
113	0xe3	-0.05032487
114	0x26	0.065942936
115	0xd7	-0.071148954
116	0x1c	0.048589528
117	0xd3	-0.07809032
118	0xf2	-0.024294764
119	0xea	-0.038177487
120	0xfb	-0.008676702
121	0xd6	-0.07288429
122	0xeb	-0.036442146
123	0xc5	-0.10238508
124	0x2c	0.07635497
125	0xd3	-0.07809032
126	0xf1	-0.026030105
127	0xc6	-0.10064974
128	0x06	0.010412042
129	0xd0	-0.083296336
130	0xef	-0.029500786
131	0x37	0.09544372
132	0x05	0.008676702
133	0xec	-0.03470681
134	0x1b	0.04685419
135	0xec	-0.03470681
136	0x12	0.031236127
137	0x05	0.008676702
138	0xed	-0.032971468
139	0x2b	0.074619636
140	0xf6	-0.017353404
141	0xd1	-0.081561
142	0x04	0.0069413614
143	0xf6	-0.017353404
144	0xf8	-0.013882723
145	0x28	0.06941362
146	0x05	0.008676702
147	0x15	0.036442146
148	0x10	0.027765445
149	0xfe	-0.0034706807
150	0x3d	0.10585576
151	0x36	0.09370838
152	0x20	0.05553089
153	0x1e	0.05206021
154	0xfd	-0.005206021
155	0xf6	-0.017353404
156	0x4a	0.12841518
157	0xe2	-0.05206021
158	0x0f	0.026030105
159	0x0a	0.017353404
160	0xe6	-0.04511885
161	0xfd	-0.005206021
162	0xdd	-0.060736913
163	0x2a	0.07288429
164	0xfc	-0.0069413614
165	0x0f	0.026030105
166	0x0e	0.024294764
167	0x4c	0.13188587
168	0xe6	-0.04511885
169	0x2b	0.074619636
170	0xeb	-0.036442146
171	0x05	0.008676702
172	0xc4	-0.10412042
173	0x11	0.029500786
174	0xb2	-0.13535655
175	0x06	0.010412042
176	0xb9	-0.12320916
177	0xf3	-0.022559425
178	0xf4	-0.020824084
179	0xdc	-0.062472254
180	0xe2	-0.05206021
181	0x30	0.083296336
182	0xcb	-0.09197304
183	0x15	0.036442146
184	0xeb	-0.036442146
185	0xe0	-0.05553089
186	0x32	0.08676702
187	0x32	0.08676702
188	0x12	0.031236127
189	0x08	0.013882723
190	0x92	-0.19088744
191	0x18	0.041648168
192	0xee	-0.031236127
193	0x1a	0.04511885
194	0x14	0.03470681
195	0xf6	-0.017353404
196	0x18	0.041648168
197	0xf7	-0.0156180635
198	0xaa	-0.14923927
199	0xf1	-0.026030105
200	0x18	0.041648168
201	0x0a	0.017353404
202	0xc2	-0.1075911
203	0xbf	-0.11279712
204	0x01	0.0017353403
205	0x0e	0.024294764
206	0x31	0.08503167
207	0xe3	-0.05032487
208	0x38	0.097179055
209	0x08	0.013882723
210	0xd5	-0.074619636
211	0x17	0.039912827
212	0x1a	0.04511885
213	0x01	0.0017353403
214	0x0f	0.026030105
215	0x21	0.05726623
216	0x18	0.041648168
217	0xf3	-0.022559425
218	0x14	0.03470681
219	0x07	0.012147382
220	0x1b	0.04685419
221	0xf6	-0.017353404
222	0x5b	0.15791596
223	0xb4	-0.13188587
224	0x2d	0.07809032
225	0xd6	-0.07288429
226	0x1b	0.04685419
227	0x06	0.010412042
228	0x1e	0.05206021
229	0x0a	0.017353404
230	0x57	0.15097462
231	0x0e	0.024294764
232	0x52	0.14229791
233	0x16	0.038177487
234	0x04	0.0069413614
235	0xe8	-0.041648168
236	0x3d	0.10585576
237	0x2d	0.07809032
238	0x24	0.062472254
239	0xf0	-0.027765445
240	0x11	0.029500786
241	0xc3	-0.10585576
242	0xec	-0.03470681
243	0xd7	-0.071148954
244	0xeb	-0.036442146
245	0xd6	-0.07288429
246	0xd1	-0.081561
247	0xf6	-0.017353404
248	0xcc	-0.0902377
249	0xd3	-0.07809032
250	0x1b	0.04685419
251	0x16	0.038177487
252	0xb7	-0.12667984
253	0xfa	-0.010412042
254	0x14	0.03470681
255	0xd1	-0.081561
