model/keypoint_classifier/keypoint_classifier.tflite (tflite, 6588 bytes, 6 tensors)

sequential/dense/BiasAdd/ReadVariableOp f4 [20]
-0.026930941 0.20552282 0.00056064577 0.08320902 -0.0071636145 0.02708932 -0.10277811 0.12294022
0.20210673 0.087596 -0.02524215 0.134821 -0.012080563 0.13845076 -0.08202431 0.08246493
-0.056110255 0.096012935 0.10185025 0.19990674
00000000: 479e dcbc 9374 523e 4df8 123a 7e69 aa3d
00000010: c1bc eabb 6cea dd3c 547d d2bd 15c8 fb3d
00000020: 11f5 4e3e 8865 b33d a0c8 cebc 840e 0a3e
00000030: 8eed 45bc 09c6 0d3e 5dfc a7bd 60e3 a83d
00000040: ded3 65bd 6ea2 c43d dd96 d03d 5ab4 4c3e

sequential/dense_2/BiasAdd/ReadVariableOp f4 [5]
-0.083919674 -0.40606233 -0.11191806 0.2806783 0.09455034
00000000: 14de abbd 67e7 cfbe 4c35 e5bd 11b5 8f3e
00000010: 9ca3 c13d

sequential/dense_1/BiasAdd/ReadVariableOp f4 [10]
-0.16975231 0.27390525 0.6192557 0.11615182 0.2648884 -0.030584034 -0.22123083 0.10077622
0.189098 -0.055657756
00000000: 8dd3 2dbe 4f3d 8c3e 8b87 1e3f 01e1 ed3d
00000010: 749f 873e 5e8b fabc 568a 62be c363 ce3d
00000020: e8a2 413e 63f9 63bd

sequential/dense/MatMul f4 [20, 42]
0.2445098 0.27251324 0.067708135 -0.25814748 -0.216825 -0.15369408 0.066588305 0.13282232
-0.014707232 -0.24080005 -0.32039326 0.18947908 -0.051474858 0.19257231 -0.0113973 0.28532535
-0.07812776 -0.29534292 -0.3284131 -0.24378651 0.16811518 -0.28127226 0.11461109 -0.12770535
0.036658835 -0.17451233 0.20105131 0.22548966 -0.21540678 -0.3316125 -0.19798711 0.060320485
-0.033972997 0.28133085 0.11327917 -0.12194797 -0.21907796 0.17166981 0.06726627 -0.18432525
-0.23773544 -0.04555571 0.40950218 0.0046617733 0.2672152 -0.38703635 0.64762944 -0.3425542
0.3330424 -0.5402149 0.31605402 -0.45808423 0.13489985 0.15913816 0.6561537 -0.32023394
0.20248589 0.19185795 0.44972512 0.21355999 0.6178191 -0.0150700705 0.0143691925 -0.059400402
0.15629728 -0.122014455 -0.0058814557 -0.23859592 -0.08059516 -0.030869827 -0.29900965 -0.21534653
0.04661264 -0.45515215 -0.099529445 -0.124721825 0.44463122 0.24171099 -0.3788627 -0.3852958
-0.4258453 0.2784006 0.0012967833 -0.12882234 -0.091167085 -0.16176541 -0.105169035 -0.19203106
-0.12138041 -0.12601864 -0.19131573 0.28666553 -0.310368 0.15994252 -0.27391267 -0.20351619
0.22332297 0.15363559 -0.20330977 -0.27243662 -0.27006555 -0.027410049 -0.018185185 0.058621537
0.12603138 0.04280586 0.044381622 -0.1712204 -0.2903031 -0.08236912 -0.16867478 -0.016560145
0.152823 0.27308398 0.11891979 -0.023466917 0.18324628 0.33225548 -0.08691367 0.037171632
0.23219562 -0.1028722 -0.05132562 0.062113393 -0.19774197 -0.074512765 0.115361966 0.25669307
-0.12270897 -0.39714307 0.16128759 -0.011430047 0.09153275 -0.1566479 -0.049473826 -0.24897291
-0.050528485 -0.285451 -0.008739196 0.16709499 -0.07853847 0.16424136 0.03966058 0.85554504
0.17602073 0.042736698 0.14681354 0.27346024 -0.42596155 0.9078756 -0.33066574 0.83275574
0.18501714 0.014571943 -0.39275315 -0.061154325 0.37734318 0.20365153 -0.2860448 0.3335532
0.22551824 -0.22590594 0.16406329 -0.16024853 -0.7062124 -0.24047102 0.13496949 -0.16949646
-0.22049926 0.08697957 -0.09070744 -0.4293989 0.1564197 -0.21029882 0.2589145 -0.17230119
0.3230264 -0.32635507 0.2161603 -0.017855145 0.15512332 0.2031632 0.2716481 0.11169008
0.20943914 0.6664506 -0.13450977 -0.37654525 -0.09523557 0.068830416 -0.22913677 0.90632266
0.12977546 0.38052648 0.5069861 -0.028878631 -0.21334471 0.22970837 -0.07170425 0.684307
-0.060842365 -0.0032146769 -0.12849063 -0.2473946 0.048599765 -0.5102024 0.044966828 -0.23715338
0.13608554 -0.42283815 0.1916892 -0.24576457 0.47704476 -0.19462945 -0.20369817 -0.28690547
-0.121280305 -0.1187938 -0.21631902 -0.26957044 0.5361575 -0.12742941 0.00918036 0.26302934
-0.010392272 0.80756295 -0.17074516 0.5159192 -0.5794486 0.03982954 0.23868227 0.17832774
0.006304784 0.72541386 -0.03726285 0.7719741 -0.09077833 -0.38210252 0.28056517 -0.10557427
-0.2817255 0.036972366 0.10050562 0.31095818 0.12734658 -0.3690214 -0.10143417 -0.49849162
-0.028734013 -0.08710238 -0.041343298 0.067872174 -0.122292124 -0.21093984 -0.019402044 0.35950258
00000000: c760 7a3e db86 8b3e 90aa 8a3d e82b 84be
00000010: 5f07 5ebe fb61 1dbe 735f 883d 9302 083e
00000020: 9af6 70bc 4a94 76be 960a a4be ce06 423e
00000030: 4dd7 52bd ad31 453e bebb 3abc 2a16 923e
00000040: 7201 a0bd 3037 97be c325 a8be 2ca3 79be
00000050: 6326 2c3e eb02 90be 38b9 ea3d 31c5 02be
00000060: 9327 163d 5cb3 32be 65e0 4d3e c3e6 663e
00000070: 9893 5cbe 1dc9 a9be 22bd 4abe 9d12 773d
00000080: 4527 0bbd 990a 903e e9fe e73d dbbf f9bd
00000090: f955 60be 36ca 2f3e e6c2 893d c2bf 3cbe
000000a0: eb70 73be a098 3abd 45aa d13e cac1 983b
000000b0: 6ed0 883e a129 c6be 0bcb 253f 4463 afbe
000000c0: 8984 aa3e 864b 0abf d5d1 a13e 048a eabe
000000d0: 3023 0a3e 1df5 223e b0f9 273f b4f5 a3be
000000e0: 7658 4f3e 6976 443e 5f42 e63e 78af 5a3e
000000f0: 6429 1e3f 75e8 76bc c36c 6b3c d64d 73bd
00000100: 650c 203e b7e2 f9bd 3ab9 c0bb 7d52 74be
00000110: 130f a5bd b8e2 fcbc cb17 99be cd83 5cbe
00000120: e5ec 3e3d b409 e9be 18d6 cbbd 286e ffbd
00000130: b4a6 e33e 1683 773e 4bfa c1be 7e45 c5be
00000140: 6508 dabe 868a 8e3e d4f8 a93a 01ea 03be
00000150: cfb5 babd d5a5 25be dd62 d7bd caa3 44be
00000160: 4b96 f8bd 080b 01be 45e8 43be d3c5 923e
00000170: 8ee8 9ebe f9c7 233e 483e 8cbe 8c66 50be
00000180: c7ae 643e a652 1d3e 7030 50be d07c 8bbe
00000190: 0846 8abe 0a8b e0bc 19f9 94bc 231d 703d
000001a0: 5f0e 013e 3355 2f3d 81c9 353d 6754 2fbe
000001b0: 9ca2 94be 24b1 a8bd 15b9 2cbe 24a9 87bc
000001c0: a27d 1c3e aad1 8b3e 388c f33d b13d c0bc
000001d0: eaa4 3b3e 641d aa3e cbff b1bd 4841 183d
000001e0: b0c4 6d3e a9ae d2bd d03a 52bd 9d6a 7e3d
000001f0: df7c 4abe 269a 98bd e542 ec3d 466d 833e
00000200: d74e fbbd 5656 cbbe 9328 253e 1845 3bbc
00000210: 8675 bb3d 4f68 20be 11a5 4abd c1f2 7ebe
00000220: f5f6 4ebd a226 92be d82e 0fbc f31a 2b3e
00000230: c7d8 a0bd e32e 283e 2273 223d 0005 5b3f
00000240: c73e 343e ad0c 2f3d 4a56 163e fb02 8c3e
00000250: a217 dabe 896a 683f 054d a9be 7b2f 553f
00000260: 2275 3d3e 29bf 6e3c f116 c9be f57c 7abd
00000270: 2033 c13e 078a 503e 7774 92be 7cc7 aa3e
00000280: 41ee 663e e353 67be 3500 283e 3118 24be
00000290: 56ca 34bf 093e 76be 7135 0a3e 7b90 2dbe
000002a0: 8fca 61be 5822 b23d d3c4 b9bd 2cda dbbe
000002b0: 7c2c 203e 9358 57be 7190 843e b96f 30be
000002c0: b763 a53e 0318 a7be 2059 5d3e f444 92bc
000002d0: a6d8 1e3e 040a 503e 7615 8b3e c5bd e43d
000002e0: 3777 563e 829c 2a3f eebc 09be 8aca c0be
000002f0: de0a c3bd f6f6 8c3d d4a2 6abe c304 683f
00000300: dce3 043e 5ed4 c23e d7c9 013f e192 ecbc
00000310: 0977 5abe ac38 6b3e aed9 92bd be2e 2f3f
00000320: d835 79bd 54ad 52bb 0c93 03be 0355 7dbe
00000330: 8c10 473d a09c 02bf 232f 383d 56d8 72be
00000340: 025a 0b3e 3e7e d8be 2c4a 443e b5a9 7bbe
00000350: 363f f43e f14c 47be 4196 50be 46e5 92be
00000360: cf61 f8bd 2a4a f3bd bc82 5dbe 2305 8abe
00000370: 9e41 093f db7c 02be 3869 163c c8ab 863e
00000380: 5944 2abc 72bc 4e3f d2d7 2ebe 4813 043f
00000390: be56 14bf 4d24 233d 2069 743e 8c9b 363e
000003a0: 5d98 ce3b b9b4 393f eea0 18bd 18a0 453f
000003b0: fde9 b9bd f1a2 c3be 3da6 8f3e 5337 d8bd
000003c0: 533e 90be 5670 173d e4d5 cd3d e935 9f3e
000003d0: 2467 023e 5ff0 bcbe b8bc cfbd 4b3a ffbe
000003e0: 9863 ebbc bc62 b2bd 9757 29bd 9100 8b3d
000003f0: 4b74 fabd 9d00 58be 09f1 9ebc b910 b83e

sequential/dense_1/MatMul f4 [10, 20]
0.2105765 -0.31940058 0.37672606 -0.17665629 -0.47306556 0.18518813 0.7338768 0.5723824
-0.02242964 0.12410447 0.08522025 0.61570925 0.5353682 0.27131566 0.0017644971 0.09325501
-0.07002386 0.08491164 0.08549384 0.01958344 -0.22181179 0.3827606 0.013906671 -0.88615066
-0.22620885 -0.61750525 -0.8965154 -0.95204264 -0.99257594 -0.16285816 -0.32122394 -0.8169473
1.168672 -0.47647524 0.69882506 0.54093593 0.8206728 -0.637526 -0.6084411 -0.2054447
-0.5240082 0.88287854 -0.3515509 -0.43299344 -0.14242078 0.22489463 -0.33360305 0.80990314
0.7080838 0.3277157 -0.17999035 -0.46337613 -0.095820926 0.3449903 0.6129439 1.430549
0.43187457 0.5522245 0.36598116 0.93626684 0.14310853 0.22703387 0.012105574 -0.38855538
-0.34713566 -0.35823387 -0.71841806 -0.72388154 -0.15435098 -0.19712183 0.111995935 -0.24741845
1.1882269 -0.4471531 0.7615776 0.30128223 0.6079497 -0.14359282 -0.39971605 -0.082501926
-0.37053514 -0.66097057 -0.38880974 1.4359447 0.7088012 0.7733943 1.1899655 0.83451515
-0.23835878 -1.0881388 -0.076259315 -0.23986913 -0.89033663 -0.531649 -1.2064239 -0.83131826
-1.0274287 -0.55349416 -0.6098406 -1.1860929 -0.11625855 0.21278985 -0.108837254 1.230407
1.3309959 1.1332525 0.57086605 0.30320728 -0.46349916 -0.13217628 0.021617845 0.12706417
-0.8773034 -0.66784143 -0.5451804 -0.28689978 -0.019319592 0.17816462 0.28996393 -0.08152913
0.30230623 0.9007406 -0.23950705 0.23114966 0.72268885 1.1539043 0.47559106 0.505564
-0.021773754 -0.56142634 0.48563123 -0.043949418 -0.42765236 -0.5641083 -0.6115885 0.118353575
0.32193273 0.19132389 -0.595879 -0.0058487467 0.2453401 0.083379425 0.3292449 -0.2697149
-0.10101369 -0.1501091 0.23102336 0.11148522 -0.3403658 0.12813729 0.12998454 0.6659558
-0.41189593 -0.31164947 -0.5921468 0.80474347 0.3335362 -0.104882106 0.5151133 -0.14439861
0.1052931 -0.2534385 0.11421209 -0.4936925 0.18359861 0.3985372 0.8850506 0.22755803
-0.89668906 -0.4702101 0.2946354 -0.6528204 -0.082955465 -0.5498213 0.76969516 -0.3278164
-0.34377158 -0.17162186 -0.3050339 -0.28794265 -0.037175857 -0.6910682 0.00922358 0.56173766
0.5323207 0.64569837 0.2124379 0.49078438 -1.2317615 0.18920614 0.4494856 -0.29389492
0.26814327 -0.35672688 -0.8935283 -0.5118315 -0.38885406 -0.31368 -0.066942945 -0.23697038
00000000: 5ea1 573e 7988 a3be 3de2 c03e 63e5 34be
00000010: a635 f2be f5a1 3d3e 5adf 3b3f a787 123f
00000020: 5dbe b7bc 7c2a fe3d f487 ae3d 1f9f 1d3f
00000030: e40d 093f e3e9 8a3e b346 e73a 7cfc be3d
00000040: ab68 8fbd 27e6 ad3d 6517 af3d 736d a03c
00000050: a122 63be 33f9 c33e ced8 633c c5da 62bf
00000060: 4ba3 67be d314 1ebf 0982 65bf 11b9 73bf
00000070: 7519 7ebf 4ac4 26be 7777 a4be 7523 51bf
00000080: 0b97 953f 90f4 f3be 33e6 323f c77a 0a3f
00000090: 9d17 523f e734 23bf ccc2 1bbf 1860 52be
000000a0: 6725 06bf 5404 623f 7bfe b3be 51b1 ddbe
000000b0: c1d6 11be c74a 663e 05ce aabe d055 4f3f
000000c0: fb44 353f 5aca a73e 644f 38be a33f edbe
000000d0: c33d c4bd 92a2 b03e e4e9 1c3f 3b1c b73f
000000e0: aa1e dd3e 965e 0d3f e261 bb3e 2faf 6f3f
000000f0: 0b8b 123e 917b 683e 7556 463c bbf0 c6be
00000100: c4bb b1be 6e6a b7be 3fea 37bf 4d50 39bf
00000110: 2f0e 1ebe 4eda 49be 205e e53d 435b 7dbe
00000120: d217 983f 40f1 e4be c0f6 423f aa41 9a3e
00000130: 97a2 1b3f ff09 13be 95a7 ccbe c5f6 a8bd
00000140: c8b6 bdbe 5e35 29bf 1212 c7be 09cd b73f
00000150: ff73 353f 2bfd 453f ca50 983f c9a2 553f
00000160: 5314 74be 2248 8bbf d82d 9cbd 41a0 75be
00000170: 1aed 63bf 261a 08bf 196c 9abf 46d1 54bf
00000180: c982 83bf cbb1 0dbf 831e 1cbf e4d1 97bf
00000190: f618 eebd 95e5 593e 11e6 debd fa7d 9d3f
000001a0: 135e aa3f 6b0e 913f 4724 123f fc3d 9b3e
000001b0: c34f edbe 3859 07be e817 b13c 1c1d 023e
000001c0: f596 60bf a8f7 2abf f190 0bbf 87e4 92be
000001d0: 1f44 9ebc c970 363e 2776 943e bff8 a6bd
000001e0: e2c7 9a3e f096 663f 5641 75be 7fb2 6c3e
000001f0: 2302 393f 23b3 933f ac80 f33e a46c 013f
00000200: df5e b2bc a3b9 0fbf a8a4 f83e 4e04 34bd
00000210: 40f5 dabe 6769 10bf 1091 1cbf 5c63 f23d
00000220: 5ed4 a43e 69ea 433e 878b 18bf d8a6 bfbb
00000230: 6f3a 7b3e d5c2 aa3d ca92 a83e 1218 8abe
00000240: 44e0 cebd 33b6 19be 6391 6c3e 5d52 e43d
00000250: 6d44 aebe 6c36 033e ab1a 053e 147c 2a3f
00000260: 06e4 d2be 8590 9fbe ef96 17bf ab03 4e3f
00000270: 42c5 aa3e 6ecc d6bd 77de 033f 3bdd 13be
00000280: e9a3 d73d b1c2 81be 07e8 e93d 43c5 fcbe
00000290: 4601 3c3e 110d cc3e ad92 623f f904 693e
000002a0: 6a8d 65bf 61bf f0be 73da 963e 3d1f 27bf
000002b0: 8ee4 a9bd 17c1 0cbf be0a 453f 8dd7 a7be
000002c0: d402 b0be a4bd 2fbe 672d 9cbe 386d 93be
000002d0: b645 18bd d8e9 30bf 801e 173c 0ace 0f3f
000002e0: 2b46 083f 7d4c 253f 5289 593e 1748 fb3e
000002f0: 5caa 9dbf 41bf 413e fa22 e63e 6579 96be
00000300: 134a 893e e8a4 b6be 45be 64bf 6407 03bf
00000310: e117 c7be aa9a a0be 6219 89bd 5da8 72be

sequential/dense_2/MatMul f4 [5, 10]
0.23125196 -0.5898519 -0.36369365 -0.20932259 0.87395495 0.3794194 0.569814 -0.1391695
-0.14977175 -0.3766102 -0.11516744 -0.5516082 -1.3205242 -0.2726235 1.1402638 0.25548378
0.06756905 -0.0543783 0.83259887 0.8822256 -0.5345914 1.4042846 -0.13996324 0.9509773
-0.71961665 -0.7820614 -0.52739537 -0.13984112 0.661638 0.48483804 -0.38004193 -0.5144492
0.4893427 -0.37502855 -0.8499938 -1.0994294 -0.27046996 0.21567857 -0.41844302 -0.080450304
-0.33957064 -0.5121509 0.1259326 -0.09030285 -0.5145328 0.821546 0.25691304 0.27016535
-0.4793909 -0.37544188
00000000: 50cd 6c3e 8900 17bf 0e36 babe a958 56be
00000010: 83bb 5f3f 4243 c23e 55df 113f 7382 0ebe
00000020: c45d 19be 0dd3 c0be e8dc ebbd 3236 0dbf
00000030: f006 a9bf 4f95 8bbe 2af4 913f c5ce 823e
00000040: a461 8a3d c8bb 5ebd 3325 553f 89d9 613f
00000050: fbda 08bf 99bf b33f 8652 0fbe 4073 733f
00000060: cc38 38bf 2d35 48bf 6203 07bf 8332 0fbe
00000070: 1c61 293f b13c f83e db94 c2be f1b2 03bf
00000080: 208b fa3e be03 c0be 3299 59bf 1aba 8cbf
00000090: 0a7b 8abe d8da 5c3e 2a3e d6be 21c3 a4bd
000000a0: 34dc adbe 521c 03bf 7af4 003e b3f0 b8bd
000000b0: 6cb8 03bf d750 523f 1b8a 833e 1d53 8a3e
000000c0: b972 f5be eb39 c0be
