model/keypoint_classifier/keypoint_classifier.tflite (tflite, 59704 bytes, 9 tensors)

sequential/dense_2/MatMul f4 [5, 10]
0	0xbea2dc2c	-0.31808603
1	0xbebb042d	-0.36526623
2	0x3f20f382	0.62871563
3	0xbedec706	-0.43511218
4	0xbf52c9dc	-0.8233926
5	0xbdfc9d20	-0.12334657
6	0xbe8da0f8	-0.27661872
7	0xbf221d3c	-0.6332586
8	0xbf1cfd71	-0.6132422
9	0xbee0a286	-0.43873996
10	0x3e0f1160	0.13971472
11	0xbf269b8c	-0.65081096
12	0x3e34ccda	0.1765627
13	0x3e5d4f10	0.21612191
14	0x3e856e9c	0.2606095
15	0xbe160e45	-0.14653881
16	0x3ecc3588	0.3988459
17	0x3e42fef1	0.19042565
18	0x3ebea1c7	0.372328
19	0x3d641d7b	0.055692177
20	0x3f26c825	0.65149146
21	0x3d317b59	0.043330524
22	0xbef93937	-0.48676464
23	0xbe807f6b	-0.25097212
24	0x3ee27da9	0.44236496
25	0x3e374c9c	0.17900318
26	0x3f1c3b4a	0.6102797
27	0xbf0b5af2	-0.54435647
28	0xbf1b3135	-0.6062196
29	0xbc36e55e	-0.011163084
30	0xbee026de	-0.43779653
31	0x3f3090f2	0.6897117
32	0x3f02ccd7	0.5109381
33	0x3f27764a	0.6541487
34	0x3d4bebcd	0.049785424
35	0x3f27e7c5	0.6558803
36	0xbe8cdde9	-0.27513054
37	0xbe7b531f	-0.24543427
38	0xbf191aa9	-0.59806305
39	0x3d87e16f	0.06634795
40	0x3f0d27ec	0.5513904
41	0x3e227c6a	0.15867773
42	0x3ccecb07	0.025243295
43	0x3f02d81b	0.51111
44	0xbe91df04	-0.2849046
45	0xbf0a53ab	-0.5403392
46	0xbf241e99	-0.6410919
47	0xbec2ea05	-0.38069168
48	0xbed8b957	-0.42328903
49	0x3e1e62c6	0.15467367

sequential/dense_2/BiasAdd/ReadVariableOp f4 [5]
0	0x3e439840	0.19101048
1	0xbe3845e1	-0.17995407
2	0xbd8e853a	-0.06959005
3	0xbc001cde	-0.0078193825
4	0x3d24ecee	0.040265016

sequential/batch_normalization_1/batchnorm/mul_1;sequential/batch_normalization_1/batchnorm/add_1;sequential/dense_1/MatMul;sequential/dense_1/Relu;sequential/dense_1/BiasAdd f4 [10, 20]
0	0xbdbe7945	-0.09300474
1	0xbd0727ba	-0.03299687
2	0xbdb428c3	-0.08796837
3	0xbdcab321	-0.098974474
4	0x3e3bfaf1	0.18357445
5	0xbcddc032	-0.027069185
6	0x3e14e2fd	0.14539714
7	0x3d785861	0.06063116
8	0x3d860b7f	0.065451615
9	0xbdbde0c2	-0.09271385
10	0xbec54b34	-0.38533938
11	0xbde55d4f	-0.11199438
12	0xbe21f67d	-0.15816684
13	0xbd5b23b9	-0.053500865
14	0x3c69bb2f	0.014265819
15	0x3e8d7e9a	0.27635652
16	0x3ede36ef	0.43401286
17	0x3e6f9730	0.23397517
18	0x3ed99a9f	0.4250078
19	0xbe369ab2	-0.17832449
20	0x3e2ca772	0.1686075
21	0xbd442d3c	-0.0478947
22	0x3d36fde5	0.044675726
23	0xbd98123d	-0.07425354
24	0x3e059dee	0.13048527
25	0xbdfe23ec	-0.12409195
26	0x3e216a31	0.15763165
27	0xbe07d8c4	-0.13266283
28	0x3e2458c0	0.1604948
29	0x3d9a1040	0.07522631
30	0xbdf59312	-0.11990942
31	0x3e6d14e6	0.23152503
32	0xbda60a2c	-0.08107409
33	0x3e546431	0.20741345
34	0xbd54b8b2	-0.05193395
35	0xbce0cffc	-0.027442925
36	0xbe8bab80	-0.27279282
37	0x3e2e774d	0.17037697
38	0x3d4a8140	0.04943967
39	0x3dffa636	0.12482874
40	0x3e3c1971	0.1836908
41	0xbc82b8bf	-0.015957234
42	0x3e793fc5	0.24340732
43	0x3be781bc	0.007065026
44	0x3e478068	0.19482577
45	0x3d9883a3	0.07446983
46	0xbe2444d6	-0.16041884
47	0xbe5e5dbb	-0.21715443
48	0xbe228a83	-0.1587315
49	0x3e3bbb65	0.18333204
50	0x3ea23cb0	0.31686926
51	0xbe7d4276	-0.24732384
52	0x3df20645	0.11817602
53	0x3d3bf24f	0.04588538
54	0x3d063ef0	0.032774866
55	0xbb914721	-0.004433528
56	0x3e33b896	0.17550883
57	0x3f2ffaa8	0.68741846
58	0xbea1daa5	-0.31612125
59	0xbe2f9d2a	-0.17149797
60	0x3da6f117	0.08151453
61	0xbd60f00a	-0.05491642
62	0x3ebd96f6	0.37029237
63	0xbcb96579	-0.022631394
64	0xbea7814c	-0.32715833
65	0xbdb54481	-0.08850957
66	0x3e43ffab	0.19140498
67	0x3e8ba9a6	0.2727787
68	0x3e95a885	0.29230133
69	0xbe4db71e	-0.20089385
70	0xbe0fadba	-0.14031115
71	0xbeaed1a2	-0.34144312
72	0x3d9e50d5	0.07730261
73	0x3e1c5747	0.15267669
74	0x3e07e460	0.13270712
75	0x3e40dc69	0.1883408
76	0x3d2e0280	0.042482853
77	0xbf2de79a	-0.6793152
78	0xbe51910a	-0.20465484
79	0x3e4bc583	0.19899563
80	0x3d1a28fc	0.037636742
81	0x3e2cf353	0.16889696
82	0xbe7ad48e	-0.24495146
83	0x3e21bdd6	0.15795073
84	0x3e895f73	0.26830634
85	0x3e13211d	0.143681
86	0xbe3f4ce0	-0.18681669
87	0x3dc40d44	0.09572843
88	0x3d233197	0.039842214
89	0xbe5e6b40	-0.217206
90	0xbdd8982c	-0.105758995
91	0x3e3281d8	0.17432344
92	0x3e94210c	0.28931463
93	0x3dc747e9	0.09730513
94	0xbe408dc5	-0.18804081
95	0x3befe985	0.007321539
96	0xbe677fd6	-0.2260736
97	0xbe7ad757	-0.24496208
98	0x3e5e857d	0.21730609
99	0xbd62ae5e	-0.05534207
100	0x3e887e65	0.2665893
101	0x3e1ebcef	0.1550176
102	0x3ed8e332	0.42360836
103	0xbe1994c0	-0.1499815
104	0x3d1469b0	0.036233604
105	0x3dcf05e9	0.10108549
106	0x3dbae5f4	0.09125891
107	0xbe985b47	-0.2975714
108	0x3e624b54	0.22099048
109	0x3d339dc4	0.04385163
110	0xbe03f3b3	-0.12885933
111	0x3de0c180	0.10974407
112	0xbe175cd2	-0.14781502
113	0x3e8f8200	0.2802887
114	0x3e680924	0.22659737
115	0xbe9037ff	-0.28167722
116	0xbea6643d	-0.3249835
117	0x3eafd788	0.34344125
118	0xbe335428	-0.17512572
119	0x3e491733	0.19637756
120	0xbe3c20a7	-0.18371831
121	0x3d988f4f	0.07449209
122	0xbcb00bb7	-0.021489961
123	0x3db7bbe3	0.089713834
124	0x3e9b75e2	0.30363375
125	0x3cfdcd0f	0.030981569
126	0x3cb98707	0.022647394
127	0xbdf23f82	-0.118285194
128	0xbd3802d8	-0.044924587
129	0xbcd3c616	-0.02585129
130	0xbe17d620	-0.14827776
131	0x3dc4f994	0.09617916
132	0xbd98c828	-0.07460052
133	0xbc972dea	-0.01845451
134	0xbe105168	-0.14093554
135	0x3cdb7216	0.026787799
136	0xbe2ad8b4	-0.16684228
137	0x3d0762e4	0.033053294
138	0x3d951ab2	0.07280482
139	0x3e0028ed	0.12515612
140	0x3d038d46	0.03211715
141	0x3e51807c	0.20459169
142	0x3da4adbb	0.08040949
143	0x3e7a85a0	0.24465036
144	0x3db007d5	0.08595244
145	0x3deca61f	0.115551226
146	0xbd213865	-0.039360423
147	0x3de975eb	0.11399444
148	0xbd4619e3	-0.04836453
149	0xbe380d97	-0.17973934
150	0x3e543133	0.20721893
151	0xbe4b3a65	-0.19846494
152	0x3e56d41d	0.20979352
153	0xbe0c7831	-0.13717724
154	0x3d83ea49	0.06441171
155	0x3c8ad291	0.016946109
156	0xbd527b2e	-0.051387005
157	0x3efdb9ca	0.49555808
158	0x3e1ecfd6	0.1550897
159	0xbade60bf	-0.0016966088
160	0xbda8ff31	-0.08251799
161	0x3e1273b0	0.14301944
162	0x3e40a18a	0.18811622
163	0x3de84286	0.11340813
164	0xbdf98d51	-0.12185157
165	0x3dee411e	0.11633514
166	0xbe7b9c5f	-0.2457137
167	0x3d1c8d65	0.03822078
168	0xbd976e68	-0.07394105
169	0xbe609039	-0.21930017
170	0x3da98719	0.08277721
171	0x3cf26d5c	0.029593162
172	0x3e110e66	0.14165649
173	0xbe22342a	-0.15840212
174	0x3df871eb	0.12131103
175	0xbde75826	-0.1129611
176	0x3e6b5f99	0.22985686
177	0x3daa099f	0.08302616
178	0xbe6f0619	-0.2334217
179	0xbe1e8d37	-0.15483557
180	0x3d87b865	0.06626967
181	0x3ca8ff1f	0.020629464
182	0x3eb6407e	0.3559608
183	0xbd62ab5a	-0.055339195
184	0x3e229c4d	0.15879937
185	0xbda0e352	-0.07855858
186	0x3e11e9a8	0.14249289
187	0x3dc19f68	0.094542325
188	0x3d78f3b4	0.06077929
189	0x3dc863e7	0.0978468
190	0xbde17a72	-0.11009683
191	0x3e539020	0.20660448
192	0xbe08255a	-0.13295498
193	0x3d99c51b	0.07508298
194	0x3dfdec31	0.123985656
195	0x3e37ee4a	0.17961994
196	0x3e84ff71	0.25976136
197	0x3e10ac66	0.14128265
198	0x3da609d0	0.0810734
199	0x3e4ce56a	0.2000939

sequential/dense_1/MatMul;sequential/dense_1/Relu;sequential/dense_1/BiasAdd f4 [10]
0	0x3e9e8efa	0.30968457
1	0xbd45f95e	-0.04833352
2	0x3f046675	0.5171884
3	0x3e476ca4	0.19475037
4	0x3e4f199b	0.20224611
5	0x3e9c07cb	0.30474696
6	0x3de4e5da	0.11176653
7	0x3dd4a2bb	0.10382601
8	0x3c25e2ba	0.010124857
9	0x3e1a3a7c	0.15061373

sequential/dense/MatMul;sequential/dense/Relu;sequential/dense/BiasAdd f4 [20]
0	0xbf71f0b6	-0.9450792
1	0x3f5b275a	0.8560692
2	0x407d38d5	3.9565938
3	0x40ad8c13	5.423349
4	0xc0cd82da	-6.422223
5	0x40c79790	6.2372513
6	0x412fee7b	10.995723
7	0x4122266b	10.134379
8	0x4129a91a	10.603785
9	0xc0f16cd7	-7.544536
10	0xc0f715ee	-7.721427
11	0xc09193d3	-4.549295
12	0x404a043c	3.1565084
13	0x3e652ead	0.22381087
14	0x3f94f9f2	1.1638777
15	0x40d1f36b	6.560964
16	0x40c16a06	6.0441923
17	0xc09d8f50	-4.923744
18	0xc08bdb08	-4.370487
19	0x40260290	2.5939064

sequential/batch_normalization/batchnorm/mul_1;sequential/batch_normalization/batchnorm/add_1;sequential/dense/MatMul;sequential/dense/Relu;sequential/dense/BiasAdd i1 [20, 100] scale=0.057628557 zero_point=0
0	0xf7	-0.518657
1	0x06	0.34577134
2	0x14	1.1525712
3	0xeb	-1.2101997
4	0xe8	-1.3830854
5	0xd9	-2.2475138
6	0xfb	-0.2881428
7	0xdc	-2.074628
8	0xd7	-2.3627708
9	0xdd	-2.0169995
10	0xbe	-3.8034847
11	0x06	0.34577134
12	0xea	-1.2678282
13	0x28	2.3051424
14	0xf1	-0.86442834
15	0xdd	-2.0169995
16	0x0e	0.80679977
17	0xf4	-0.6915427
18	0xfc	-0.23051423
19	0xf6	-0.5762856
20	0x38	3.227199
21	0xd2	-2.6509137
22	0xe6	-1.4983425
23	0x3c	3.4577134
24	0x1a	1.4983425
25	0x32	2.8814278
26	0x14	1.1525712
27	0xf5	-0.6339141
28	0xed	-1.0949426
29	0xd5	-2.478028
30	0x05	0.2881428
31	0x17	1.3254569
32	0xc9	-3.1695707
33	0x0a	0.5762856
34	0xfd	-0.17288567
35	0x0c	0.6915427
36	0x26	2.1898851
37	0xf2	-0.80679977
38	0x07	0.40339988
39	0xef	-0.9796855
40	0x10	0.9220569
41	0x06	0.34577134
42	0x33	2.9390564
43	0x39	3.2848277
44	0x04	0.23051423
45	0xe0	-1.8441138
46	0x28	2.3051424
47	0x2b	2.478028
48	0xe2	-1.7288567
49	0x0f	0.86442834
50	0xd1	-2.708542
51	0x3a	3.3424563
52	0xfb	-0.2881428
53	0x22	1.959371
54	0x02	0.115257114
55	0x3e	3.5729706
56	0x0e	0.80679977
57	0x3a	3.3424563
58	0x44	3.918742
59	0x11	0.9796855
60	0xe7	-1.4407139
61	0xed	-1.0949426
62	0xee	-1.037314
63	0xe7	-1.4407139
64	0x2f	2.708542
65	0x05	0.2881428
66	0xf3	-0.74917126
67	0x22	1.959371
68	0x08	0.46102846
69	0xe6	-1.4983425
70	0x2a	2.4203994
71	0xe8	-1.3830854
72	0x2b	2.478028
73	0x00	0.0
74	0x30	2.7661707
75	0x2c	2.5356565
76	0xdd	-2.0169995
77	0x30	2.7661707
78	0xd2	-2.6509137
79	0xdf	-1.9017423
80	0x2c	2.5356565
81	0xfa	-0.34577134
82	0x1f	1.7864853
83	0x1a	1.4983425
84	0x15	1.2101997
85	0xe5	-1.555971
86	0xd4	-2.5356565
87	0x03	0.17288567
88	0x20	1.8441138
89	0x0d	0.74917126
90	0xe0	-1.8441138
91	0xd5	-2.478028
92	0x19	1.4407139
93	0x0d	0.74917126
94	0x22	1.959371
95	0xe1	-1.7864853
96	0xd5	-2.478028
97	0xe6	-1.4983425
98	0x13	1.0949426
99	0x40	3.6882277
100	0x1a	1.4983425
101	0x2f	2.708542
102	0x06	0.34577134
103	0x22	1.959371
104	0xf9	-0.40339988
105	0xe1	-1.7864853
106	0xe8	-1.3830854
107	0x1d	1.6712282
108	0x27	2.2475138
109	0xd8	-2.3051424
110	0xf7	-0.518657
111	0xfb	-0.2881428
112	0x22	1.959371
113	0x00	0.0
114	0xaf	-4.667913
115	0xe0	-1.8441138
116	0x1f	1.7864853
117	0x11	0.9796855
118	0x18	1.3830854
119	0xbd	-3.8611133
120	0x20	1.8441138
121	0xf2	-0.80679977
122	0x1d	1.6712282
123	0xf6	-0.5762856
124	0x18	1.3830854
125	0x19	1.4407139
126	0x07	0.40339988
127	0x2d	2.593285
128	0xea	-1.2678282
129	0x51	4.667913
130	0x39	3.2848277
131	0xce	-2.8814278
132	0xb4	-4.3797703
133	0x24	2.074628
134	0x04	0.23051423
135	0xd0	-2.7661707
136	0x0d	0.74917126
137	0x46	4.033999
138	0xd8	-2.3051424
139	0xf1	-0.86442834
140	0x10	0.9220569
141	0xe9	-1.3254569
142	0x15	1.2101997
143	0xca	-3.111942
144	0xf2	-0.80679977
145	0xf4	-0.6915427
146	0x30	2.7661707
147	0xe6	-1.4983425
148	0xf2	-0.80679977
149	0x24	2.074628
150	0xf4	-0.6915427
151	0xf6	-0.5762856
152	0x38	3.227199
153	0xc6	-3.3424563
154	0x23	2.0169995
155	0xc6	-3.3424563
156	0x00	0.0
157	0xfb	-0.2881428
158	0xfd	-0.17288567
159	0xfd	-0.17288567
160	0x15	1.2101997
161	0xd3	-2.593285
162	0x5b	5.244199
163	0x1a	1.4983425
164	0x3a	3.3424563
165	0x3c	3.4577134
166	0xc1	-3.630599
167	0xf4	-0.6915427
168	0x12	1.037314
169	0x20	1.8441138
170	0x15	1.2101997
171	0xd7	-2.3627708
172	0xd8	-2.3051424
173	0x17	1.3254569
174	0xe5	-1.555971
175	0xec	-1.1525712
176	0x21	1.9017423
177	0x11	0.9796855
178	0x28	2.3051424
179	0x01	0.057628557
180	0xf0	-0.9220569
181	0xf6	-0.5762856
182	0x19	1.4407139
183	0x33	2.9390564
184	0x1a	1.4983425
185	0x1c	1.6135995
186	0xf1	-0.86442834
187	0xed	-1.0949426
188	0xff	-0.057628557
189	0x0a	0.5762856
190	0xd4	-2.5356565
191	0x00	0.0
192	0x04	0.23051423
193	0xf7	-0.518657
194	0x41	3.7458563
195	0x23	2.0169995
196	0xd2	-2.6509137
197	0xf8	-0.46102846
198	0x1a	1.4983425
199	0x0e	0.80679977
200	0x22	1.959371
201	0xe7	-1.4407139
202	0xfb	-0.2881428
203	0xec	-1.1525712
204	0x03	0.17288567
205	0xfe	-0.115257114
206	0xfc	-0.23051423
207	0xd4	-2.5356565
208	0xe4	-1.6135995
209	0x1f	1.7864853
210	0x25	2.1322565
211	0xea	-1.2678282
212	0xef	-0.9796855
213	0xd7	-2.3627708
214	0x16	1.2678282
215	0xc5	-3.400085
216	0xc3	-3.515342
217	0xc6	-3.3424563
218	0xee	-1.037314
219	0xc8	-3.227199
220	0x00	0.0
221	0xfc	-0.23051423
222	0xf3	-0.74917126
223	0x03	0.17288567
224	0xed	-1.0949426
225	0xf0	-0.9220569
226	0x12	1.037314
227	0x19	1.4407139
228	0x0b	0.6339141
229	0xb0	-4.610285
230	0x0a	0.5762856
231	0x01	0.057628557
232	0xc7	-3.2848277
233	0x07	0.40339988
234	0x15	1.2101997
235	0xeb	-1.2101997
236	0x09	0.518657
237	0x2f	2.708542
238	0xd5	-2.478028
239	0xcf	-2.8237994
240	0x14	1.1525712
241	0x02	0.115257114
242	0xf4	-0.6915427
243	0xc6	-3.3424563
244	0xee	-1.037314
245	0xef	-0.9796855
246	0x1c	1.6135995
247	0xc6	-3.3424563
248	0xd2	-2.6509137
249	0x09	0.518657
250	0x28	2.3051424
251	0x25	2.1322565
252	0x0c	0.6915427
253	0x0c	0.6915427
254	0xdb	-2.1322565
255	0x56	4.956056

sequential/lstm/while/lstm_cell/MatMul f4 [400, 2]
0	0xbcb50a18	-0.02209954
1	0xbdbed3f8	-0.093177736
2	0x3dc8ad26	0.097986504
3	0x3d2473d2	0.040149517
4	0xbc81978f	-0.01581934
5	0xbbea7766	-0.0071553467
6	0xbc143306	-0.009045368
7	0x3d205cc1	0.039150957
8	0x3dcacddb	0.09902545
9	0xbd5e588c	-0.054283664
10	0x3d601d56	0.054715477
11	0x3ca2a77c	0.019855253
12	0x3b60d738	0.0034307968
13	0x3d42c0e5	0.04754724
14	0x3db3acd4	0.08773199
15	0x3d1203ce	0.03564816
16	0xbd4ac146	-0.049500726
17	0x3ca786fc	0.020450108
18	0x3dd6d77e	0.104903206
19	0x3dbdb9de	0.09263967
20	0x3d401585	0.046895523
21	0xbca49636	-0.020091157
22	0xbd994354	-0.07483545
23	0xbdccb180	-0.09994793
24	0x3c9db5cc	0.019251727
25	0x3d5e9a6a	0.05434648
26	0x3e0bc18e	0.13648054
27	0x3dfe0ed8	0.12405175
28	0xbd16efa8	-0.036849648
29	0x3d43a86a	0.047768034
30	0x3d28496b	0.04108564
31	0x3ddccd0d	0.10781298
32	0xbd62b2a4	-0.055346146
33	0x3dd84e75	0.105618395
34	0xbcaba458	-0.020952389
35	0x3db01de8	0.08599454
36	0x3e8335e5	0.25627056
37	0x3ded842c	0.115974754
38	0x3c1ad448	0.009450026
39	0xbd2a70ca	-0.04161147
40	0xbdaf03fa	-0.0854568
41	0xbdb91954	-0.09038034
42	0x3b99eaf3	0.0046971976
43	0x3d649011	0.055801455
44	0x3e0a9fd2	0.13537529
45	0xbdd98e6c	-0.10622868
46	0xbd4aa23a	-0.049471118
47	0x3dcfa673	0.101391695
48	0xbd084f80	-0.033278942
49	0xbbd7bee0	-0.0065840334
50	0xbdf0fcfa	-0.117670015
51	0xbcfca8ce	-0.030842211
52	0x3d18d336	0.0373108
53	0xbcf709a0	-0.030155957
54	0x3ceee0a8	0.029159859
55	0x3d1bd284	0.03804256
56	0x3e2394e5	0.15974768
57	0xba2bb1aa	-0.00065496063
58	0x3de1be9b	0.11022683
59	0x3de9950f	0.11405384
60	0xbd518a76	-0.051157437
61	0x3d5dfe1a	0.05419741
62	0x3d946cbb	0.07247301
63	0x3dc51738	0.09623569
64	0xbe05ce2b	-0.13066928
65	0x3da49e49	0.08038003
66	0x3de8eccf	0.11373293
67	0x3d8cfb93	0.068839215
68	0x3da96eb7	0.0827307
69	0x3ce5f8bc	0.028072707
70	0x3ceb59ee	0.028729405
71	0xbdac5e13	-0.08416381
72	0xbcac0e5e	-0.021002945
73	0xbdd7e1c2	-0.10541107
74	0xbd973aeb	-0.073842846
75	0xbc85c620	-0.016329825
76	0x3dfaa43b	0.12238356
77	0x3d24d373	0.040240716
78	0x3cb23dfa	0.021758068
79	0xbcf0a37c	-0.02937483
80	0xbd73e908	-0.059548408
81	0x3dd2962e	0.10282551
82	0x3d378126	0.0448009
83	0xbc80f0a8	-0.015739754
84	0x3e992310	0.29909563
85	0x3e50fb67	0.20408402
86	0xbd2a2a6e	-0.04154437
87	0x3da678ec	0.08128533
88	0xbd73a72d	-0.059485603
89	0x3d390042	0.04516626
90	0x3bf5c58d	0.0075003565
91	0xbdfc798d	-0.123278715
92	0x3d958edb	0.07302638
93	0xbcb799a6	-0.022412132
94	0xbd0c7280	-0.034288883
95	0xbd8564c2	-0.06513359
96	0xbcd2318e	-0.025658395
97	0x3ddacb9b	0.10683366
98	0x3dedf8c6	0.116197154
99	0x3db189ee	0.08668886
100	0x3dfa941a	0.122352794
101	0x3df4f83f	0.11961412
102	0x3e136360	0.14393377
103	0x3c0179ac	0.007902544
104	0x3cc9db5e	0.024640735
105	0x3cb6c1b5	0.022309164
106	0xbc6d7668	-0.014493562
107	0xbd693f7a	-0.0569453
108	0xbd42e088	-0.04757741
109	0x3da7c167	0.081911854
110	0x3dd7ff0f	0.105466954
111	0x3cface3f	0.030615924
112	0xbdbb2875	-0.09138576
113	0xbc4304e8	-0.011903025
114	0x3de6d279	0.11270613
115	0xbdeec9dd	-0.11659596
116	0x3d25c1d0	0.040468037
117	0xbdbd6cf0	-0.09249294
118	0x3e2b0f87	0.16705142
119	0x3cc99e6d	0.024611676
120	0x3e0b7ab6	0.1362103
121	0xbd9e7b2a	-0.077383354
122	0x3e19caf3	0.15018825
123	0x3e33244d	0.17494316
124	0xbc416028	-0.011802711
125	0x3cfd45b4	0.030917026
126	0xbd358a95	-0.044321615
127	0xbcbba00d	-0.022903467
128	0xbc8685bc	-0.016421191
129	0xbc3df398	-0.011593722
130	0x3d8638c3	0.06553795
131	0x3e171e10	0.14757562
132	0x3d064266	0.032778166
133	0xbc62a6fc	-0.0138337575
134	0xbc04a5d2	-0.008096175
135	0xbd76d027	-0.060257103
136	0x3cbd70db	0.023125103
137	0x3dafb395	0.085791744
138	0x3dd47394	0.10373607
139	0xbda09c78	-0.07842344
140	0xbda0eac9	-0.07857282
141	0xbd9c361c	-0.07627508
142	0x3d64f993	0.055902075
143	0x3d88fbc9	0.06688649
144	0xbd817a23	-0.06322124
145	0x3db9518d	0.09048758
146	0xbd7efbf6	-0.062252007
147	0x3de83a76	0.113392755
148	0xbdbcdc01	-0.0922165
149	0x3da47511	0.08030141
150	0x3d8008cd	0.062516786
151	0x3d09d1a0	0.03364718
152	0xbcb4886e	-0.022037711
153	0x3e01d7d1	0.12679984
154	0x3c0735d0	0.008252576
155	0x3cd8584e	0.026409294
156	0x3d8d79a7	0.06907969
157	0xbc203520	-0.009778291
158	0x3d2b0037	0.04174825
159	0x3c8cad50	0.017172486
160	0x3e21331e	0.15742156
161	0x3db38dcb	0.08767279
162	0x3e0751ad	0.1321475
163	0xbdb59cbd	-0.08867786
164	0x3dfe8bd7	0.12429016
165	0x3d4b0f77	0.049575295
166	0x3bf85a3f	0.0075791175
167	0x3cc37a88	0.023862138
168	0x3dc52299	0.096257396
169	0xbd2ea7c7	-0.042640474
170	0xbd889d23	-0.066705965
171	0x3d798a5a	0.060922958
172	0x3e08c537	0.13356481
173	0xbde165ff	-0.11005782
174	0xbbddf988	-0.006774131
175	0x3e00e3b3	0.1258686
176	0xbcae037a	-0.021241892
177	0xbc88fa1d	-0.016720826
178	0x3dcf11d4	0.10110822
179	0x3dfaee54	0.12252489
180	0x3e356310	0.1771357
181	0x3deb4ba6	0.11489038
182	0xbd6bc484	-0.05756046
183	0x3e030f59	0.12798823
184	0xbdca8b66	-0.098898694
185	0x3d158c1c	0.03651057
186	0x3e10c732	0.14138487
187	0x3e28ed3a	0.16496745
188	0x3c76135f	0.015019267
189	0x3da1818e	0.07886039
190	0x3d624292	0.055239268
191	0x3da6fb97	0.08153456
192	0xbd986ab5	-0.07442228
193	0x3cef57a1	0.02921659
194	0xbd50673e	-0.05087971
195	0x3cfcf4b3	0.0308784
196	0xbceff411	-0.029291185
197	0xbd340732	-0.043952174
198	0x3d517152	0.05113346
199	0xbcce41a4	-0.025177784
200	0x3d009c98	0.03139934
201	0xbd19d81a	-0.037559606
202	0xbd8b900c	-0.06814584
203	0xbd95ab1a	-0.07308026
204	0x3e17207b	0.14758484
205	0xbdcebf28	-0.10095054
206	0x3d0a3c7f	0.0337491
207	0x3d120fb6	0.035659514
208	0x3d59f2fe	0.05321025
209	0x3d117677	0.035513368
210	0x3b0937a0	0.0020937696
211	0xbd76d2cd	-0.06025963
212	0x3e124d91	0.14287402
213	0x3d53eb16	0.051737867
214	0x3d6c40be	0.05767893
215	0x3dfa8cfa	0.122339204
216	0x3df5948d	0.119912244
217	0x3df63dbd	0.120234944
218	0xbc9d48ed	-0.019199813
219	0xbcb1011e	-0.021606978
220	0xbd889ee2	-0.066709295
221	0x3da20ebd	0.07912967
222	0xbd50b47c	-0.050953373
223	0xbc4352d8	-0.011921607
224	0x3da03339	0.0782227
225	0xbdc11a84	-0.094288856
226	0x3d494ac8	0.049143583
227	0xbddb25ad	-0.107005455
228	0x3d8f41b3	0.06994953
229	0x3da0e820	0.07856774
230	0x3d93c2b8	0.07214874
231	0x3dcee0b2	0.10101451
232	0xbd0d28ee	-0.03446286
233	0xbd07ace6	-0.033123873
234	0x3d9ebe5f	0.07751154
235	0x3d35d257	0.04439005
236	0x3df91792	0.12162699
237	0x3e60c83d	0.21951385
238	0xbdc2ab02	-0.095052734
239	0xbd7abbc4	-0.061214224
240	0x3d313f8a	0.043273486
241	0x3d154aba	0.036448218
242	0xbd24d029	-0.04023758
243	0xbd7afb4a	-0.061274804
244	0x3de3f140	0.11129999
245	0x3d519346	0.05116584
246	0x3d0e52da	0.034746982
247	0xbd803b08	-0.06261259
248	0x3de990ad	0.11404548
249	0x3c1ae658	0.009454332
250	0x3d605d37	0.054776397
251	0xbc854baf	-0.01627144
252	0xbdc904f6	-0.09815399
253	0xbda06b69	-0.07832987
254	0xbc87a1b8	-0.016556606
255	0xbd7f3181	-0.06230307

sequential/lstm/while/lstm_cell/BiasAdd/ReadVariableOp f4 [400]
0	0x3d80ae17	0.06283205
1	0xbbc0d940	-0.005885273
2	0x3d9cf1d6	0.07663314
3	0x3cff05a9	0.031130629
4	0x3b7f14a9	0.0038922227
5	0x00000000	0.0
6	0x3dac0157	0.08398693
7	0x3d3a590b	0.045495074
8	0x00000000	0.0
9	0xb9829b82	-0.00024911395
10	0x3bc73713	0.0060795634
11	0x00000000	0.0
12	0x3c66a250	0.014076784
13	0x3d83fd24	0.06444767
14	0xbbb7e784	-0.0056123156
15	0x3d91f331	0.07126463
16	0x00000000	0.0
17	0xb9dba0a6	-0.00041890627
18	0x3e094b8f	0.1340773
19	0x00000000	0.0
20	0x00000000	0.0
21	0xbbcd9db2	-0.0062749023
22	0x3d09637f	0.033542152
23	0x3d9a7306	0.0754147
24	0x00000000	0.0
25	0xbb7ad205	-0.0038272154
26	0x00000000	0.0
27	0xba946c53	-0.0011323787
28	0x3d4f40dd	0.050598968
29	0x00000000	0.0
30	0xbc1a0677	-0.009400955
31	0x3caf344d	0.021387244
32	0xbcc3a392	-0.023881707
33	0x3c92b076	0.017906409
34	0x00000000	0.0
35	0xbc1a4b15	-0.009417315
36	0x3c4bde39	0.012443119
37	0xbc9060e6	-0.01762433
38	0x3d34964e	0.044088654
39	0x3b5f7e84	0.0034102509
40	0x3ca3face	0.020017054
41	0x00000000	0.0
42	0x3e3cb163	0.18427043
43	0xbc4784ce	-0.012177659
44	0xbc965f91	-0.018356116
45	0x3dbd6100	0.09247017
46	0x3d0aafbe	0.033859007
47	0x00000000	0.0
48	0x3ca4a7cd	0.020099545
49	0x3d34df5a	0.044158317
50	0x3c494a5a	0.012285793
51	0x3d7b84ec	0.06140606
52	0x3ad2a232	0.0016070066
53	0x00000000	0.0
54	0x00000000	0.0
55	0xbc194c85	-0.009356623
56	0x00000000	0.0
57	0x00000000	0.0
58	0x3cae30ad	0.021263445
59	0x3dfaf71f	0.12254166
60	0x3d2b2d87	0.041791465
61	0x3d7dbdf5	0.061948735
62	0x00000000	0.0
63	0xbba516bc	-0.0050381105
64	0x00000000	0.0
65	0x3d70ed42	0.058820017
66	0x3d083c30	0.033260524
67	0x3de371c7	0.11105686
68	0x3d83ead5	0.06441275
69	0x3db83124	0.08993748
70	0xbd0a45fe	-0.033758156
71	0xba2b43f3	-0.00065332575
72	0x3d1f7d74	0.038938
73	0x3d764d53	0.060132336
74	0x3c9f9217	0.01947884
75	0x3db2ffc6	0.08740191
76	0x3da3fd99	0.08007354
77	0x3d82628f	0.06366455
78	0x00000000	0.0
79	0x3d32ea11	0.043680254
80	0x3d88d95e	0.066820845
81	0x3d0d4d8e	0.03449779
82	0x3cbe27f2	0.023212407
83	0xbc980aab	-0.018559774
84	0x3d44a230	0.048006237
85	0x3ce4f606	0.027949344
86	0x3bbae35a	0.005703372
87	0x3cf020b1	0.029312463
88	0xbc0d291f	-0.008615761
89	0x3d5713a5	0.05250897
90	0x3d63d950	0.055627167
91	0x3d7ff000	0.06248474
92	0x3c1853e7	0.009297348
93	0x3e09ad3b	0.13444988
94	0x3d03623a	0.032076098
95	0x3d64deae	0.055876426
96	0x3ba60e75	0.0050676414
97	0x3d08d80c	0.033409163
98	0x3d734e8c	0.05940108
99	0x00000000	0.0
100	0x3f86a554	1.0519204
101	0x3f7e3a04	0.99307275
102	0x3f877fe8	1.0585909
103	0x3f83cc5f	1.0296744
104	0x3f7e7149	0.9939161
105	0x3f800000	1.0
106	0x3f8815ae	1.0631616
107	0x3f826625	1.0187422
108	0x3f800000	1.0
109	0x3f7ffd76	0.99996126
110	0x3f800000	1.0
111	0x3f800000	1.0
112	0x3f834327	1.0254868
113	0x3f860fc6	1.0473564
114	0x3f7dd4ab	0.9915263
115	0x3f883445	1.0640951
116	0x3f800000	1.0
117	0x3f7ff935	0.99989635
118	0x3f931056	1.148936
119	0x3f800000	1.0
120	0x3f800000	1.0
121	0x3f7e54fc	0.99348426
122	0x3f867ce0	1.0506859
123	0x3f8690ad	1.0512902
124	0x3f800000	1.0
125	0x3f7ed2ac	0.9954021
126	0x3f800000	1.0
127	0x3f8139fc	1.009582
128	0x3f8312f9	1.0240165
129	0x3f800000	1.0
130	0x3f7dcbc5	0.9913905
131	0x3f81c904	1.013947
132	0x3f7ae2fa	0.9800259
133	0x3f7da4cd	0.9907959
134	0x3f800000	1.0
135	0x3f7d7006	0.9899906
136	0x3f812a53	1.0091041
137	0x3f7e3c29	0.9931055
138	0x3f84c68e	1.0373094
139	0x3f821165	1.0161558
140	0x3f8211df	1.0161704
141	0x3f800000	1.0
142	0x3f98909c	1.1919131
143	0x3f7d3282	0.98905194
144	0x3f7d9ceb	0.9906756
145	0x3f87ebc0	1.061882
146	0x3f804de4	1.002377
147	0x3f800000	1.0
148	0x3f810163	1.0078548
149	0x3f852d9f	1.0404547
150	0x3f80d7c4	1.0065846
151	0x3f82db20	1.0223122
152	0x3f803394	1.001574
153	0x3f800000	1.0
154	0x3f800000	1.0
155	0x3f7ddcbe	0.9916495
156	0x3f800000	1.0
157	0x3f800000	1.0
158	0x3f825f48	1.0185328
159	0x3f86df10	1.0536823
160	0x3f823ef3	1.017546
161	0x3f7f49b3	0.9972183
162	0x3f800000	1.0
163	0x3f84231d	1.0323216
164	0x3f800000	1.0
165	0x3f8e16d8	1.1100721
166	0x3f822219	1.0166656
167	0x3f8e0185	1.1094214
168	0x3f849c09	1.0360118
169	0x3f85e1d3	1.0459541
170	0x3f7f0bea	0.99627554
171	0x3f7f5292	0.9973537
172	0x3f8421ed	1.0322853
173	0x3f861094	1.0473809
174	0x3f8218cc	1.0163817
175	0x3f88b589	1.06804
176	0x3f862680	1.0480499
177	0x3f846e23	1.0346111
178	0x3f800000	1.0
179	0x3f8103c4	1.0079274
180	0x3f846eac	1.0346274
181	0x3f885ba8	1.0652971
182	0x3f81ef44	1.0151143
183	0x3f7c5953	0.985738
184	0x3f84c7b5	1.0373446
185	0x3f7fdea3	0.9994909
186	0x3f8035dd	1.0016438
187	0x3f835c94	1.0262628
188	0x3f7dc8b3	0.9913437
189	0x3f802d26	1.0013778
190	0x3f83e085	1.0302893
191	0x3f851f5f	1.0400199
192	0x3f8053fa	1.0025628
193	0x3f8cc3b5	1.0997225
194	0x3f80d2db	1.0064348
195	0x3f841b94	1.0320916
196	0x3f7f32e6	0.9968704
197	0x3f826953	1.0188392
198	0x3f83230c	1.024507
199	0x3f800000	1.0
200	0x3d3f5fa6	0.046722077
201	0xbbdb9a14	-0.006701717
202	0x3d2d43a2	0.042300828
203	0xbb8af922	-0.0042411247
204	0xbb37b6e4	-0.0028032595
205	0x00000000	0.0
206	0x3c01d7bb	0.007924969
207	0x3a9d721e	0.0012012159
208	0x00000000	0.0
209	0xbc30bab7	-0.010786704
210	0xbc83a17b	-0.01606821
211	0x00000000	0.0
212	0x3c7841e7	0.015152431
213	0x3c9c6f8a	0.019096155
214	0x3b51d440	0.003201738
215	0x3c6e9ce8	0.014563777
216	0x00000000	0.0
217	0xbc8943c5	-0.016755948
218	0xbaaf0cf6	-0.0013355303
219	0x00000000	0.0
220	0x00000000	0.0
221	0xbbe78041	-0.0070648496
222	0x3cf9d1c8	0.03049554
223	0x3c896290	0.016770631
224	0x00000000	0.0
225	0xbc20568e	-0.009786261
226	0x00000000	0.0
227	0xbcb5e8fb	-0.02220582
228	0xbc32de79	-0.010917299
229	0x00000000	0.0
230	0xbc20f429	-0.009823837
231	0x39f09150	0.00045884633
232	0xbcd6d8fc	-0.026226513
233	0x3cf8b3b5	0.030359128
234	0x00000000	0.0
235	0xbc4c9f28	-0.012489118
236	0xbca5c433	-0.020235157
237	0xbc3a9940	-0.011389077
238	0xbbcd4f74	-0.006265575
239	0x3d1ea45c	0.038730964
240	0x3cb23930	0.021755785
241	0x00000000	0.0
242	0xbbe15780	-0.006876886
243	0xbc866bb5	-0.01640878
244	0xbc46b3ce	-0.01212783
245	0x3cfe9ef7	0.03108166
246	0x3ca2dcd4	0.01988069
247	0x00000000	0.0
248	0xbbd4a539	-0.0064894226
249	0x3bb264ca	0.005444144
250	0x3c3b3a5b	0.011427487
251	0x3bfc8806	0.007706645
252	0xbc216f13	-0.009853142
253	0x00000000	0.0
254	0x00000000	0.0
255	0xbc183a96	-0.009291312

sequential/lstm/while/lstm_cell/MatMul_11 i1 [400, 100] scale=0.002574771 zero_point=0
0	0x24	0.09269176
1	0x11	0.043771107
2	0x09	0.02317294
3	0xf6	-0.025747709
4	0x11	0.043771107
5	0x27	0.100416064
6	0x17	0.059219733
7	0x24	0.09269176
8	0xe3	-0.074668355
9	0x06	0.015448626
10	0xf7	-0.02317294
11	0x1b	0.06951881
12	0xf2	-0.03604679
13	0x41	0.16736011
14	0x0d	0.033472024
15	0x08	0.020598168
16	0x02	0.005149542
17	0x05	0.0128738545
18	0xcf	-0.12616378
19	0xf0	-0.041196335
20	0xde	-0.08754221
21	0xf2	-0.03604679
22	0x3a	0.14933671
23	0xf7	-0.02317294
24	0xef	-0.043771107
25	0xfe	-0.005149542
26	0x18	0.061794505
27	0x2f	0.12101424
28	0x10	0.041196335
29	0x08	0.020598168
30	0x0a	0.025747709
31	0x00	0.0
32	0x1f	0.0798179
33	0x06	0.015448626
34	0xfd	-0.007724313
35	0xef	-0.043771107
36	0xfd	-0.007724313
37	0xeb	-0.05407019
38	0x24	0.09269176
39	0x22	0.08754221
40	0x11	0.043771107
41	0xfc	-0.010299084
42	0xd6	-0.10814038
43	0x14	0.051495418
44	0xf2	-0.03604679
45	0x2c	0.11328992
46	0x08	0.020598168
47	0xeb	-0.05407019
48	0x04	0.010299084
49	0x17	0.059219733
50	0x2e	0.118439466
51	0xe1	-0.0798179
52	0x14	0.051495418
53	0xff	-0.002574771
54	0x01	0.002574771
55	0xfe	-0.005149542
56	0xf6	-0.025747709
57	0x00	0.0
58	0xea	-0.05664496
59	0x0e	0.03604679
60	0xf3	-0.033472024
61	0xfb	-0.0128738545
62	0xfa	-0.015448626
63	0xdb	-0.09526653
64	0x06	0.015448626
65	0x0b	0.02832248
66	0x1b	0.06951881
67	0x34	0.1338881
68	0x23	0.090116985
69	0x2a	0.10814038
70	0x23	0.090116985
71	0x02	0.005149542
72	0x34	0.1338881
73	0x1a	0.06694405
74	0xff	-0.002574771
75	0x04	0.010299084
76	0x05	0.0128738545
77	0x0d	0.033472024
78	0xff	-0.002574771
79	0xf2	-0.03604679
80	0x12	0.04634588
81	0x1d	0.074668355
82	0x35	0.13646287
83	0xf7	-0.02317294
84	0xf1	-0.038621563
85	0x0c	0.030897252
86	0x16	0.05664496
87	0x10	0.041196335
88	0xdc	-0.09269176
89	0x18	0.061794505
90	0x3e	0.1596358
91	0x27	0.100416064
92	0x07	0.018023396
93	0x33	0.13131332
94	0x07	0.018023396
95	0x05	0.0128738545
96	0x02	0.005149542
97	0x01	0.002574771
98	0x1b	0.06951881
99	0xfc	-0.010299084
100	0x10	0.041196335
101	0xfb	-0.0128738545
102	0x1b	0.06951881
103	0xf4	-0.030897252
104	0x38	0.14418717
105	0xf0	-0.041196335
106	0xe4	-0.07209358
107	0x00	0.0
108	0xe8	-0.061794505
109	0xf1	-0.038621563
110	0x0c	0.030897252
111	0xf2	-0.03604679
112	0xf2	-0.03604679
113	0x01	0.002574771
114	0xd9	-0.100416064
115	0xed	-0.048920646
116	0xe6	-0.06694405
117	0x13	0.048920646
118	0x09	0.02317294
119	0xf9	-0.018023396
120	0x34	0.1338881
121	0x0d	0.033472024
122	0xff	-0.002574771
123	0x13	0.048920646
124	0xe3	-0.074668355
125	0x04	0.010299084
126	0x20	0.08239267
127	0xe7	-0.064369276
128	0xfe	-0.005149542
129	0x01	0.002574771
130	0xdf	-0.08496744
131	0xf4	-0.030897252
132	0x02	0.005149542
133	0x0c	0.030897252
134	0xd7	-0.10556561
135	0x1a	0.06694405
136	0x07	0.018023396
137	0x0b	0.02832248
138	0xf8	-0.020598168
139	0xeb	-0.05407019
140	0x26	0.09784129
141	0x00	0.0
142	0x07	0.018023396
143	0x0b	0.02832248
144	0x09	0.02317294
145	0x06	0.015448626
146	0xf6	-0.025747709
147	0x0d	0.033472024
148	0x11	0.043771107
149	0x08	0.020598168
150	0x21	0.08496744
151	0xf5	-0.02832248
152	0xe8	-0.061794505
153	0xea	-0.05664496
154	0xe0	-0.08239267
155	0xfa	-0.015448626
156	0x0b	0.02832248
157	0x01	0.002574771
158	0xec	-0.051495418
159	0x19	0.064369276
160	0x13	0.048920646
161	0x03	0.007724313
162	0xe4	-0.07209358
163	0xf0	-0.041196335
164	0xf5	-0.02832248
165	0xfd	-0.007724313
166	0x23	0.090116985
167	0x11	0.043771107
168	0xe9	-0.059219733
169	0x1a	0.06694405
170	0xfa	-0.015448626
171	0xd5	-0.11071515
172	0x1b	0.06951881
173	0x06	0.015448626
174	0x03	0.007724313
175	0x01	0.002574771
176	0xf7	-0.02317294
177	0x08	0.020598168
178	0x0b	0.02832248
179	0xdd	-0.090116985
180	0xee	-0.04634588
181	0x0e	0.03604679
182	0x0a	0.025747709
183	0xfa	-0.015448626
184	0xf4	-0.030897252
185	0xf5	-0.02832248
186	0xf4	-0.030897252
187	0xf1	-0.038621563
188	0x03	0.007724313
189	0x11	0.043771107
190	0x00	0.0
191	0xf7	-0.02317294
192	0x13	0.048920646
193	0x06	0.015448626
194	0xf9	-0.018023396
195	0x12	0.04634588
196	0x1a	0.06694405
197	0xf3	-0.033472024
198	0x17	0.059219733
199	0x15	0.05407019
200	0x25	0.09526653
201	0x0f	0.038621563
202	0x49	0.18795829
203	0xde	-0.08754221
204	0xdd	-0.090116985
205	0xee	-0.04634588
206	0x13	0.048920646
207	0xe1	-0.0798179
208	0x1b	0.06951881
209	0x0b	0.02832248
210	0xeb	-0.05407019
211	0xf3	-0.033472024
212	0xfa	-0.015448626
213	0x31	0.12616378
214	0xed	-0.048920646
215	0xd8	-0.102990836
216	0x08	0.020598168
217	0x02	0.005149542
218	0x0d	0.033472024
219	0x06	0.015448626
220	0x07	0.018023396
221	0xf0	-0.041196335
222	0x0a	0.025747709
223	0x1a	0.06694405
224	0xeb	-0.05407019
225	0xf8	-0.020598168
226	0x18	0.061794505
227	0x33	0.13131332
228	0xe8	-0.061794505
229	0xf8	-0.020598168
230	0xf1	-0.038621563
231	0x16	0.05664496
232	0x1f	0.0798179
233	0x1a	0.06694405
234	0x18	0.061794505
235	0xe2	-0.07724313
236	0xe6	-0.06694405
237	0x24	0.09269176
238	0xfc	-0.010299084
239	0x0a	0.025747709
240	0xfd	-0.007724313
241	0xdb	-0.09526653
242	0x15	0.05407019
243	0xdf	-0.08496744
244	0xea	-0.05664496
245	0x43	0.17250966
246	0x10	0.041196335
247	0x00	0.0
248	0x17	0.059219733
249	0xe2	-0.07724313
250	0x0f	0.038621563
251	0xd7	-0.10556561
252	0x16	0.05664496
253	0xf6	-0.025747709
254	0xf6	-0.025747709
255	0x02	0.005149542
