model/keypoint_classifier/keypoint_classifier.tflite (tflite, 115200 bytes, 8 tensors)

sequential_10/lstm_9/Read_2/ReadVariableOp f4 [512]
000000 13 74 92 bf 65 1a 29 bf c5 ac 84 3e 26 6e c4 3e
       -1.1441673 -0.660559 0.25913063 0.38365287
000010 11 f2 7d be 73 21 84 be 84 0e 57 be bc a2 1f be
       -0.24799372 -0.2580677 -0.21001631 -0.15589422
000020 c6 bd a6 3f ba 4f de be a3 6a 87 3f 2e 5e ae be
       1.3026664 -0.43420202 1.0579418 -0.34056228
000030 8f fb b2 3f db 13 a3 3e d3 39 94 bf cf 63 7f bf
       1.398302 0.31851086 -1.1580147 -0.9976167
000040 27 2b 62 be 22 d3 b0 3f 13 a7 9b bf e7 6b fb be
       -0.22086774 1.3814433 -1.2160362 -0.4910576
000050 9f aa 9c 3f f8 03 9e bf 76 fb a0 3f 50 9a ac 3f
       1.223957 -1.2344961 1.257674 1.3484592
000060 13 0c c6 3f da 43 41 3e f2 e1 62 bf 91 6f 34 be
       1.5472435 0.1887354 -0.88626015 -0.17620684
000070 12 62 59 3f c7 7f a7 3d 5b d4 a4 be 7c 96 ba 3f
       0.8491527 0.081786685 -0.32193264 1.4577174
000080 2f 9c a0 bd 4d 83 d3 3f a4 6c 98 3f 44 28 19 bf
       -0.0784229 1.6524445 1.1908154 -0.59827065
000090 e5 23 ab 3f a7 cc 1e 3d 60 96 b6 3f ec d5 bc 3e
       1.3370329 0.03876939 1.4264641 0.3688196
0000a0 71 ab 29 bd 55 3a ab 3f 73 c1 16 bf e7 05 0c 3f
       -0.041423265 1.3377177 -0.5888893 0.54696506
0000b0 78 57 b4 be d5 3d b3 3d 4f 1d e1 be c5 6f 39 3d
       -0.35222983 0.08752028 -0.43967673 0.045272607
0000c0 e8 78 99 3f 2b 62 81 3d 53 89 da bf c6 a9 17 bf
       1.1990023 0.06317552 -1.7073158 -0.5924343
0000d0 0f 62 a3 bf 58 8c 9a 3f a8 38 7a bd 99 47 4d 3f
       -1.27643 1.207408 -0.061089188 0.80187374
0000e0 22 9a 93 3f 5c 91 78 3f 02 66 16 3f ca 30 e6 3f
       1.1531413 0.970968 0.587494 1.7983639
0000f0 2b da 49 3f df c6 ab 3f 42 2d 91 be c2 fc ba 3f
       0.7884852 1.3420066 -0.2835484 1.4608386
000100 71 03 0c bf a6 db ee be d4 fc c6 3f dd 97 cb 3f
       -0.5469275 -0.46651953 1.5545907 1.590572
000110 dd 9b db bf c0 75 0f bf fa 86 7e be 05 6b cc 3f
       -1.7156941 -0.5603905 -0.24856177 1.597016
000120 d9 a7 42 bb 50 d3 3c be 96 82 93 3f 20 06 a3 3e
       -0.0029702096 -0.18439984 1.1524227 0.3184061
000130 90 52 e1 3f eb 2b 01 c0 11 0e a7 be 87 e9 b1 3f
       1.7603321 -2.0183055 -0.3262792 1.3899392
000140 64 c4 db 3f e4 6d 32 3f d6 d4 22 be 0f fa 26 bf
       1.7169309 0.6969893 -0.15901503 -0.6522531
000150 b8 61 bd 3f e7 c1 e7 be dd f9 ba 3f 58 24 d0 be
       1.4795446 -0.45265123 1.4607502 -0.40652728
000160 8d e3 70 be eb 86 ea bc ce 06 c2 3f dd 34 33 3f
       -0.23524304 -0.028628787 1.5158327 0.7000254
000170 22 eb 97 be 7b 3e 5b 3e af 75 b4 3f e1 56 33 bf
       -0.2967158 0.21410553 1.4098414 -0.7005444
000180 4f ea 93 3e 68 fd a5 3f 87 6d 35 bf b1 32 b9 3f
       0.288897 1.2967958 -0.7087025 1.4468595
000190 89 fe c5 be 68 38 d7 3f f2 59 a6 bf 8b ab 2b bf
       -0.38670757 1.6814089 -1.2996199 -0.6705863
0001a0 d0 88 42 bf 7e b3 a4 3f d2 bb 9f 3f c4 96 80 bd
       -0.7599001 1.2867277 1.2479193 -0.06278756
0001b0 e7 a7 30 bf 62 92 c8 be 7c 32 78 3f 90 47 82 bf
       -0.690062 -0.3917418 0.96952033 -1.0178089
0001c0 3d 6c e6 3e fc 26 b1 3f 3f b9 b7 3f 01 c5 11 be
       0.45004454 1.3840022 1.4353408 -0.14235307
0001d0 66 a6 27 bf e8 d3 06 3f b1 31 c9 be cf cf cd 3f
       -0.6548828 0.52667093 -0.39295724 1.6079043
0001e0 37 29 ab be 26 64 f0 bd 37 97 c9 3e 77 dd 2d bf
       -0.33429882 -0.11737852 0.3937318 -0.67916054
0001f0 0a 81 89 3e 1e bd a8 bf b2 a9 ca 3f b9 da c3 be
       0.26856261 -1.3182714 1.5833037 -0.3825281
000200 00 00 80 3f 00 00 80 3f 00 00 80 3f 00 00 80 3f
       1.0 1.0 1.0 1.0
000210 00 00 80 3f 00 00 80 3f 00 00 80 3f 00 00 80 3f
       1.0 1.0 1.0 1.0
000220 00 00 80 3f 00 00 80 3f 00 00 80 3f 00 00 80 3f
       1.0 1.0 1.0 1.0
000230 00 00 80 3f 00 00 80 3f 00 00 80 3f 00 00 80 3f
       1.0 1.0 1.0 1.0
000240 00 00 80 3f 00 00 80 3f 00 00 80 3f 00 00 80 3f
       1.0 1.0 1.0 1.0
000250 00 00 80 3f 00 00 80 3f 00 00 80 3f 00 00 80 3f
       1.0 1.0 1.0 1.0
000260 00 00 80 3f 00 00 80 3f 00 00 80 3f 00 00 80 3f
       1.0 1.0 1.0 1.0
000270 00 00 80 3f 00 00 80 3f 00 00 80 3f 00 00 80 3f
       1.0 1.0 1.0 1.0
000280 00 00 80 3f 00 00 80 3f 00 00 80 3f 00 00 80 3f
       1.0 1.0 1.0 1.0
000290 00 00 80 3f 00 00 80 3f 00 00 80 3f 00 00 80 3f
       1.0 1.0 1.0 1.0
0002a0 00 00 80 3f 00 00 80 3f 00 00 80 3f 00 00 80 3f
       1.0 1.0 1.0 1.0
0002b0 00 00 80 3f 00 00 80 3f 00 00 80 3f 00 00 80 3f
       1.0 1.0 1.0 1.0
0002c0 00 00 80 3f 00 00 80 3f 00 00 80 3f 00 00 80 3f
       1.0 1.0 1.0 1.0
0002d0 00 00 80 3f 00 00 80 3f 00 00 80 3f 00 00 80 3f
       1.0 1.0 1.0 1.0
0002e0 00 00 80 3f 00 00 80 3f 00 00 80 3f 00 00 80 3f
       1.0 1.0 1.0 1.0
0002f0 00 00 80 3f 00 00 80 3f 00 00 80 3f 00 00 80 3f
       1.0 1.0 1.0 1.0
000300 00 00 80 3f 00 00 80 3f 00 00 80 3f 00 00 80 3f
       1.0 1.0 1.0 1.0
000310 00 00 80 3f 00 00 80 3f 00 00 80 3f 00 00 80 3f
       1.0 1.0 1.0 1.0
000320 00 00 80 3f 00 00 80 3f 00 00 80 3f 00 00 80 3f
       1.0 1.0 1.0 1.0
000330 00 00 80 3f 00 00 80 3f 00 00 80 3f 00 00 80 3f
       1.0 1.0 1.0 1.0
000340 00 00 80 3f 00 00 80 3f 00 00 80 3f 00 00 80 3f
       1.0 1.0 1.0 1.0
000350 00 00 80 3f 00 00 80 3f 00 00 80 3f 00 00 80 3f
       1.0 1.0 1.0 1.0
000360 00 00 80 3f 00 00 80 3f 00 00 80 3f 00 00 80 3f
       1.0 1.0 1.0 1.0
000370 00 00 80 3f 00 00 80 3f 00 00 80 3f 00 00 80 3f
       1.0 1.0 1.0 1.0
000380 00 00 80 3f 00 00 80 3f 00 00 80 3f 00 00 80 3f
       1.0 1.0 1.0 1.0
000390 00 00 80 3f 00 00 80 3f 00 00 80 3f 00 00 80 3f
       1.0 1.0 1.0 1.0
0003a0 00 00 80 3f 00 00 80 3f 00 00 80 3f 00 00 80 3f
       1.0 1.0 1.0 1.0
0003b0 00 00 80 3f 00 00 80 3f 00 00 80 3f 00 00 80 3f
       1.0 1.0 1.0 1.0
0003c0 00 00 80 3f 00 00 80 3f 00 00 80 3f 00 00 80 3f
       1.0 1.0 1.0 1.0
0003d0 00 00 80 3f 00 00 80 3f 00 00 80 3f 00 00 80 3f
       1.0 1.0 1.0 1.0
0003e0 00 00 80 3f 00 00 80 3f 00 00 80 3f 00 00 80 3f
       1.0 1.0 1.0 1.0
0003f0 00 00 80 3f 00 00 80 3f 00 00 80 3f 00 00 80 3f
       1.0 1.0 1.0 1.0

sequential_10/dense_23/BiasAdd/ReadVariableOp f4 [76]
000000 c7 a0 d7 be c9 08 89 be b9 bc 27 3e ae 0a 9d 3d
       -0.4211485 -0.26764515 0.16380586 0.076680526
000010 5b 14 dd 3e 36 af c4 be cb ec 8c 3d 86 d8 b3 3c
       0.43179592 -0.38414925 0.06881102 0.021953832
000020 ed ea 22 3c 7a 60 e2 3d cb f9 34 3f ae c5 08 be
       0.009943706 0.11053558 0.70693654 -0.13356659
000030 91 3a c0 be e0 86 1c bd ea 6b 87 bf 42 0e 16 bf
       -0.37544683 -0.038214564 -1.0579808 -0.58615506
000040 0a ce 7e 3e 9e 8d 94 bf 13 f5 b3 3e 76 f5 a3 3d
       0.24883285 -1.1605718 0.35147914 0.08005802
000050 a5 8a a1 bf 19 8d 0a 3f 20 fd 5b 3f a4 73 b4 be
       -1.2620436 0.5412155 0.85933113 -0.35244477
000060 d4 da 6d bf a1 36 84 bf 88 12 9e 3f b6 87 22 3d
       -0.9291203 -1.0329171 1.2349405 0.039680205
000070 eb d4 bb bf c9 5c a7 be e9 a2 f3 be a3 ed 19 bf
       -1.4674352 -0.32687977 -0.47585228 -0.6012823
000080 aa ac 35 3e 47 4c 54 bf 42 8d bb 3e 36 d1 87 3f
       0.17741647 -0.8292889 0.3663121 1.0610721
000090 54 60 66 3f 7b a2 d2 3e b7 8c eb bd 8a 06 ce bf
       0.89990735 0.41139588 -0.115014486 -1.6095746
0000a0 27 f5 e2 3d 10 1b d8 3d 9e a9 a8 be 53 e2 7f 3d
       0.11081915 0.10552037 -0.32941908 0.0624717
0000b0 dc 09 0a bd 7c 78 dd be 56 b9 ad 3e 5e a2 f6 3e
       -0.03370081 -0.43255985 0.33930463 0.4817075
0000c0 86 9a 98 3d b6 34 d6 3e 76 c7 c8 3c 2d b6 e4 3e
       0.07451348 0.4183709 0.024509173 0.4467024
0000d0 5f f2 7e 3d be c5 a2 3e e9 93 9e 3e 7e c0 8a 3f
       0.06224286 0.3179149 0.30972221 1.0839994
0000e0 7b 0c 7b 3e d9 61 84 3e 01 49 1e bf 52 85 e7 3e
       0.2451648 0.25855902 -0.61830145 0.45218903
0000f0 a8 11 04 3f be 67 85 be e3 88 d0 3e 05 b4 53 bd
       0.5158944 -0.26055712 0.40729436 -0.051685352
000100 cc cd 1f 3e c1 77 0c bf 0d 18 06 3f 1b d3 3e 3f
       0.15605849 -0.5487023 0.5238045 0.7454087
000110 4b df d5 3e 5f a8 0b 3f 73 19 99 3f 1d 27 81 be
       0.41771922 0.5455379 1.1960891 -0.25225154
000120 15 7c 15 bf ee 96 98 bf 72 7a 7e bf ca 31 8c 3d
       -0.5839246 -1.192106 -0.99405587 0.06845434

sequential_10/dense_22/BiasAdd/ReadVariableOp f4 [64]
000000 29 0c e7 3e 68 15 bd 3e fe 9e 33 3f 17 57 fb 3e
       0.45126465 0.36930394 0.7016448 0.49089882
000010 f0 f2 1a 3f 21 70 5b 3f 9a 08 6b 3f 35 58 f3 3e
       0.60526943 0.8571797 0.9181 0.47528234
000020 87 7f 73 3f f3 a3 85 3e 65 fa 34 3f 67 de 1a 3f
       0.95116466 0.26101646 0.7069457 0.6049561
000030 bb 4b 2e be c4 65 8e 3f f2 21 f0 3e d8 86 78 3f
       -0.17021076 1.1124806 0.46900898 0.97080755
000040 52 16 9f 3e 35 a9 1d bf 5b 00 ee bc bd 18 57 3f
       0.31071717 -0.61586314 -0.029052904 0.8402212
000050 0f ce 2b 3f 56 3b 86 3f 0f cd 16 3f 6d 58 0a 3e
       0.67111295 1.0486858 0.58906645 0.13510294
000060 3c fb 8f 3e 4f 05 3f 3f 96 da dd 3d ad 6a fe 3e
       0.28121364 0.74617475 0.108327076 0.49690762
000070 a7 cd 0f bf 8d bd 77 3f 1b af a1 3e e0 9c 47 3d
       -0.56173176 0.96773607 0.31578907 0.048733592
000080 23 d2 74 3e e9 c4 88 bc b5 f9 7c 3f eb 47 01 3f
       0.23908286 -0.016695457 0.9881852 0.50500363
000090 83 5e 6f 3f b7 14 a4 3e eb 16 71 3f 7d 5a c5 3e
       0.9350359 0.32047054 0.94175595 0.385456
0000a0 5e 12 7d 3f 25 1a 23 bf 14 16 75 3e 3b f2 2f 3f
       0.9885615 -0.6371177 0.23934203 0.6872899
0000b0 74 e6 10 3f 8a a9 96 3f ec 6c 1e 3f eb 2b 00 be
       0.56601644 1.1770489 0.6188495 -0.12516753
0000c0 11 08 de 3d 33 0b 86 3f 0a c5 21 be 1a f5 22 3f
       0.10841382 1.0472168 -0.1579782 0.63655245
0000d0 d9 57 04 3e f6 63 61 3f 83 66 7d 3f d3 8a 56 3e
       0.12924136 0.88043153 0.98984545 0.20951395
0000e0 19 c4 63 3f 52 c2 80 3f 00 51 5f 3f ad bf 29 3f
       0.88971096 1.0059302 0.8723297 0.663081
0000f0 ec a4 6c 3f 58 81 5a bf e1 65 29 3f 48 25 90 3c
       0.9243915 -0.8535361 0.6617108 0.017595902

sequential_10/dense_22/MatMul i1 [64, 128] scale=0.046424948 zero_point=0
000000 fc f0 07 f5 02 d7 f9 04 fb ef d7 f9 2a 0c c1 dd
       -0.18569979 -0.74279916 0.32497463 -0.5106744 0.092849895 -1.9034228 -0.32497463 0.18569979 -0.23212475 -0.7892241 -1.9034228 -0.32497463 1.9498478 0.55709934 -2.9247718 -1.6248732
000010 fb f4 fe fc f9 e9 43 ef 18 f8 01 ce f6 03 06 e4
       -0.23212475 -0.55709934 -0.092849895 -0.18569979 -0.32497463 -1.0677738 3.1104715 -0.7892241 1.1141987 -0.37139958 0.046424948 -2.3212473 -0.4642495 0.13927484 0.27854967 -1.2998985
000020 01 06 ff ff 05 0a 24 f4 ef 09 0b fe e4 03 dd f1
       0.046424948 0.27854967 -0.046424948 -0.046424948 0.23212475 0.4642495 1.6712981 -0.55709934 -0.7892241 0.41782454 0.5106744 -0.092849895 -1.2998985 0.13927484 -1.6248732 -0.69637424
000030 04 fa f3 fe 09 08 05 13 04 f9 fb 02 00 fa 16 05
       0.18569979 -0.27854967 -0.6035243 -0.092849895 0.41782454 0.37139958 0.23212475 0.882074 0.18569979 -0.32497463 -0.23212475 0.092849895 0.0 -0.27854967 1.0213488 0.23212475
000040 05 f3 0a 00 2e fc 0d f3 fe f8 05 0b ff 36 ee 0c
       0.23212475 -0.6035243 0.4642495 0.0 2.1355476 -0.18569979 0.6035243 -0.6035243 -0.092849895 -0.37139958 0.23212475 0.5106744 -0.046424948 2.5069473 -0.8356491 0.55709934
000050 04 0b 05 1e ff 01 f5 04 16 11 06 01 ff bf ec e3
       0.18569979 0.5106744 0.23212475 1.3927485 -0.046424948 0.046424948 -0.5106744 0.18569979 1.0213488 0.7892241 0.27854967 0.046424948 -0.046424948 -3.0176215 -0.928499 -1.3463235
000060 f5 05 f8 fd 03 f9 13 0b 0e 01 18 3e f9 07 23 e6
       -0.5106744 0.23212475 -0.37139958 -0.13927484 0.13927484 -0.32497463 0.882074 0.5106744 0.64994925 0.046424948 1.1141987 2.8783467 -0.32497463 0.32497463 1.6248732 -1.2070487
000070 fe f9 09 f8 eb 01 fb 04 0d 11 f8 fb 23 fa fc 15
       -0.092849895 -0.32497463 0.41782454 -0.37139958 -0.9749239 0.046424948 -0.23212475 0.18569979 0.6035243 0.7892241 -0.37139958 -0.23212475 1.6248732 -0.27854967 -0.18569979 0.9749239
000080 14 00 00 f1 01 12 08 3e fc 25 2e 02 0b 0d f6 0b
       0.928499 0.0 0.0 -0.69637424 0.046424948 0.8356491 0.37139958 2.8783467 -0.18569979 1.717723 2.1355476 0.092849895 0.5106744 0.6035243 -0.4642495 0.5106744
000090 0c 2b 14 fe 04 ed 06 ec 07 fe 0c ca 08 01 02 1d
       0.55709934 1.9962728 0.928499 -0.092849895 0.18569979 -0.882074 0.27854967 -0.928499 0.32497463 -0.092849895 0.55709934 -2.5069473 0.37139958 0.046424948 0.092849895 1.3463235
0000a0 01 03 f8 0a 02 f6 f3 09 2d fc e0 f1 f2 01 ee 36
       0.046424948 0.13927484 -0.37139958 0.4642495 0.092849895 -0.4642495 -0.6035243 0.41782454 2.0891225 -0.18569979 -1.4855983 -0.69637424 -0.64994925 0.046424948 -0.8356491 2.5069473
0000b0 fe fb 0f 0f 00 0d fe 05 f6 f2 03 fa 0c f7 0a eb
       -0.092849895 -0.23212475 0.69637424 0.69637424 0.0 0.6035243 -0.092849895 0.23212475 -0.4642495 -0.64994925 0.13927484 -0.27854967 0.55709934 -0.41782454 0.4642495 -0.9749239
0000c0 05 0e 01 f9 ea fb e0 00 f2 fc 08 0b 00 21 07 da
       0.23212475 0.64994925 0.046424948 -0.32497463 -1.0213488 -0.23212475 -1.4855983 0.0 -0.64994925 -0.18569979 0.37139958 0.5106744 0.0 1.5320233 0.32497463 -1.764148
0000d0 fc 00 09 05 06 a0 ff a5 ac 0c ff f5 01 f7 04 fb
       -0.18569979 0.0 0.41782454 0.23212475 0.27854967 -4.4567947 -0.046424948 -4.2246704 -3.8996956 0.55709934 -0.046424948 -0.5106744 0.046424948 -0.41782454 0.18569979 -0.23212475
0000e0 01 0f f9 f6 01 cc 11 05 07 fe 0d 11 fa 01 fd 04
       0.046424948 0.69637424 -0.32497463 -0.4642495 0.046424948 -2.4140973 0.7892241 0.23212475 0.32497463 -0.092849895 0.6035243 0.7892241 -0.27854967 0.046424948 -0.13927484 0.18569979
0000f0 0b fe 00 f8 14 fa fb 3c 01 ee fb 08 fe b0 fb 5a
       0.5106744 -0.092849895 0.0 -0.37139958 0.928499 -0.27854967 -0.23212475 2.785497 0.046424948 -0.8356491 -0.23212475 0.37139958 -0.092849895 -3.713996 -0.23212475 4.178245

sequential_10/dense_23/MatMul i1 [76, 64] scale=0.06135408 zero_point=0
000000 03 05 02 05 02 d9 fd f6 03 03 01 03 f3 ff fc 01
       0.18406224 0.30677038 0.12270816 0.30677038 0.12270816 -2.3928092 -0.18406224 -0.61354077 0.18406224 0.18406224 0.06135408 0.18406224 -0.797603 -0.06135408 -0.24541631 0.06135408
000010 e3 de f8 e0 f3 01 c0 ff dd 05 e9 f6 f2 04 04 cd
       -1.7792683 -2.0860386 -0.49083263 -1.9633305 -0.797603 0.06135408 -3.926661 -0.06135408 -2.1473927 0.30677038 -1.4111438 -0.61354077 -0.8589571 0.24541631 0.24541631 -3.129058
000020 bd 05 00 04 bf 07 b8 00 02 02 03 ef ff f7 03 d9
       -4.110723 0.30677038 0.0 0.24541631 -3.9880152 0.42947856 -4.417494 0.0 0.12270816 0.12270816 0.18406224 -1.0430193 -0.06135408 -0.5521867 0.18406224 -2.3928092
000030 01 c4 e8 03 fe fb 06 dc 01 ff d5 09 ff f3 f7 f4
       0.06135408 -3.6812446 -1.4724979 0.18406224 -0.12270816 -0.30677038 0.36812449 -2.208747 0.06135408 -0.06135408 -2.6382253 0.5521867 -0.06135408 -0.797603 -0.5521867 -0.73624897
000040 fc 06 d9 f1 ed 06 c2 ee d4 01 d1 03 14 f1 02 03
       -0.24541631 0.36812449 -2.3928092 -0.92031115 -1.1657275 0.36812449 -3.803953 -1.1043735 -2.6995795 0.06135408 -2.8836417 0.18406224 1.2270815 -0.92031115 0.12270816 0.18406224
000050 05 ed d2 07 c7 ab eb f5 fb 04 ff 03 ba fb fd 04
       0.30677038 -1.1657275 -2.8222876 0.42947856 -3.4971824 -5.2150965 -1.2884357 -0.67489487 -0.30677038 0.24541631 -0.06135408 0.18406224 -4.2947855 -0.30677038 -0.18406224 0.24541631
000060 05 04 ff 01 08 d9 f9 03 02 03 00 07 00 e3 04 ec
       0.30677038 0.24541631 -0.06135408 0.06135408 0.49083263 -2.3928092 -0.42947856 0.18406224 0.12270816 0.18406224 0.0 0.42947856 0.0 -1.7792683 0.24541631 -1.2270815
000070 01 04 fe 07 06 04 f6 a4 ff 03 ff 01 ff f8 ce fb
       0.06135408 0.24541631 -0.12270816 0.42947856 0.36812449 0.24541631 -0.61354077 -5.644575 -0.06135408 0.18406224 -0.06135408 0.06135408 -0.06135408 -0.49083263 -3.067704 -0.30677038
000080 f6 03 03 fc e2 fc 03 00 02 c1 01 03 fe 02 00 fa
       -0.61354077 0.18406224 0.18406224 -0.24541631 -1.8406223 -0.24541631 0.18406224 0.0 0.12270816 -3.8653069 0.06135408 0.18406224 -0.12270816 0.12270816 0.0 -0.36812449
000090 0d f9 d4 02 01 02 01 06 fe fa a8 bc b0 02 ec 06
       0.797603 -0.42947856 -2.6995795 0.12270816 0.06135408 0.12270816 0.06135408 0.36812449 -0.12270816 -0.36812449 -5.399159 -4.172077 -4.908326 0.12270816 -1.2270815 0.36812449
0000a0 db 01 b1 07 01 02 02 bd f8 bd e2 fc 02 03 00 cc
       -2.2701008 0.06135408 -4.846972 0.42947856 0.06135408 0.12270816 0.12270816 -4.110723 -0.49083263 -4.110723 -1.8406223 -0.24541631 0.12270816 0.18406224 0.0 -3.190412
0000b0 d2 02 03 02 07 fc fd 01 01 ff 02 fe fa fb 04 c4
       -2.8222876 0.12270816 0.18406224 0.12270816 0.42947856 -0.24541631 -0.18406224 0.06135408 0.06135408 -0.06135408 0.12270816 -0.12270816 -0.36812449 -0.30677038 0.24541631 -3.6812446
0000c0 01 05 04 05 f5 f9 02 ec 04 ff 03 fc d3 ff d8 02
       0.06135408 0.30677038 0.24541631 0.30677038 -0.67489487 -0.42947856 0.12270816 -1.2270815 0.24541631 -0.06135408 0.18406224 -0.24541631 -2.7609336 -0.06135408 -2.454163 0.12270816
0000d0 ed df 05 ec fd 01 fb 04 d3 00 db f7 06 00 03 f8
       -1.1657275 -2.0246847 0.30677038 -1.2270815 -0.18406224 0.06135408 -0.30677038 0.24541631 -2.7609336 0.0 -2.2701008 -0.5521867 0.36812449 0.0 0.18406224 -0.49083263
0000e0 ec fe d3 ff d9 04 fc ed 01 01 02 e7 03 ff 04 fe
       -1.2270815 -0.12270816 -2.7609336 -0.06135408 -2.3928092 0.24541631 -0.24541631 -1.1657275 0.06135408 0.06135408 0.12270816 -1.533852 0.18406224 -0.06135408 0.24541631 -0.12270816
0000f0 e5 e5 ed 07 0b 00 01 01 03 02 ea f0 e3 e0 f8 da
       -1.6565601 -1.6565601 -1.1657275 0.42947856 0.67489487 0.0 0.06135408 0.06135408 0.18406224 0.12270816 -1.3497897 -0.98166525 -1.7792683 -1.9633305 -0.49083263 -2.331455

sequential_10/lstm_9/Read_2/ReadVariableOp1 f4 [512]
000000 13 74 92 bf 65 1a 29 bf c5 ac 84 3e 26 6e c4 3e
       -1.1441673 -0.660559 0.25913063 0.38365287
000010 11 f2 7d be 73 21 84 be 84 0e 57 be bc a2 1f be
       -0.24799372 -0.2580677 -0.21001631 -0.15589422
000020 c6 bd a6 3f ba 4f de be a3 6a 87 3f 2e 5e ae be
       1.3026664 -0.43420202 1.0579418 -0.34056228
000030 8f fb b2 3f db 13 a3 3e d3 39 94 bf cf 63 7f bf
       1.398302 0.31851086 -1.1580147 -0.9976167
000040 27 2b 62 be 22 d3 b0 3f 13 a7 9b bf e7 6b fb be
       -0.22086774 1.3814433 -1.2160362 -0.4910576
000050 9f aa 9c 3f f8 03 9e bf 76 fb a0 3f 50 9a ac 3f
       1.223957 -1.2344961 1.257674 1.3484592
000060 13 0c c6 3f da 43 41 3e f2 e1 62 bf 91 6f 34 be
       1.5472435 0.1887354 -0.88626015 -0.17620684
000070 12 62 59 3f c7 7f a7 3d 5b d4 a4 be 7c 96 ba 3f
       0.8491527 0.081786685 -0.32193264 1.4577174
000080 2f 9c a0 bd 4d 83 d3 3f a4 6c 98 3f 44 28 19 bf
       -0.0784229 1.6524445 1.1908154 -0.59827065
000090 e5 23 ab 3f a7 cc 1e 3d 60 96 b6 3f ec d5 bc 3e
       1.3370329 0.03876939 1.4264641 0.3688196
0000a0 71 ab 29 bd 55 3a ab 3f 73 c1 16 bf e7 05 0c 3f
       -0.041423265 1.3377177 -0.5888893 0.54696506
0000b0 78 57 b4 be d5 3d b3 3d 4f 1d e1 be c5 6f 39 3d
       -0.35222983 0.08752028 -0.43967673 0.045272607
0000c0 e8 78 99 3f 2b 62 81 3d 53 89 da bf c6 a9 17 bf
       1.1990023 0.06317552 -1.7073158 -0.5924343
0000d0 0f 62 a3 bf 58 8c 9a 3f a8 38 7a bd 99 47 4d 3f
       -1.27643 1.207408 -0.061089188 0.80187374
0000e0 22 9a 93 3f 5c 91 78 3f 02 66 16 3f ca 30 e6 3f
       1.1531413 0.970968 0.587494 1.7983639
0000f0 2b da 49 3f df c6 ab 3f 42 2d 91 be c2 fc ba 3f
       0.7884852 1.3420066 -0.2835484 1.4608386
000100 71 03 0c bf a6 db ee be d4 fc c6 3f dd 97 cb 3f
       -0.5469275 -0.46651953 1.5545907 1.590572
000110 dd 9b db bf c0 75 0f bf fa 86 7e be 05 6b cc 3f
       -1.7156941 -0.5603905 -0.24856177 1.597016
000120 d9 a7 42 bb 50 d3 3c be 96 82 93 3f 20 06 a3 3e
       -0.0029702096 -0.18439984 1.1524227 0.3184061
000130 90 52 e1 3f eb 2b 01 c0 11 0e a7 be 87 e9 b1 3f
       1.7603321 -2.0183055 -0.3262792 1.3899392
000140 64 c4 db 3f e4 6d 32 3f d6 d4 22 be 0f fa 26 bf
       1.7169309 0.6969893 -0.15901503 -0.6522531
000150 b8 61 bd 3f e7 c1 e7 be dd f9 ba 3f 58 24 d0 be
       1.4795446 -0.45265123 1.4607502 -0.40652728
000160 8d e3 70 be eb 86 ea bc ce 06 c2 3f dd 34 33 3f
       -0.23524304 -0.028628787 1.5158327 0.7000254
000170 22 eb 97 be 7b 3e 5b 3e af 75 b4 3f e1 56 33 bf
       -0.2967158 0.21410553 1.4098414 -0.7005444
000180 4f ea 93 3e 68 fd a5 3f 87 6d 35 bf b1 32 b9 3f
       0.288897 1.2967958 -0.7087025 1.4468595
000190 89 fe c5 be 68 38 d7 3f f2 59 a6 bf 8b ab 2b bf
       -0.38670757 1.6814089 -1.2996199 -0.6705863
0001a0 d0 88 42 bf 7e b3 a4 3f d2 bb 9f 3f c4 96 80 bd
       -0.7599001 1.2867277 1.2479193 -0.06278756
0001b0 e7 a7 30 bf 62 92 c8 be 7c 32 78 3f 90 47 82 bf
       -0.690062 -0.3917418 0.96952033 -1.0178089
0001c0 3d 6c e6 3e fc 26 b1 3f 3f b9 b7 3f 01 c5 11 be
       0.45004454 1.3840022 1.4353408 -0.14235307
0001d0 66 a6 27 bf e8 d3 06 3f b1 31 c9 be cf cf cd 3f
       -0.6548828 0.52667093 -0.39295724 1.6079043
0001e0 37 29 ab be 26 64 f0 bd 37 97 c9 3e 77 dd 2d bf
       -0.33429882 -0.11737852 0.3937318 -0.67916054
0001f0 0a 81 89 3e 1e bd a8 bf b2 a9 ca 3f b9 da c3 be
       0.26856261 -1.3182714 1.5833037 -0.3825281
000200 00 00 80 3f 00 00 80 3f 00 00 80 3f 00 00 80 3f
       1.0 1.0 1.0 1.0
000210 00 00 80 3f 00 00 80 3f 00 00 80 3f 00 00 80 3f
       1.0 1.0 1.0 1.0
000220 00 00 80 3f 00 00 80 3f 00 00 80 3f 00 00 80 3f
       1.0 1.0 1.0 1.0
000230 00 00 80 3f 00 00 80 3f 00 00 80 3f 00 00 80 3f
       1.0 1.0 1.0 1.0
000240 00 00 80 3f 00 00 80 3f 00 00 80 3f 00 00 80 3f
       1.0 1.0 1.0 1.0
000250 00 00 80 3f 00 00 80 3f 00 00 80 3f 00 00 80 3f
       1.0 1.0 1.0 1.0
000260 00 00 80 3f 00 00 80 3f 00 00 80 3f 00 00 80 3f
       1.0 1.0 1.0 1.0
000270 00 00 80 3f 00 00 80 3f 00 00 80 3f 00 00 80 3f
       1.0 1.0 1.0 1.0
000280 00 00 80 3f 00 00 80 3f 00 00 80 3f 00 00 80 3f
       1.0 1.0 1.0 1.0
000290 00 00 80 3f 00 00 80 3f 00 00 80 3f 00 00 80 3f
       1.0 1.0 1.0 1.0
0002a0 00 00 80 3f 00 00 80 3f 00 00 80 3f 00 00 80 3f
       1.0 1.0 1.0 1.0
0002b0 00 00 80 3f 00 00 80 3f 00 00 80 3f 00 00 80 3f
       1.0 1.0 1.0 1.0
0002c0 00 00 80 3f 00 00 80 3f 00 00 80 3f 00 00 80 3f
       1.0 1.0 1.0 1.0
0002d0 00 00 80 3f 00 00 80 3f 00 00 80 3f 00 00 80 3f
       1.0 1.0 1.0 1.0
0002e0 00 00 80 3f 00 00 80 3f 00 00 80 3f 00 00 80 3f
       1.0 1.0 1.0 1.0
0002f0 00 00 80 3f 00 00 80 3f 00 00 80 3f 00 00 80 3f
       1.0 1.0 1.0 1.0
000300 00 00 80 3f 00 00 80 3f 00 00 80 3f 00 00 80 3f
       1.0 1.0 1.0 1.0
000310 00 00 80 3f 00 00 80 3f 00 00 80 3f 00 00 80 3f
       1.0 1.0 1.0 1.0
000320 00 00 80 3f 00 00 80 3f 00 00 80 3f 00 00 80 3f
       1.0 1.0 1.0 1.0
000330 00 00 80 3f 00 00 80 3f 00 00 80 3f 00 00 80 3f
       1.0 1.0 1.0 1.0
000340 00 00 80 3f 00 00 80 3f 00 00 80 3f 00 00 80 3f
       1.0 1.0 1.0 1.0
000350 00 00 80 3f 00 00 80 3f 00 00 80 3f 00 00 80 3f
       1.0 1.0 1.0 1.0
000360 00 00 80 3f 00 00 80 3f 00 00 80 3f 00 00 80 3f
       1.0 1.0 1.0 1.0
000370 00 00 80 3f 00 00 80 3f 00 00 80 3f 00 00 80 3f
       1.0 1.0 1.0 1.0
000380 00 00 80 3f 00 00 80 3f 00 00 80 3f 00 00 80 3f
       1.0 1.0 1.0 1.0
000390 00 00 80 3f 00 00 80 3f 00 00 80 3f 00 00 80 3f
       1.0 1.0 1.0 1.0
0003a0 00 00 80 3f 00 00 80 3f 00 00 80 3f 00 00 80 3f
       1.0 1.0 1.0 1.0
0003b0 00 00 80 3f 00 00 80 3f 00 00 80 3f 00 00 80 3f
       1.0 1.0 1.0 1.0
0003c0 00 00 80 3f 00 00 80 3f 00 00 80 3f 00 00 80 3f
       1.0 1.0 1.0 1.0
0003d0 00 00 80 3f 00 00 80 3f 00 00 80 3f 00 00 80 3f
       1.0 1.0 1.0 1.0
0003e0 00 00 80 3f 00 00 80 3f 00 00 80 3f 00 00 80 3f
       1.0 1.0 1.0 1.0
0003f0 00 00 80 3f 00 00 80 3f 00 00 80 3f 00 00 80 3f
       1.0 1.0 1.0 1.0

while/MatMul_11 i1 [512, 128] scale=0.0014136754 zero_point=0
000000 c4 01 e1 2a fb eb e9 e2 00 de 08 0c 30 ce 0d fc
       -0.084820524 0.0014136754 -0.043823935 0.059374366 -0.007068377 -0.029687183 -0.032514535 -0.042410262 0.0 -0.048064962 0.011309403 0.016964104 0.067856416 -0.07068377 0.018377779 -0.0056547015
000010 3b db f3 07 e5 40 3b de fc f9 05 1a 16 17 e8 1f
       0.08340685 -0.05230599 -0.018377779 0.009895728 -0.038169235 0.090475224 0.08340685 -0.048064962 -0.0056547015 -0.009895728 0.007068377 0.036755558 0.031100858 0.032514535 -0.033928208 0.043823935
000020 d5 11 dd 21 e0 01 e9 14 0b 10 da 1c 02 12 cc f5
       -0.060788043 0.024032481 -0.04947864 0.04665129 -0.045237612 0.0014136754 -0.032514535 0.028273508 0.015550429 0.022618806 -0.053719666 0.039582912 0.0028273507 0.025446156 -0.073511116 -0.015550429
000030 0d e5 f1 1e e2 fd 15 1e cd 0b db 0d 2f fe 15 fe
       0.018377779 -0.038169235 -0.021205131 0.042410262 -0.042410262 -0.004241026 0.029687183 0.042410262 -0.07209744 0.015550429 -0.05230599 0.018377779 0.06644274 -0.0028273507 0.029687183 -0.0028273507
000040 41 f2 29 e5 1d 00 0c 2c 2e 04 ec e5 bf 3a 33 e4
       0.0918889 -0.019791456 0.05796069 -0.038169235 0.040996585 0.0 0.016964104 0.062201716 0.06502907 0.0056547015 -0.028273508 -0.038169235 -0.0918889 0.08199317 0.07209744 -0.039582912
000050 0a f7 0b 1e 2d 0d f7 f8 e3 24 ed ea ca 2f fa f8
       0.014136754 -0.012723078 0.015550429 0.042410262 0.06361539 0.018377779 -0.012723078 -0.011309403 -0.040996585 0.050892312 -0.026859833 -0.031100858 -0.07633847 0.06644274 -0.008482052 -0.011309403
000060 e5 0f 09 dc e0 02 d7 fd 4c fd f3 04 b6 fd f0 15
       -0.038169235 0.021205131 0.012723078 -0.050892312 -0.045237612 0.0028273507 -0.05796069 -0.004241026 0.10743933 -0.004241026 -0.018377779 0.0056547015 -0.10461198 -0.004241026 -0.022618806 0.029687183
000070 10 30 bc cb ce 00 d8 d2 11 29 27 e5 cf 1e ee 1a
       0.022618806 0.067856416 -0.096129924 -0.0749248 -0.07068377 0.0 -0.056547016 -0.06502907 0.024032481 0.05796069 0.05513334 -0.038169235 -0.0692701 0.042410262 -0.025446156 0.036755558
000080 e8 f2 fc b5 de f6 05 3d 07 18 de dc 02 03 f8 22
       -0.033928208 -0.019791456 -0.0056547015 -0.10602565 -0.048064962 -0.014136754 0.007068377 0.0862342 0.009895728 0.033928208 -0.048064962 -0.050892312 0.0028273507 0.004241026 -0.011309403 0.048064962
000090 d0 ed fe 15 28 ef 01 00 00 f7 eb 29 06 24 f9 e9
       -0.067856416 -0.026859833 -0.0028273507 0.029687183 0.056547016 -0.024032481 0.0014136754 0.0 0.0 -0.012723078 -0.029687183 0.05796069 0.008482052 0.050892312 -0.009895728 -0.032514535
0000a0 22 e4 d0 11 c2 f9 20 dd fe e1 e4 f7 34 09 0b 2f
       0.048064962 -0.039582912 -0.067856416 0.024032481 -0.08764787 -0.009895728 0.045237612 -0.04947864 -0.0028273507 -0.043823935 -0.039582912 -0.012723078 0.073511116 0.012723078 0.015550429 0.06644274
0000b0 c5 d9 20 fa 39 fe e5 06 18 10 b7 3e b9 20 e2 10
       -0.08340685 -0.05513334 0.045237612 -0.008482052 0.0805795 -0.0028273507 -0.038169235 0.008482052 0.033928208 0.022618806 -0.103198305 0.08764787 -0.10037095 0.045237612 -0.042410262 0.022618806
0000c0 29 f0 12 24 1b 09 1b 38 f9 ee 07 fe fd b9 1a 08
       0.05796069 -0.022618806 0.025446156 0.050892312 0.038169235 0.012723078 0.038169235 0.079165824 -0.009895728 -0.025446156 0.009895728 -0.0028273507 -0.004241026 -0.10037095 0.036755558 0.011309403
0000d0 1b 12 17 dc f8 0f 05 da f0 04 17 db 0a ec 15 39
       0.038169235 0.025446156 0.032514535 -0.050892312 -0.011309403 0.021205131 0.007068377 -0.053719666 -0.022618806 0.0056547015 0.032514535 -0.05230599 0.014136754 -0.028273508 0.029687183 0.0805795
0000e0 d6 0a 2b f3 05 18 ed 35 0d ed e8 02 09 cc 00 fa
       -0.059374366 0.014136754 0.060788043 -0.018377779 0.007068377 0.033928208 -0.026859833 0.0749248 0.018377779 -0.026859833 -0.033928208 0.0028273507 0.012723078 -0.073511116 0.0 -0.008482052
0000f0 f8 f6 db e2 0b f1 cd 12 25 0e 43 dc fd db 12 09
       -0.011309403 -0.014136754 -0.05230599 -0.042410262 0.015550429 -0.021205131 -0.07209744 0.025446156 0.05230599 0.019791456 0.09471625 -0.050892312 -0.004241026 -0.05230599 0.025446156 0.012723078

while/MatMul i1 [512, 42] scale=0.02502235 zero_point=0
000000 f3 04 f1 0a ee 0c f4 0b f5 10 f4 1a f2 2b f2 35
       -0.32529056 0.1000894 -0.37533525 0.25022352 -0.45040232 0.3002682 -0.3002682 0.27524585 -0.27524585 0.4003576 -0.3002682 0.6505811 -0.3503129 1.0759611 -0.3503129 1.3261845
000010 f2 39 fd 20 f4 2c f6 2b f3 29 f5 1d f8 28 f3 1f
       -0.3503129 1.426274 -0.07506705 0.8007152 -0.3002682 1.1009834 -0.25022352 1.0759611 -0.32529056 1.0259163 -0.27524585 0.72564816 -0.2001788 1.0008941 -0.32529056 0.7756929
000020 f0 17 fc 1a ef 20 f1 1f ea 16 01 fb f2 07 ee 09
       -0.4003576 0.5755141 -0.1000894 0.6505811 -0.42537996 0.8007152 -0.37533525 0.7756929 -0.5504917 0.5504917 0.02502235 -0.12511176 -0.3503129 0.17515644 -0.45040232 0.22520116
000030 ea 0a e5 08 02 07 02 fd 04 00 03 03 0e 01 1b f7
       -0.5504917 0.25022352 -0.67560345 0.2001788 0.0500447 0.17515644 0.0500447 -0.07506705 0.1000894 0.0 0.07506705 0.07506705 0.3503129 0.02502235 0.67560345 -0.22520116
000040 1c fa 1a 01 21 fa 25 f3 14 f9 10 fc 28 f4 2e f5
       0.7006258 -0.1501341 0.6505811 0.02502235 0.82573754 -0.1501341 0.92582697 -0.32529056 0.50044703 -0.17515644 0.4003576 -0.1000894 1.0008941 -0.3002682 1.1510282 -0.27524585
000050 25 eb 23 e7 04 fd 08 fd 0a 04 0a 03 0e 05 0c 02
       0.92582697 -0.52546936 0.87578225 -0.62555873 0.1000894 -0.07506705 0.2001788 -0.07506705 0.25022352 0.1000894 0.25022352 0.07506705 0.3503129 0.12511176 0.3002682 0.0500447
000060 03 fd 02 03 fd 04 0c ff 00 02 00 05 04 0e 06 fe
       0.07506705 -0.07506705 0.0500447 0.07506705 -0.07506705 0.1000894 0.3002682 -0.02502235 0.0 0.0500447 0.0 0.12511176 0.1000894 0.3503129 0.1501341 -0.0500447
000070 fd 00 fa 05 f6 0a 08 07 fe 0a fd 08 fd 0c f9 2c
       -0.07506705 0.0 -0.1501341 0.12511176 -0.25022352 0.25022352 0.2001788 0.17515644 -0.0500447 0.25022352 -0.07506705 0.2001788 -0.07506705 0.3002682 -0.17515644 1.1009834
000080 01 28 fe 20 ff 19 ff 14 00 20 08 10 02 0f 00 0e
       0.02502235 1.0008941 -0.0500447 0.8007152 -0.02502235 0.62555873 -0.02502235 0.50044703 0.0 0.8007152 0.2001788 0.4003576 0.0500447 0.37533525 0.0 0.3503129
000090 fc 21 05 0e fc 05 ff 07 00 23 04 0c 05 08 01 09
       -0.1000894 0.82573754 0.12511176 0.3503129 -0.1000894 0.12511176 -0.02502235 0.17515644 0.0 0.87578225 0.1000894 0.3002682 0.12511176 0.2001788 0.02502235 0.22520116
0000a0 fe 25 02 11 04 0a 03 06 d5 17 e2 1b e8 16 f9 09
       -0.0500447 0.92582697 0.0500447 0.42537996 0.1000894 0.25022352 0.07506705 0.1501341 -1.0759611 0.5755141 -0.7506705 0.67560345 -0.6005364 0.5504917 -0.17515644 0.22520116
0000b0 00 04 f6 0b 09 00 1c 05 2a fc fc 00 01 05 16 12
       0.0 0.1000894 -0.25022352 0.27524585 0.22520116 0.0 0.7006258 0.12511176 1.0509387 -0.1000894 -0.1000894 0.0 0.02502235 0.12511176 0.5504917 0.45040232
0000c0 2a 1d fd fe f7 f8 fe f9 08 ff fc f6 fa fc 04 01
       1.0509387 0.72564816 -0.07506705 -0.0500447 -0.22520116 -0.2001788 -0.0500447 -0.17515644 0.2001788 -0.02502235 -0.1000894 -0.25022352 -0.1501341 -0.1000894 0.1000894 0.02502235
0000d0 09 03 ec fa f4 f4 f9 fc fb fd 03 fe 08 05 15 05
       0.22520116 0.07506705 -0.50044703 -0.1501341 -0.3002682 -0.3002682 -0.17515644 -0.1000894 -0.12511176 -0.07506705 0.07506705 -0.0500447 0.2001788 0.12511176 0.52546936 0.12511176
0000e0 18 0a 1e 16 ff 03 09 04 05 16 11 2a ff ff 07 f2
       0.6005364 0.25022352 0.7506705 0.5504917 -0.02502235 0.07506705 0.22520116 0.1000894 0.12511176 0.5504917 0.42537996 1.0509387 -0.02502235 -0.02502235 0.17515644 -0.3503129
0000f0 ff 03 03 0c f6 fd 01 f7 02 07 06 18 20 e8 2c dd
       -0.02502235 0.07506705 0.07506705 0.3002682 -0.25022352 -0.07506705 0.02502235 -0.22520116 0.0500447 0.17515644 0.1501341 0.6005364 0.8007152 -0.6005364 1.1009834 -0.87578225
