model/keypoint_classifier/keypoint_classifier.tflite (tflite, 113752 bytes, 8 tensors)

sequential/lstm/Read_2/ReadVariableOp f4 [512]
0	0x3b6bcf20	0.003598161
1	0xbb29534e	-0.0025837007
2	0x3c44c250	0.012009218
3	0x3bf77feb	0.007553091
4	0xbbf7f98f	-0.0075675915
5	0x3d2184d4	0.039433315
6	0xbc7aba6d	-0.015303236
7	0x3d2548ab	0.040352505
8	0x3d8787c6	0.066176936
9	0x3c582f49	0.013194867
10	0x3db29dc1	0.087214954
11	0xbcd8e297	-0.026475234
12	0x3c26e9f0	0.010187611
13	0x3b53c040	0.0032310635
14	0x3cf02495	0.029314319
15	0xba2ccfa7	-0.0006592222
16	0x3d320efd	0.043471325
17	0x3d1ac1d4	0.037782505
18	0x3c47ca61	0.012194247
19	0x3d37e0e0	0.044892192
20	0x3c8f96b6	0.01752792
21	0x3d843664	0.06455687
22	0x3d026f81	0.03184462
23	0x3cc9e73b	0.024646392
24	0xbc8e80a2	-0.017395321
25	0x3cd57641	0.026057364
26	0x3d4adfe5	0.04952993
27	0xbc10bb70	-0.008833751
28	0x3cbc5843	0.022991305
29	0x3c699d31	0.014258669
30	0xbd17b09f	-0.037033673
31	0x3c103897	0.008802555
32	0xbab95c22	-0.0014141838
33	0xbc97d4d3	-0.0185341
34	0x3da1ac79	0.07894225
35	0x3c0dd4c3	0.008656683
36	0x3c0bc2a8	0.008530296
37	0x3c335e6c	0.010947805
38	0x3d0dc2c9	0.03460959
39	0x3cbcea75	0.023061017
40	0x3c482ec2	0.012218179
41	0x3ceb2909	0.02870609
42	0x3d064da6	0.032788895
43	0x3ca40c98	0.020025536
44	0x3d51e609	0.05124477
45	0x3d0d4f8b	0.034499686
46	0x3d39e37f	0.045382973
47	0x3c1a1021	0.0094032595
48	0x3d021477	0.031757798
49	0x3be70b35	0.0070508965
50	0x3d02c857	0.03192934
51	0xbc55bc74	-0.013045419
52	0x3d82a583	0.06379225
53	0xbcac120b	-0.021004697
54	0x3d39525a	0.045244552
55	0x3ca18814	0.019718207
56	0xbb422ae7	-0.0029627623
57	0x3cd2e2b6	0.02574287
58	0x3d16aad7	0.03678402
59	0x3d0b923c	0.034075007
60	0x3c08c760	0.008348316
61	0x3d06117a	0.03273151
62	0xbbf8e728	-0.0075959153
63	0x3c43abfd	0.011942861
64	0x3c641edf	0.013923376
65	0x3c796c27	0.015223539
66	0xba4594c9	-0.00075371243
67	0xbccbf48f	-0.024896888
68	0x3b98c6f8	0.004662391
69	0x3c2b988f	0.0104733845
70	0x3afee1d1	0.0019445961
71	0x3d11d449	0.03560284
72	0xbc379874	-0.011205781
73	0xb9b8705b	-0.00035178926
74	0xbc548ebc	-0.012973484
75	0xbcfa337e	-0.030542132
76	0x3c579e51	0.013160304
77	0xbc81e2fb	-0.015855303
78	0x3b063527	0.0020478459
79	0xba01338d	-0.0004928641
80	0xbc17645d	-0.009240237
81	0x3c7f9727	0.015600002
82	0x3db92bb9	0.090415426
83	0x39a97819	0.00032323672
84	0xbc1321ce	-0.008980228
85	0xbce4d6c0	-0.027934432
86	0xba4b8720	-0.00077639706
87	0xbbcc971d	-0.0062436
88	0x3ca7eca5	0.020498583
89	0xbbc6c2be	-0.0060656955
90	0xbba42429	-0.0050091934
91	0x3c1f1e3c	0.009711798
92	0x3d08ed8c	0.033429667
93	0xbc2bf866	-0.0104962345
94	0x3d6eff91	0.058349196
95	0x3d265c18	0.04061517
96	0xbc5da4f6	-0.013528099
97	0xbd0b78be	-0.034050696
98	0xbd0959c3	-0.03353287
99	0x3b27992c	0.0025573475
100	0xbc5241dd	-0.012833086
101	0x3d8a3ae1	0.067495115
102	0x3cf2e0fa	0.029648293
103	0x3ce3e893	0.027820861
104	0x3cf3cba9	0.029760199
105	0x3c5762d9	0.013146126
106	0x3ca6443f	0.020296214
107	0x3c914b64	0.017736144
108	0x3c220eb3	0.0098912
109	0x3c079112	0.008274334
110	0xbb41ea0a	-0.002958896
111	0x3d7e692b	0.062112015
112	0xbccc8fc2	-0.024970893
113	0x3bd497a0	0.0064878017
114	0x3d1b7b2e	0.03795927
115	0x3d47263e	0.048620455
116	0xbccf4e26	-0.025305819
117	0x3d47c86a	0.048775114
118	0x3cb526ae	0.02211317
119	0x3c800980	0.01562953
120	0xbbc0ed04	-0.0058876295
121	0x3c8dd572	0.017313693
122	0x3c1d679f	0.009607225
123	0x3b5b2cfa	0.0033443556
124	0x3c17ac21	0.009257347
125	0xb9ea3b95	-0.0004467635
126	0x3a93d211	0.0011277815
127	0x3c77cce4	0.015124533
128	0x3f7c49dc	0.985502
129	0x3f831f07	1.0243844
130	0x3f8b63eb	1.0889868
131	0x3f7cfd37	0.98823875
132	0x3f875561	1.057293
133	0x3f7a2b0a	0.9772192
134	0x3f812e29	1.0092212
135	0x3f87c4f8	1.0606985
136	0x3f81c608	1.0138559
137	0x3f83e3bb	1.0303873
138	0x3f85abb8	1.0443029
139	0x3f82b5e3	1.0211757
140	0x3f825e6e	1.0185068
141	0x3f7cbe01	0.9872742
142	0x3f76cc4b	0.96405476
143	0x3f7d96d0	0.99058247
144	0x3f810dd8	1.008235
145	0x3f78f59e	0.9724978
146	0x3f8476e1	1.0348779
147	0x3f7fdd7a	0.9994732
148	0x3f8123e4	1.0089078
149	0x3f8136d1	1.0094854
150	0x3f7a8287	0.9785542
151	0x3f82b888	1.0212564
152	0x3f84fcb7	1.0389622
153	0x3f83c659	1.0294906
154	0x3f818cfd	1.0121151
155	0x3f7b8dcb	0.98263234
156	0x3f86ea28	1.0540209
157	0x3f81cef2	1.014128
158	0x3f7e44f2	0.9932395
159	0x3f82b5b5	1.0211703
160	0x3f7f813e	0.9980658
161	0x3f82e28c	1.0225387
162	0x3f81f429	1.0152637
163	0x3f795054	0.97388196
164	0x3f80cbea	1.006223
165	0x3f80f978	1.0076132
166	0x3f82f101	1.0229799
167	0x3f7f6dd7	0.9977698
168	0x3f80bc0d	1.0057389
169	0x3f85a74e	1.0441682
170	0x3f813e20	1.0097084
171	0x3f7b79c6	0.98232687
172	0x3f84e7dc	1.0383258
173	0x3f88f59a	1.0699952
174	0x3f8429d0	1.032526
175	0x3f86861d	1.0509678
176	0x3f86c339	1.0528327
177	0x3f837624	1.0270429
178	0x3f82651d	1.0187107
179	0x3f7fb65d	0.9988764
180	0x3f84b475	1.0367571
181	0x3f7ccc57	0.987493
182	0x3f821519	1.0162688
183	0x3f7b839a	0.98247683
184	0x3f82b856	1.0212505
185	0x3f84acc5	1.0365225
186	0x3f862dd6	1.0482738
187	0x3f81012c	1.0078483
188	0x3f807d7a	1.0038292
189	0x3f8a6e7e	1.081497
190	0x3f856ee2	1.0424464
191	0x3f81f887	1.015397
192	0x3f847fcb	1.0351499
193	0x3f7d2ed9	0.9889961
194	0x3f812a01	1.0090944
195	0x3f83246a	1.0245488
196	0x3f84df39	1.0380622
197	0x3f839b7e	1.0281827
198	0x3f837616	1.0270412
199	0x3f8ae4dd	1.0851094
200	0x3f7e4ebc	0.9933889
201	0x3f80fcd7	1.0077161
202	0x3f81debd	1.0146099
203	0x3f7c9ef1	0.98680025
204	0x3f835961	1.0261651
205	0x3f7ff586	0.99984014
206	0x3f84eda3	1.0385021
207	0x3f82797b	1.0193323
208	0x3f80f891	1.0075856
209	0x3f81daed	1.0144936
210	0x3f80d384	1.006455
211	0x3f7f824c	0.9980819
212	0x3f825fb7	1.018546
213	0x3f8307c3	1.0236744
214	0x3f7c4a4d	0.98550874
215	0x3f84807a	1.0351708
216	0x3f81df9d	1.0146366
217	0x3f804639	1.002143
218	0x3f81de25	1.0145918
219	0x3f829f89	1.0204936
220	0x3f7f0a6f	0.99625295
221	0x3f7ef2d5	0.9958928
222	0x3f843c8f	1.0330981
223	0x3f7ba266	0.98294675
224	0x3f7dd654	0.99155164
225	0x3f84f983	1.0388645
226	0x3f82819e	1.0195806
227	0x3f82dd2b	1.0223745
228	0x3f7d62fa	0.9897915
229	0x3f85d5d2	1.0455878
230	0x3f857518	1.0426359
231	0x3f7ea131	0.9946471
232	0x3f84226e	1.0323007
233	0x3f83f919	1.0310394
234	0x3f82fd94	1.0233636
235	0x3f7555ad	0.95833856
236	0x3f8153dd	1.0103718
237	0x3f88ac1a	1.0677521
238	0x3f7d749d	0.9900606
239	0x3f80d6b4	1.0065522
240	0x3f87af31	1.0600339
241	0x3f8398d3	1.0281013
242	0x3f7fbab1	0.99894243
243	0x3f7b3ad8	0.98136663
244	0x3f8145d7	1.0099438
245	0x3f863732	1.0485594
246	0x3f81306c	1.0092902
247	0x3f81e9b5	1.0149447
248	0x3f7d551f	0.9895801
249	0x3f82b7c0	1.0212326
250	0x3f821bd4	1.0164742
251	0x3f7b7ca8	0.98237085
252	0x3f7f6def	0.9977712
253	0x3f868e7d	1.0512234
254	0x3f836417	1.026492
255	0x3f871b94	1.0555291

sequential/dense/BiasAdd/ReadVariableOp f4 [64]
0	0x3de65f96	0.112487
1	0x3cce1675	0.025157193
2	0x3d9475a5	0.072490014
3	0x3cafc674	0.021456935
4	0x3d8a82aa	0.067632034
5	0x3daee395	0.085395016
6	0x3d19c962	0.03754557
7	0x3dcb91ee	0.09939943
8	0x3dba4b91	0.090964444
9	0x3d3a9d74	0.045560315
10	0x3d838ee0	0.064237356
11	0x3e062ebb	0.13103764
12	0x3d0ea90b	0.03482918
13	0x3d7a5081	0.06111193
14	0x3da4903a	0.080353215
15	0x3dd4e207	0.10394674
16	0x3dd58bdc	0.10427067
17	0x3d6fce7a	0.05854652
18	0x3d4e7b03	0.050410282
19	0x3df33470	0.11875236
20	0x3ddfc5fd	0.10926435
21	0x3d92b4cf	0.07163393
22	0x3d12b03d	0.035812605
23	0x3dd7c616	0.10535829
24	0x3d84777e	0.06468104
25	0x3da978c4	0.08274987
26	0x3dc50fc5	0.096221484
27	0x3dadfc17	0.08495348
28	0x39e55221	0.00043739474
29	0x3dc87a4a	0.0978895
30	0x3d906651	0.07050765
31	0x3d18c523	0.03729738
32	0x3d3b8a99	0.045786474
33	0x3d955a87	0.07292657
34	0x3db02055	0.08599917
35	0x3e3c40a6	0.18384036
36	0x3db0799a	0.08616944
37	0x3d547a2f	0.051874336
38	0x3d041226	0.03224387
39	0x3df43441	0.11924029
40	0x3d00c225	0.03143515
41	0x3da9427b	0.08264633
42	0x3d4ec1c3	0.050477754
43	0x3b2ca67e	0.0026344354
44	0x3dc19bfb	0.09453579
45	0x3d80280a	0.06257637
46	0x3c530673	0.012879956
47	0x3d6ed6b2	0.05831022
48	0x3dde54b7	0.10856002
49	0x3dafd455	0.08585421
50	0x3d91be90	0.07116425
51	0x3dfeefe8	0.12448102
52	0x3d690a3c	0.056894526
53	0x3dc42c9b	0.0957882
54	0x3dca53ec	0.09879288
55	0x3dd45cd7	0.1036927
56	0x3d54d4ef	0.05196088
57	0x3de13298	0.10995978
58	0x3d1c2670	0.038122594
59	0x3cfc9f85	0.030837784
60	0x3d8e9281	0.06961537
61	0x3dbfff4d	0.09374867
62	0x3e02b710	0.12765145
63	0x3c6bd40a	0.014393816

sequential/dense_1/BiasAdd/ReadVariableOp f4 [76]
0	0xbd72a54d	-0.059239674
1	0xbc83d0b9	-0.016090738
2	0xbd2ca337	-0.04214784
3	0xbc1c9640	-0.009557307
4	0x3cfa5a49	0.03056063
5	0xbd2916e2	-0.04128159
6	0x3d468427	0.048465874
7	0x3d6f31a0	0.058396935
8	0x3c05cc88	0.00816644
9	0xbd4c39f4	-0.049859956
10	0x3c4ccaee	0.012499554
11	0x3d3a6bfa	0.04551313
12	0xbd9b0320	-0.075689554
13	0xbc5c146c	-0.013432603
14	0x3c816578	0.015795454
15	0x3ad3f966	0.0016172349
16	0xbc649d4e	-0.01395352
17	0xbcdf48a5	-0.02725632
18	0xbd252241	-0.04031587
19	0x3d185794	0.037192896
20	0x3d060b3c	0.032725558
21	0xb9806a94	-0.0002449347
22	0xbca352b2	-0.019936893
23	0xbcdcaeb1	-0.026938768
24	0xbd29aa61	-0.04142225
25	0x3d3cbb06	0.046076797
26	0x3ca2acb2	0.019857738
27	0x3d2c7b6a	0.042109884
28	0x3d04c6e4	0.03241624
29	0xbcdb9053	-0.026802218
30	0x3c844320	0.016145289
31	0x3d1d0551	0.03833515
32	0x3ca2117a	0.019783724
33	0xbd88b87f	-0.06675815
34	0xbce82485	-0.028337726
35	0xbd136699	-0.035986517
36	0xbbcdffbb	-0.006286589
37	0x3d608836	0.0548174
38	0xbc6b5667	-0.014363862
39	0xbd8b861a	-0.06812687
40	0xbdb2f540	-0.08738184
41	0xbd1f0c82	-0.038830288
42	0x3aa17687	0.0012318649
43	0xbd9214ca	-0.071328714
44	0xbd7bd2d3	-0.061480355
45	0xbcfc4e4f	-0.03079906
46	0xbd0f2257	-0.03494486
47	0x3c349747	0.011022395
48	0x3bb2c714	0.005455861
49	0xbb560028	-0.0032653902
50	0xbaa29161	-0.0012402945
51	0xbc63bd1b	-0.013900067
52	0x3bdd7352	0.006758132
53	0x3c259fa4	0.010108862
54	0xbd3dcdc6	-0.04633882
55	0xbcc82fde	-0.024436887
56	0xbd2c433a	-0.0420563
57	0xbd798c19	-0.060924623
58	0xbc83179e	-0.016002472
59	0xbd18cf2f	-0.03730696
60	0xbbbff6f3	-0.005858296
61	0xbc429ffa	-0.011878962
62	0x3c81cec1	0.015845658
63	0x3c3c8203	0.011505607
64	0xbb85aa8f	-0.00407917
65	0xbc43837b	-0.011933203
66	0xbb91fc21	-0.004455105
67	0x3d6f0b57	0.058360424
68	0x3d31d979	0.04342029
69	0xbcb8e1c2	-0.022568587
70	0x3d16819b	0.036744695
71	0xbc52fab9	-0.01287716
72	0xbd1780a4	-0.036987916
73	0x3d3d6568	0.046239287
74	0x3d116aa4	0.03550209
75	0xbd5503c4	-0.052005544

sequential/dense/MatMul i1 [64, 128] scale=0.0053964644 zero_point=0
0	0xed	-0.10253283
1	0xc5	-0.3183914
2	0x57	0.4694924
3	0xfa	-0.032378785
4	0xfa	-0.032378785
5	0x01	0.0053964644
6	0xf1	-0.08094697
7	0x1d	0.15649746
8	0x13	0.10253283
9	0xfe	-0.010792929
10	0x20	0.17268686
11	0xee	-0.097136356
12	0xf1	-0.08094697
13	0xf5	-0.059361108
14	0x10	0.08634343
15	0xcd	-0.27521968
16	0x12	0.097136356
17	0x08	0.043171715
18	0x01	0.0053964644
19	0x15	0.11332575
20	0xf3	-0.07015403
21	0xf6	-0.053964645
22	0xe0	-0.17268686
23	0xce	-0.26982322
24	0x13	0.10253283
25	0xd1	-0.25363383
26	0x17	0.12411868
27	0xfe	-0.010792929
28	0xe7	-0.13491161
29	0x0c	0.06475757
30	0x14	0.10792929
31	0x07	0.037775252
32	0x0b	0.059361108
33	0x21	0.17808333
34	0xe5	-0.14570454
35	0xf7	-0.048568178
36	0x11	0.09173989
37	0xec	-0.10792929
38	0x0a	0.053964645
39	0xf7	-0.048568178
40	0x33	0.27521968
41	0x2c	0.23744443
42	0x27	0.21046211
43	0x1b	0.14570454
44	0x27	0.21046211
45	0xcc	-0.28061613
46	0x2d	0.2428409
47	0xdb	-0.19966918
48	0xff	-0.0053964644
49	0xec	-0.10792929
50	0xbd	-0.36156312
51	0xc8	-0.30220202
52	0x20	0.17268686
53	0xff	-0.0053964644
54	0xe6	-0.14030807
55	0x1c	0.15110101
56	0xea	-0.118722215
57	0xe5	-0.14570454
58	0x15	0.11332575
59	0x20	0.17268686
60	0xf9	-0.037775252
61	0xef	-0.09173989
62	0xeb	-0.11332575
63	0x03	0.016189393
64	0x1e	0.16189393
65	0x20	0.17268686
66	0x3c	0.32378787
67	0xe2	-0.16189393
68	0xfb	-0.026982322
69	0xff	-0.0053964644
70	0x0c	0.06475757
71	0x16	0.118722215
72	0xe8	-0.12951514
73	0xea	-0.118722215
74	0xd7	-0.22125503
75	0x1a	0.14030807
76	0x1b	0.14570454
77	0xe9	-0.12411868
78	0x3b	0.3183914
79	0x2e	0.24823736
80	0xd3	-0.2428409
81	0xd5	-0.23204798
82	0x17	0.12411868
83	0xe0	-0.17268686
84	0x0b	0.059361108
85	0xf7	-0.048568178
86	0x1c	0.15110101
87	0xf2	-0.075550504
88	0xeb	-0.11332575
89	0x01	0.0053964644
90	0x25	0.19966918
91	0xc0	-0.34537372
92	0x09	0.048568178
93	0xd0	-0.25903028
94	0x1b	0.14570454
95	0xbe	-0.35616666
96	0xe4	-0.15110101
97	0x0f	0.08094697
98	0x01	0.0053964644
99	0xd0	-0.25903028
100	0xcc	-0.28061613
101	0xe5	-0.14570454
102	0x0a	0.053964645
103	0x06	0.032378785
104	0xcb	-0.28601262
105	0xf4	-0.06475757
106	0x19	0.13491161
107	0xf9	-0.037775252
108	0xdd	-0.18887626
109	0x17	0.12411868
110	0x17	0.12411868
111	0x10	0.08634343
112	0x09	0.048568178
113	0x16	0.118722215
114	0xea	-0.118722215
115	0xf6	-0.053964645
116	0xfb	-0.026982322
117	0x17	0.12411868
118	0x23	0.18887626
119	0xc3	-0.32918432
120	0x1d	0.15649746
121	0xfd	-0.016189393
122	0xf3	-0.07015403
123	0xeb	-0.11332575
124	0x32	0.26982322
125	0x25	0.19966918
126	0x2e	0.24823736
127	0x29	0.22125503
128	0x12	0.097136356
129	0x32	0.26982322
130	0xc5	-0.3183914
131	0xf7	-0.048568178
132	0x07	0.037775252
133	0xfc	-0.021585857
134	0x23	0.18887626
135	0xfa	-0.032378785
136	0xf5	-0.059361108
137	0xfd	-0.016189393
138	0xfe	-0.010792929
139	0x14	0.10792929
140	0xe4	-0.15110101
141	0x40	0.34537372
142	0xcd	-0.27521968
143	0x00	0.0
144	0x0c	0.06475757
145	0x20	0.17268686
146	0x09	0.048568178
147	0x03	0.016189393
148	0x01	0.0053964644
149	0x24	0.19427271
150	0x09	0.048568178
151	0x24	0.19427271
152	0x0a	0.053964645
153	0x3e	0.33458078
154	0x06	0.032378785
155	0xdd	-0.18887626
156	0x0f	0.08094697
157	0xd8	-0.21585858
158	0xec	-0.10792929
159	0x2f	0.25363383
160	0x01	0.0053964644
161	0xf5	-0.059361108
162	0x0a	0.053964645
163	0xf0	-0.08634343
164	0x12	0.097136356
165	0xfb	-0.026982322
166	0xfb	-0.026982322
167	0x20	0.17268686
168	0x07	0.037775252
169	0x2f	0.25363383
170	0xc7	-0.30759847
171	0x0b	0.059361108
172	0xe7	-0.13491161
173	0xcd	-0.27521968
174	0x08	0.043171715
175	0xdc	-0.19427271
176	0xfd	-0.016189393
177	0x03	0.016189393
178	0x08	0.043171715
179	0xe7	-0.13491161
180	0xfe	-0.010792929
181	0xe8	-0.12951514
182	0x19	0.13491161
183	0xe9	-0.12411868
184	0x22	0.18347979
185	0x25	0.19966918
186	0x33	0.27521968
187	0x0e	0.075550504
188	0x0b	0.059361108
189	0xbd	-0.36156312
190	0x15	0.11332575
191	0x08	0.043171715
192	0xdb	-0.19966918
193	0xd8	-0.21585858
194	0xdf	-0.17808333
195	0x19	0.13491161
196	0xfc	-0.021585857
197	0xf8	-0.043171715
198	0x08	0.043171715
199	0xe7	-0.13491161
200	0xeb	-0.11332575
201	0xca	-0.29140908
202	0xed	-0.10253283
203	0xef	-0.09173989
204	0x14	0.10792929
205	0x0d	0.07015403
206	0xe7	-0.13491161
207	0xf6	-0.053964645
208	0x00	0.0
209	0x17	0.12411868
210	0x15	0.11332575
211	0x2c	0.23744443
212	0xe0	-0.17268686
213	0xf4	-0.06475757
214	0xf6	-0.053964645
215	0x13	0.10253283
216	0x01	0.0053964644
217	0xed	-0.10253283
218	0xd2	-0.24823736
219	0xe2	-0.16189393
220	0x08	0.043171715
221	0xe9	-0.12411868
222	0x0f	0.08094697
223	0xe5	-0.14570454
224	0x15	0.11332575
225	0x4b	0.40473482
226	0x1a	0.14030807
227	0xe7	-0.13491161
228	0xf4	-0.06475757
229	0x17	0.12411868
230	0x2f	0.25363383
231	0x1d	0.15649746
232	0xf6	-0.053964645
233	0xfe	-0.010792929
234	0x16	0.118722215
235	0x25	0.19966918
236	0xe1	-0.16729039
237	0x05	0.026982322
238	0xea	-0.118722215
239	0xc7	-0.30759847
240	0x08	0.043171715
241	0xf5	-0.059361108
242	0xed	-0.10253283
243	0x43	0.36156312
244	0x06	0.032378785
245	0x12	0.097136356
246	0xfd	-0.016189393
247	0xf7	-0.048568178
248	0x0f	0.08094697
249	0x14	0.10792929
250	0x0b	0.059361108
251	0x0e	0.075550504
252	0x16	0.118722215
253	0xf6	-0.053964645
254	0x01	0.0053964644
255	0x16	0.118722215

sequential/dense_1/MatMul i1 [76, 64] scale=0.006348668 zero_point=0
0	0xbe	-0.4190121
1	0xf8	-0.050789345
2	0x03	0.019046005
3	0xf7	-0.057138015
4	0xb3	-0.48884743
5	0xdb	-0.23490073
6	0xef	-0.10792736
7	0xd8	-0.25394672
8	0x9e	-0.6221695
9	0xee	-0.11427603
10	0x24	0.22855206
11	0xca	-0.34282807
12	0x15	0.13332203
13	0xd4	-0.2793414
14	0xb3	-0.48884743
15	0xea	-0.1396707
16	0x06	0.03809201
17	0xf5	-0.06983535
18	0xea	-0.1396707
19	0xf1	-0.09523002
20	0xaf	-0.5142421
21	0xe8	-0.15236804
22	0x07	0.044440676
23	0xe2	-0.19046004
24	0xc8	-0.3555254
25	0x01	0.006348668
26	0xef	-0.10792736
27	0xfe	-0.012697336
28	0x13	0.12062469
29	0xd2	-0.29203874
30	0x0d	0.08253269
31	0x11	0.10792736
32	0x17	0.14601937
33	0x20	0.20315738
34	0xbf	-0.41266343
35	0xc5	-0.3745714
36	0xf5	-0.06983535
37	0x00	0.0
38	0x17	0.14601937
39	0xfc	-0.025394673
40	0x29	0.2602954
41	0xd5	-0.27299273
42	0x12	0.11427603
43	0xfa	-0.03809201
44	0xb1	-0.5015448
45	0xec	-0.12697336
46	0x10	0.10157869
47	0xe6	-0.16506538
48	0xae	-0.5205908
49	0x28	0.25394672
50	0xcb	-0.33647943
51	0xd4	-0.2793414
52	0x17	0.14601937
53	0x0b	0.06983535
54	0xc8	-0.3555254
55	0x0c	0.07618402
56	0xf1	-0.09523002
57	0xdb	-0.23490073
58	0xf5	-0.06983535
59	0xf5	-0.06983535
60	0x1a	0.16506538
61	0x14	0.12697336
62	0x90	-0.7110508
63	0x03	0.019046005
64	0x98	-0.6602615
65	0xf2	-0.08888135
66	0xec	-0.12697336
67	0xe7	-0.15871671
68	0xef	-0.10792736
69	0xda	-0.24124938
70	0x04	0.025394673
71	0xae	-0.5205908
72	0xf9	-0.044440676
73	0xe5	-0.17141403
74	0xcf	-0.31108475
75	0xa0	-0.60947216
76	0xd5	-0.27299273
77	0x0f	0.09523002
78	0xb7	-0.4634528
79	0xfc	-0.025394673
80	0xf3	-0.08253269
81	0x0b	0.06983535
82	0xdd	-0.22220339
83	0x18	0.15236804
84	0xf5	-0.06983535
85	0xe0	-0.20315738
86	0xf6	-0.06348668
87	0x02	0.012697336
88	0xed	-0.12062469
89	0x25	0.23490073
90	0xe5	-0.17141403
91	0xd6	-0.26664406
92	0xe6	-0.16506538
93	0x09	0.057138015
94	0xe6	-0.16506538
95	0x0c	0.07618402
96	0xd1	-0.2983874
97	0x00	0.0
98	0xe3	-0.18411137
99	0xcc	-0.33013076
100	0xd2	-0.29203874
101	0xf4	-0.07618402
102	0xee	-0.11427603
103	0x22	0.21585472
104	0xef	-0.10792736
105	0xcb	-0.33647943
106	0x02	0.012697336
107	0xc4	-0.38092008
108	0xd3	-0.28569007
109	0x10	0.10157869
110	0xf8	-0.050789345
111	0x0a	0.06348668
112	0x22	0.21585472
113	0x07	0.044440676
114	0xf0	-0.10157869
115	0xc8	-0.3555254
116	0xf1	-0.09523002
117	0xef	-0.10792736
118	0x05	0.03174334
119	0xef	-0.10792736
120	0x12	0.11427603
121	0xef	-0.10792736
122	0xe7	-0.15871671
123	0xf9	-0.044440676
124	0x15	0.13332203
125	0x08	0.050789345
126	0xc3	-0.38726875
127	0xfc	-0.025394673
128	0x23	0.22220339
129	0xf5	-0.06983535
130	0x08	0.050789345
131	0xd4	-0.2793414
132	0x17	0.14601937
133	0xcf	-0.31108475
134	0x04	0.025394673
135	0xf8	-0.050789345
136	0xec	-0.12697336
137	0xee	-0.11427603
138	0xc1	-0.3999661
139	0x0a	0.06348668
140	0x25	0.23490073
141	0x00	0.0
142	0x09	0.057138015
143	0xdc	-0.22855206
144	0xfc	-0.025394673
145	0xec	-0.12697336
146	0xfe	-0.012697336
147	0xb9	-0.45075545
148	0x1c	0.1777627
149	0xcd	-0.3237821
150	0x01	0.006348668
151	0x0a	0.06348668
152	0x2a	0.26664406
153	0xc7	-0.36187407
154	0x13	0.12062469
155	0xbc	-0.43170944
156	0xe1	-0.19680871
157	0xc6	-0.36822274
158	0x0f	0.09523002
159	0xf3	-0.08253269
160	0x01	0.006348668
161	0xbc	-0.43170944
162	0x1f	0.19680871
163	0xe3	-0.18411137
164	0xe0	-0.20315738
165	0xfc	-0.025394673
166	0xc7	-0.36187407
167	0xc6	-0.36822274
168	0xdb	-0.23490073
169	0xe1	-0.19680871
170	0x05	0.03174334
171	0x11	0.10792736
172	0x03	0.019046005
173	0xea	-0.1396707
174	0x1a	0.16506538
175	0xd9	-0.24759805
176	0xd8	-0.25394672
177	0xf3	-0.08253269
178	0x02	0.012697336
179	0x03	0.019046005
180	0x0c	0.07618402
181	0xe7	-0.15871671
182	0xe8	-0.15236804
183	0xb3	-0.48884743
184	0x0a	0.06348668
185	0xae	-0.5205908
186	0x26	0.24124938
187	0x03	0.019046005
188	0xae	-0.5205908
189	0xad	-0.52693945
190	0x98	-0.6602615
191	0x1f	0.19680871
192	0x08	0.050789345
193	0xd2	-0.29203874
194	0x26	0.24124938
195	0x27	0.24759805
196	0xfe	-0.012697336
197	0xe0	-0.20315738
198	0x28	0.25394672
199	0xc0	-0.40631476
200	0xaf	-0.5142421
201	0x01	0.006348668
202	0x09	0.057138015
203	0xdc	-0.22855206
204	0x23	0.22220339
205	0xc2	-0.39361742
206	0xb3	-0.48884743
207	0x06	0.03809201
208	0xde	-0.21585472
209	0xd9	-0.24759805
210	0xc0	-0.40631476
211	0x1a	0.16506538
212	0xbc	-0.43170944
213	0xce	-0.31743342
214	0x1c	0.1777627
215	0xf8	-0.050789345
216	0xb6	-0.46980146
217	0xf8	-0.050789345
218	0xc7	-0.36187407
219	0x0c	0.07618402
220	0xed	-0.12062469
221	0xe0	-0.20315738
222	0x2b	0.27299273
223	0xfe	-0.012697336
224	0x0e	0.08888135
225	0x05	0.03174334
226	0xa5	-0.5777288
227	0xe5	-0.17141403
228	0xe9	-0.14601937
229	0xdf	-0.20950605
230	0xfc	-0.025394673
231	0xd3	-0.28569007
232	0xf3	-0.08253269
233	0xa0	-0.60947216
234	0xeb	-0.13332203
235	0xd2	-0.29203874
236	0xfa	-0.03809201
237	0xf8	-0.050789345
238	0x21	0.20950605
239	0xd6	-0.26664406
240	0xc0	-0.40631476
241	0x09	0.057138015
242	0xe5	-0.17141403
243	0xcb	-0.33647943
244	0x2b	0.27299273
245	0xb5	-0.4761501
246	0xfb	-0.03174334
247	0x23	0.22220339
248	0xce	-0.31743342
249	0xf4	-0.07618402
250	0x11	0.10792736
251	0xfa	-0.03809201
252	0x11	0.10792736
253	0x1d	0.18411137
254	0xc8	-0.3555254
255	0x16	0.1396707

sequential/lstm/Read_2/ReadVariableOp1 f4 [512]
0	0x3b6bcf20	0.003598161
1	0xbb29534e	-0.0025837007
2	0x3c44c250	0.012009218
3	0x3bf77feb	0.007553091
4	0xbbf7f98f	-0.0075675915
5	0x3d2184d4	0.039433315
6	0xbc7aba6d	-0.015303236
7	0x3d2548ab	0.040352505
8	0x3d8787c6	0.066176936
9	0x3c582f49	0.013194867
10	0x3db29dc1	0.087214954
11	0xbcd8e297	-0.026475234
12	0x3c26e9f0	0.010187611
13	0x3b53c040	0.0032310635
14	0x3cf02495	0.029314319
15	0xba2ccfa7	-0.0006592222
16	0x3d320efd	0.043471325
17	0x3d1ac1d4	0.037782505
18	0x3c47ca61	0.012194247
19	0x3d37e0e0	0.044892192
20	0x3c8f96b6	0.01752792
21	0x3d843664	0.06455687
22	0x3d026f81	0.03184462
23	0x3cc9e73b	0.024646392
24	0xbc8e80a2	-0.017395321
25	0x3cd57641	0.026057364
26	0x3d4adfe5	0.04952993
27	0xbc10bb70	-0.008833751
28	0x3cbc5843	0.022991305
29	0x3c699d31	0.014258669
30	0xbd17b09f	-0.037033673
31	0x3c103897	0.008802555
32	0xbab95c22	-0.0014141838
33	0xbc97d4d3	-0.0185341
34	0x3da1ac79	0.07894225
35	0x3c0dd4c3	0.008656683
36	0x3c0bc2a8	0.008530296
37	0x3c335e6c	0.010947805
38	0x3d0dc2c9	0.03460959
39	0x3cbcea75	0.023061017
40	0x3c482ec2	0.012218179
41	0x3ceb2909	0.02870609
42	0x3d064da6	0.032788895
43	0x3ca40c98	0.020025536
44	0x3d51e609	0.05124477
45	0x3d0d4f8b	0.034499686
46	0x3d39e37f	0.045382973
47	0x3c1a1021	0.0094032595
48	0x3d021477	0.031757798
49	0x3be70b35	0.0070508965
50	0x3d02c857	0.03192934
51	0xbc55bc74	-0.013045419
52	0x3d82a583	0.06379225
53	0xbcac120b	-0.021004697
54	0x3d39525a	0.045244552
55	0x3ca18814	0.019718207
56	0xbb422ae7	-0.0029627623
57	0x3cd2e2b6	0.02574287
58	0x3d16aad7	0.03678402
59	0x3d0b923c	0.034075007
60	0x3c08c760	0.008348316
61	0x3d06117a	0.03273151
62	0xbbf8e728	-0.0075959153
63	0x3c43abfd	0.011942861
64	0x3c641edf	0.013923376
65	0x3c796c27	0.015223539
66	0xba4594c9	-0.00075371243
67	0xbccbf48f	-0.024896888
68	0x3b98c6f8	0.004662391
69	0x3c2b988f	0.0104733845
70	0x3afee1d1	0.0019445961
71	0x3d11d449	0.03560284
72	0xbc379874	-0.011205781
73	0xb9b8705b	-0.00035178926
74	0xbc548ebc	-0.012973484
75	0xbcfa337e	-0.030542132
76	0x3c579e51	0.013160304
77	0xbc81e2fb	-0.015855303
78	0x3b063527	0.0020478459
79	0xba01338d	-0.0004928641
80	0xbc17645d	-0.009240237
81	0x3c7f9727	0.015600002
82	0x3db92bb9	0.090415426
83	0x39a97819	0.00032323672
84	0xbc1321ce	-0.008980228
85	0xbce4d6c0	-0.027934432
86	0xba4b8720	-0.00077639706
87	0xbbcc971d	-0.0062436
88	0x3ca7eca5	0.020498583
89	0xbbc6c2be	-0.0060656955
90	0xbba42429	-0.0050091934
91	0x3c1f1e3c	0.009711798
92	0x3d08ed8c	0.033429667
93	0xbc2bf866	-0.0104962345
94	0x3d6eff91	0.058349196
95	0x3d265c18	0.04061517
96	0xbc5da4f6	-0.013528099
97	0xbd0b78be	-0.034050696
98	0xbd0959c3	-0.03353287
99	0x3b27992c	0.0025573475
100	0xbc5241dd	-0.012833086
101	0x3d8a3ae1	0.067495115
102	0x3cf2e0fa	0.029648293
103	0x3ce3e893	0.027820861
104	0x3cf3cba9	0.029760199
105	0x3c5762d9	0.013146126
106	0x3ca6443f	0.020296214
107	0x3c914b64	0.017736144
108	0x3c220eb3	0.0098912
109	0x3c079112	0.008274334
110	0xbb41ea0a	-0.002958896
111	0x3d7e692b	0.062112015
112	0xbccc8fc2	-0.024970893
113	0x3bd497a0	0.0064878017
114	0x3d1b7b2e	0.03795927
115	0x3d47263e	0.048620455
116	0xbccf4e26	-0.025305819
117	0x3d47c86a	0.048775114
118	0x3cb526ae	0.02211317
119	0x3c800980	0.01562953
120	0xbbc0ed04	-0.0058876295
121	0x3c8dd572	0.017313693
122	0x3c1d679f	0.009607225
123	0x3b5b2cfa	0.0033443556
124	0x3c17ac21	0.009257347
125	0xb9ea3b95	-0.0004467635
126	0x3a93d211	0.0011277815
127	0x3c77cce4	0.015124533
128	0x3f7c49dc	0.985502
129	0x3f831f07	1.0243844
130	0x3f8b63eb	1.0889868
131	0x3f7cfd37	0.98823875
132	0x3f875561	1.057293
133	0x3f7a2b0a	0.9772192
134	0x3f812e29	1.0092212
135	0x3f87c4f8	1.0606985
136	0x3f81c608	1.0138559
137	0x3f83e3bb	1.0303873
138	0x3f85abb8	1.0443029
139	0x3f82b5e3	1.0211757
140	0x3f825e6e	1.0185068
141	0x3f7cbe01	0.9872742
142	0x3f76cc4b	0.96405476
143	0x3f7d96d0	0.99058247
144	0x3f810dd8	1.008235
145	0x3f78f59e	0.9724978
146	0x3f8476e1	1.0348779
147	0x3f7fdd7a	0.9994732
148	0x3f8123e4	1.0089078
149	0x3f8136d1	1.0094854
150	0x3f7a8287	0.9785542
151	0x3f82b888	1.0212564
152	0x3f84fcb7	1.0389622
153	0x3f83c659	1.0294906
154	0x3f818cfd	1.0121151
155	0x3f7b8dcb	0.98263234
156	0x3f86ea28	1.0540209
157	0x3f81cef2	1.014128
158	0x3f7e44f2	0.9932395
159	0x3f82b5b5	1.0211703
160	0x3f7f813e	0.9980658
161	0x3f82e28c	1.0225387
162	0x3f81f429	1.0152637
163	0x3f795054	0.97388196
164	0x3f80cbea	1.006223
165	0x3f80f978	1.0076132
166	0x3f82f101	1.0229799
167	0x3f7f6dd7	0.9977698
168	0x3f80bc0d	1.0057389
169	0x3f85a74e	1.0441682
170	0x3f813e20	1.0097084
171	0x3f7b79c6	0.98232687
172	0x3f84e7dc	1.0383258
173	0x3f88f59a	1.0699952
174	0x3f8429d0	1.032526
175	0x3f86861d	1.0509678
176	0x3f86c339	1.0528327
177	0x3f837624	1.0270429
178	0x3f82651d	1.0187107
179	0x3f7fb65d	0.9988764
180	0x3f84b475	1.0367571
181	0x3f7ccc57	0.987493
182	0x3f821519	1.0162688
183	0x3f7b839a	0.98247683
184	0x3f82b856	1.0212505
185	0x3f84acc5	1.0365225
186	0x3f862dd6	1.0482738
187	0x3f81012c	1.0078483
188	0x3f807d7a	1.0038292
189	0x3f8a6e7e	1.081497
190	0x3f856ee2	1.0424464
191	0x3f81f887	1.015397
192	0x3f847fcb	1.0351499
193	0x3f7d2ed9	0.9889961
194	0x3f812a01	1.0090944
195	0x3f83246a	1.0245488
196	0x3f84df39	1.0380622
197	0x3f839b7e	1.0281827
198	0x3f837616	1.0270412
199	0x3f8ae4dd	1.0851094
200	0x3f7e4ebc	0.9933889
201	0x3f80fcd7	1.0077161
202	0x3f81debd	1.0146099
203	0x3f7c9ef1	0.98680025
204	0x3f835961	1.0261651
205	0x3f7ff586	0.99984014
206	0x3f84eda3	1.0385021
207	0x3f82797b	1.0193323
208	0x3f80f891	1.0075856
209	0x3f81daed	1.0144936
210	0x3f80d384	1.006455
211	0x3f7f824c	0.9980819
212	0x3f825fb7	1.018546
213	0x3f8307c3	1.0236744
214	0x3f7c4a4d	0.98550874
215	0x3f84807a	1.0351708
216	0x3f81df9d	1.0146366
217	0x3f804639	1.002143
218	0x3f81de25	1.0145918
219	0x3f829f89	1.0204936
220	0x3f7f0a6f	0.99625295
221	0x3f7ef2d5	0.9958928
222	0x3f843c8f	1.0330981
223	0x3f7ba266	0.98294675
224	0x3f7dd654	0.99155164
225	0x3f84f983	1.0388645
226	0x3f82819e	1.0195806
227	0x3f82dd2b	1.0223745
228	0x3f7d62fa	0.9897915
229	0x3f85d5d2	1.0455878
230	0x3f857518	1.0426359
231	0x3f7ea131	0.9946471
232	0x3f84226e	1.0323007
233	0x3f83f919	1.0310394
234	0x3f82fd94	1.0233636
235	0x3f7555ad	0.95833856
236	0x3f8153dd	1.0103718
237	0x3f88ac1a	1.0677521
238	0x3f7d749d	0.9900606
239	0x3f80d6b4	1.0065522
240	0x3f87af31	1.0600339
241	0x3f8398d3	1.0281013
242	0x3f7fbab1	0.99894243
243	0x3f7b3ad8	0.98136663
244	0x3f8145d7	1.0099438
245	0x3f863732	1.0485594
246	0x3f81306c	1.0092902
247	0x3f81e9b5	1.0149447
248	0x3f7d551f	0.9895801
249	0x3f82b7c0	1.0212326
250	0x3f821bd4	1.0164742
251	0x3f7b7ca8	0.98237085
252	0x3f7f6def	0.9977712
253	0x3f868e7d	1.0512234
254	0x3f836417	1.026492
255	0x3f871b94	1.0555291

while/MatMul_11 i1 [512, 128] scale=0.0041298703 zero_point=0
0	0x05	0.020649351
1	0xf2	-0.057818186
2	0xf1	-0.061948054
3	0xee	-0.07433767
4	0xdf	-0.13628572
5	0x06	0.024779223
6	0x02	0.008259741
7	0xde	-0.1404156
8	0xfd	-0.012389611
9	0xfa	-0.024779223
10	0xfe	-0.008259741
11	0x08	0.033038963
12	0x00	0.0
13	0xf4	-0.049558446
14	0x02	0.008259741
15	0xfc	-0.016519481
16	0x1d	0.11976624
17	0xf6	-0.041298702
18	0xfa	-0.024779223
19	0x18	0.09911689
20	0xee	-0.07433767
21	0x02	0.008259741
22	0xe7	-0.103246756
23	0xff	-0.0041298703
24	0x10	0.066077925
25	0xff	-0.0041298703
26	0x41	0.26844156
27	0x05	0.020649351
28	0x20	0.13215585
29	0x12	0.07433767
30	0xff	-0.0041298703
31	0x09	0.037168834
32	0x03	0.012389611
33	0xf8	-0.033038963
34	0x2b	0.17758442
35	0x04	0.016519481
36	0xfa	-0.024779223
37	0xf8	-0.033038963
38	0x03	0.012389611
39	0xea	-0.09085715
40	0x01	0.0041298703
41	0xfa	-0.024779223
42	0xee	-0.07433767
43	0xf3	-0.053688314
44	0xe2	-0.12389611
45	0xfa	-0.024779223
46	0x0d	0.053688314
47	0xfb	-0.020649351
48	0x00	0.0
49	0x05	0.020649351
50	0xf4	-0.049558446
51	0x19	0.103246756
52	0xfa	-0.024779223
53	0xf8	-0.033038963
54	0x04	0.016519481
55	0x0b	0.045428574
56	0xf3	-0.053688314
57	0x10	0.066077925
58	0x01	0.0041298703
59	0xe7	-0.103246756
60	0xf5	-0.045428574
61	0xee	-0.07433767
62	0x1a	0.10737663
63	0xf6	-0.041298702
64	0x00	0.0
65	0xfd	-0.012389611
66	0x08	0.033038963
67	0xee	-0.07433767
68	0xed	-0.07846753
69	0x03	0.012389611
70	0x00	0.0
71	0xf0	-0.066077925
72	0xec	-0.082597405
73	0x12	0.07433767
74	0xf8	-0.033038963
75	0x09	0.037168834
76	0x06	0.024779223
77	0xf0	-0.066077925
78	0x09	0.037168834
79	0x04	0.016519481
80	0xf0	-0.066077925
81	0x08	0.033038963
82	0xd0	-0.19823378
83	0xe2	-0.12389611
84	0xff	-0.0041298703
85	0x2a	0.17345455
86	0xe4	-0.11563637
87	0x14	0.082597405
88	0xfb	-0.020649351
89	0x09	0.037168834
90	0x01	0.0041298703
91	0x09	0.037168834
92	0xec	-0.082597405
93	0xf6	-0.041298702
94	0x08	0.033038963
95	0x04	0.016519481
96	0x00	0.0
97	0x14	0.082597405
98	0x1e	0.12389611
99	0x08	0.033038963
100	0x0e	0.057818186
101	0x16	0.09085715
102	0x0e	0.057818186
103	0x0a	0.041298702
104	0x20	0.13215585
105	0xfd	-0.012389611
106	0xfd	-0.012389611
107	0x0b	0.045428574
108	0xff	-0.0041298703
109	0x07	0.028909093
110	0xf5	-0.045428574
111	0x02	0.008259741
112	0xfa	-0.024779223
113	0x01	0.0041298703
114	0xfd	-0.012389611
115	0x05	0.020649351
116	0x01	0.0041298703
117	0xe0	-0.13215585
118	0xfd	-0.012389611
119	0x05	0.020649351
120	0x1b	0.1115065
121	0xea	-0.09085715
122	0x1e	0.12389611
123	0xe8	-0.09911689
124	0x0d	0.053688314
125	0xfe	-0.008259741
126	0xf9	-0.028909093
127	0xe9	-0.09498702
128	0xe6	-0.10737663
129	0x04	0.016519481
130	0xf1	-0.061948054
131	0xf3	-0.053688314
132	0xfb	-0.020649351
133	0x02	0.008259741
134	0x00	0.0
135	0xef	-0.0702078
136	0xe7	-0.103246756
137	0xfd	-0.012389611
138	0xf6	-0.041298702
139	0x06	0.024779223
140	0x0e	0.057818186
141	0x04	0.016519481
142	0xf0	-0.066077925
143	0xfb	-0.020649351
144	0x04	0.016519481
145	0x08	0.033038963
146	0xf4	-0.049558446
147	0xfc	-0.016519481
148	0x02	0.008259741
149	0xfd	-0.012389611
150	0x06	0.024779223
151	0x13	0.07846753
152	0xfd	-0.012389611
153	0xf7	-0.037168834
154	0x08	0.033038963
155	0x0b	0.045428574
156	0x04	0.016519481
157	0x16	0.09085715
158	0x04	0.016519481
159	0x1e	0.12389611
160	0xfd	-0.012389611
161	0x1a	0.10737663
162	0xf7	-0.037168834
163	0xfc	-0.016519481
164	0x0e	0.057818186
165	0x0c	0.049558446
166	0x14	0.082597405
167	0xfd	-0.012389611
168	0x06	0.024779223
169	0xfb	-0.020649351
170	0xf7	-0.037168834
171	0x0c	0.049558446
172	0xf0	-0.066077925
173	0x00	0.0
174	0xe7	-0.103246756
175	0x00	0.0
176	0xfa	-0.024779223
177	0xff	-0.0041298703
178	0x22	0.1404156
179	0xf5	-0.045428574
180	0xfc	-0.016519481
181	0x03	0.012389611
182	0xff	-0.0041298703
183	0x03	0.012389611
184	0x05	0.020649351
185	0x04	0.016519481
186	0xee	-0.07433767
187	0xf4	-0.049558446
188	0x13	0.07846753
189	0xed	-0.07846753
190	0x04	0.016519481
191	0x05	0.020649351
192	0x09	0.037168834
193	0xfc	-0.016519481
194	0xfa	-0.024779223
195	0xeb	-0.08672728
196	0xe4	-0.11563637
197	0x05	0.020649351
198	0xf6	-0.041298702
199	0xec	-0.082597405
200	0xff	-0.0041298703
201	0xf5	-0.045428574
202	0xf3	-0.053688314
203	0x0a	0.041298702
204	0xf6	-0.041298702
205	0x10	0.066077925
206	0xfa	-0.024779223
207	0xea	-0.09085715
208	0x12	0.07433767
209	0x12	0.07433767
210	0x0e	0.057818186
211	0xf9	-0.028909093
212	0xff	-0.0041298703
213	0x0d	0.053688314
214	0xe9	-0.09498702
215	0x0c	0.049558446
216	0x08	0.033038963
217	0x11	0.0702078
218	0x25	0.15280521
219	0xfe	-0.008259741
220	0x02	0.008259741
221	0xee	-0.07433767
222	0xe6	-0.10737663
223	0xf6	-0.041298702
224	0x03	0.012389611
225	0xf7	-0.037168834
226	0xed	-0.07846753
227	0xf5	-0.045428574
228	0xfc	-0.016519481
229	0xf5	-0.045428574
230	0xf9	-0.028909093
231	0x11	0.0702078
232	0xec	-0.082597405
233	0xfd	-0.012389611
234	0x01	0.0041298703
235	0x05	0.020649351
236	0xf7	-0.037168834
237	0x05	0.020649351
238	0xef	-0.0702078
239	0x01	0.0041298703
240	0xf4	-0.049558446
241	0x10	0.066077925
242	0xf1	-0.061948054
243	0xff	-0.0041298703
244	0x01	0.0041298703
245	0xfe	-0.008259741
246	0xfe	-0.008259741
247	0x07	0.028909093
248	0x11	0.0702078
249	0xfa	-0.024779223
250	0xee	-0.07433767
251	0x0d	0.053688314
252	0xdc	-0.14867534
253	0xf2	-0.057818186
254	0xef	-0.0702078
255	0xf9	-0.028909093

while/MatMul i1 [512, 40] scale=0.0023249385 zero_point=0
0	0xcb	-0.12322174
1	0x29	0.09532248
2	0xe9	-0.053473588
3	0xf9	-0.01627457
4	0xe1	-0.072073095
5	0xec	-0.04649877
6	0xf2	-0.03254914
7	0xe4	-0.06509828
8	0x2a	0.09764742
9	0x1e	0.069748156
10	0x21	0.07672297
11	0x1d	0.06742322
12	0x0c	0.027899262
13	0x10	0.037199017
14	0x2d	0.10462224
15	0x26	0.088347666
16	0x12	0.041848894
17	0x03	0.0069748154
18	0x0c	0.027899262
19	0xfd	-0.0069748154
20	0xff	-0.0023249385
21	0xe5	-0.06277334
22	0xf2	-0.03254914
23	0x14	0.04649877
24	0x30	0.111597046
25	0x0d	0.0302242
26	0xf4	-0.027899262
27	0x40	0.14879607
28	0xec	-0.04649877
29	0x21	0.07672297
30	0x0f	0.034874078
31	0x31	0.113921985
32	0xf9	-0.01627457
33	0x2b	0.09997236
34	0xfa	-0.013949631
35	0x18	0.055798523
36	0xf1	-0.034874078
37	0x1e	0.069748156
38	0x0e	0.03254914
39	0x20	0.07439803
40	0xff	-0.0023249385
41	0xd2	-0.106947176
42	0xf3	-0.0302242
43	0xf5	-0.025574325
44	0xe0	-0.07439803
45	0xe3	-0.06742322
46	0xe6	-0.0604484
47	0x27	0.090672605
48	0x2a	0.09764742
49	0x06	0.013949631
50	0x2e	0.106947176
51	0x29	0.09532248
52	0x2d	0.10462224
53	0xf8	-0.018599508
54	0x03	0.0069748154
55	0x06	0.013949631
56	0xf7	-0.020924447
57	0x2d	0.10462224
58	0xde	-0.07904791
59	0x26	0.088347666
60	0x0c	0.027899262
61	0xe3	-0.06742322
62	0xe8	-0.055798523
63	0x15	0.04882371
64	0x1c	0.06509828
65	0xd9	-0.090672605
66	0xfe	-0.004649877
67	0x1b	0.06277334
68	0xf0	-0.037199017
69	0x32	0.116246924
70	0x0e	0.03254914
71	0xec	-0.04649877
72	0xfb	-0.011624693
73	0x1d	0.06742322
74	0xd1	-0.109272115
75	0x14	0.04649877
76	0xda	-0.088347666
77	0x0a	0.023249386
78	0xdc	-0.08369779
79	0x20	0.07439803
80	0x04	0.009299754
81	0x2a	0.09764742
82	0x08	0.018599508
83	0xfe	-0.004649877
84	0x09	0.020924447
85	0xee	-0.041848894
86	0x35	0.12322174
87	0x00	0.0
88	0x0d	0.0302242
89	0x0d	0.0302242
90	0x08	0.018599508
91	0x1b	0.06277334
92	0xd5	-0.09997236
93	0x25	0.08602273
94	0x21	0.07672297
95	0x22	0.07904791
96	0xdd	-0.08137285
97	0x13	0.044173833
98	0xf1	-0.034874078
99	0x24	0.08369779
100	0x14	0.04649877
101	0xe2	-0.069748156
102	0x33	0.11857186
103	0xe8	-0.055798523
104	0x16	0.05114865
105	0xed	-0.044173833
106	0x0c	0.027899262
107	0xe9	-0.053473588
108	0xf6	-0.023249386
109	0x19	0.058123462
110	0x09	0.020924447
111	0xe2	-0.069748156
112	0xf7	-0.020924447
113	0x18	0.055798523
114	0x1d	0.06742322
115	0xe9	-0.053473588
116	0x11	0.039523955
117	0xff	-0.0023249385
118	0xd8	-0.09299754
119	0xd1	-0.109272115
120	0x03	0.0069748154
121	0x0b	0.025574325
122	0xf8	-0.018599508
123	0xe3	-0.06742322
124	0xed	-0.044173833
125	0x08	0.018599508
126	0xfa	-0.013949631
127	0x23	0.08137285
128	0xf4	-0.027899262
129	0x23	0.08137285
130	0xec	-0.04649877
131	0xe0	-0.07439803
132	0xea	-0.05114865
133	0xf1	-0.034874078
134	0xdd	-0.08137285
135	0x0c	0.027899262
136	0x15	0.04882371
137	0x10	0.037199017
138	0x09	0.020924447
139	0xc6	-0.13484643
140	0x0a	0.023249386
141	0xcb	-0.12322174
142	0xce	-0.116246924
143	0xb6	-0.17204545
144	0x25	0.08602273
145	0x1b	0.06277334
146	0x00	0.0
147	0xe4	-0.06509828
148	0xf7	-0.020924447
149	0xf8	-0.018599508
150	0xfa	-0.013949631
151	0x09	0.020924447
152	0xfa	-0.013949631
153	0x00	0.0
154	0x31	0.113921985
155	0xcc	-0.1208968
156	0xfd	-0.0069748154
157	0x03	0.0069748154
158	0xea	-0.05114865
159	0x0d	0.0302242
160	0xca	-0.12554668
161	0x0e	0.03254914
162	0x06	0.013949631
163	0x0a	0.023249386
164	0x25	0.08602273
165	0x29	0.09532248
166	0xf3	-0.0302242
167	0xe8	-0.055798523
168	0x1f	0.072073095
169	0xed	-0.044173833
170	0xfd	-0.0069748154
171	0x03	0.0069748154
172	0xdc	-0.08369779
173	0x0c	0.027899262
174	0x1e	0.069748156
175	0x25	0.08602273
176	0x2c	0.1022973
177	0x1f	0.072073095
178	0xe4	-0.06509828
179	0xf5	-0.025574325
180	0xee	-0.041848894
181	0x25	0.08602273
182	0xe6	-0.0604484
183	0xbc	-0.15809582
184	0x2c	0.1022973
185	0xdc	-0.08369779
186	0x3b	0.13717137
187	0xff	-0.0023249385
188	0xf6	-0.023249386
189	0x33	0.11857186
190	0xf8	-0.018599508
191	0xe9	-0.053473588
192	0x39	0.1325215
193	0xe6	-0.0604484
194	0x29	0.09532248
195	0xeb	-0.04882371
196	0xdf	-0.07672297
197	0x0c	0.027899262
198	0xea	-0.05114865
199	0x25	0.08602273
200	0xf0	-0.037199017
201	0xfa	-0.013949631
202	0xd6	-0.09764742
203	0x1e	0.069748156
204	0x03	0.0069748154
205	0xe4	-0.06509828
206	0x01	0.0023249385
207	0x1a	0.0604484
208	0x07	0.01627457
209	0x16	0.05114865
210	0x21	0.07672297
211	0x26	0.088347666
212	0x15	0.04882371
213	0xf6	-0.023249386
214	0x22	0.07904791
215	0x25	0.08602273
216	0x30	0.111597046
217	0xe7	-0.058123462
218	0xf2	-0.03254914
219	0xe6	-0.0604484
220	0xde	-0.07904791
221	0xe1	-0.072073095
222	0x14	0.04649877
223	0x10	0.037199017
224	0x04	0.009299754
225	0xd8	-0.09299754
226	0x08	0.018599508
227	0x2e	0.106947176
228	0x18	0.055798523
229	0x03	0.0069748154
230	0x2b	0.09997236
231	0xed	-0.044173833
232	0x2b	0.09997236
233	0x10	0.037199017
234	0x3d	0.14182125
235	0x02	0.004649877
236	0x4f	0.18367015
237	0x12	0.041848894
238	0x32	0.116246924
239	0x13	0.044173833
240	0x0b	0.025574325
241	0xec	-0.04649877
242	0xfc	-0.009299754
243	0xd2	-0.106947176
244	0xe8	-0.055798523
245	0xec	-0.04649877
246	0x25	0.08602273
247	0xd9	-0.090672605
248	0x0d	0.0302242
249	0x01	0.0023249385
250	0xd4	-0.1022973
251	0xd4	-0.1022973
252	0x0c	0.027899262
253	0x14	0.04649877
254	0x15	0.04882371
255	0xe5	-0.06277334
