model/keypoint_classifier/keypoint_classifier.tflite (tflite, 114072 bytes, 8 tensors)

sequential/lstm/Read_2/ReadVariableOp f4 [512]
00000000: 0acc bdbe 40c9 06bb c530 9c3c facc 4dbf
00000010: c297 433e 920e c0be 7a85 06be 3582 6abe
00000020: efe3 b63e 7e6e 55bd b93a eebd 196b b1be
00000030: 1dcf 913c ee01 d43e ae88 adbe 0b84 4b3e
00000040: 0716 4bbf 0b7b dc3e 2d8c 0bbe 9951 23bf
00000050: 1a0c 0cbe 1c07 ce3e 7c39 ea3f 0e6b d5ba
00000060: fdaf 763e 7d77 a33d 9fac 34bf f294 91be
00000070: bcec 403f 3bca 00bf ed6e 313d 1393 4d3f
00000080: 16b3 ca3e 44c5 72be c542 c03e b0d9 c93e
00000090: dd6f 073d d816 093f 0850 a6bd 13c0 00bf
000000a0: 4450 f6bd 7e75 05bf 8c7a e23e 7266 6d3f
000000b0: 48f7 613f f23f 293e 1edd 7c3f fa82 96be
000000c0: bc4a 863e 5a78 333e 0cb7 b23f b169 6a3f
000000d0: e1a4 973d 83d4 2b3f f27f fb3e 9363 bc3e
000000e0: f137 0bbd 0c34 13bf 02c5 a03d 4a60 f43e
000000f0: 1fcd 82be 7923 15bf 5bca 303a 1f92 9d3e
00000100: fcd5 a5bf 8568 0a40 e95a 90bf 805d 773e
00000110: 5551 cc3d 63d3 54bc 5939 c7bd eb42 723f
00000120: 53f7 06bf 008b 2ebf 26ea d9bc a539 8abe
00000130: 7e77 11be 5aab 1cbf 6c9d a4bd 5b95 0c3d
00000140: 68a2 8cbc 2315 0b3f 78f3 ff3d e605 d43d
00000150: 1221 063f 0e8e 193e 212a 37bf 4f22 84be
00000160: de03 043f faa4 34bf 8a40 893f 989a 4c3d
00000170: 86c7 cb3e 4d18 b9bf 67bc 653d 9b73 70bf
00000180: d8e3 e13e 7532 dcbe 69de 1ebf 145a 9abe
00000190: 5807 b83e be64 dc3f c961 de3e 512a 09be
000001a0: 1ed6 8a3b 7f39 a9bd 99ba 503f d7de c03f
000001b0: 991f 273d 99aa d63e d371 803d 35f3 abbf
000001c0: 87f2 063f e28b 293f 4bed 423f bee5 d4bf
000001d0: 4c0c 87be 52b4 81bf 8751 60be 8bd7 093e
000001e0: 29b9 433f 61d8 863c dcd6 46bc 0520 4d40
000001f0: f693 acbc c95c 2340 3a06 8dbe 6732 443e
00000200: 0000 803f 0000 803f 0000 803f 0000 803f
00000210: 0000 803f 0000 803f 0000 803f 0000 803f
00000220: 0000 803f 0000 803f 0000 803f 0000 803f
00000230: 0000 803f 0000 803f 0000 803f 0000 803f
00000240: 0000 803f 0000 803f 0000 803f 0000 803f
00000250: 0000 803f 0000 803f 0000 803f 0000 803f
00000260: 0000 803f 0000 803f 0000 803f 0000 803f
00000270: 0000 803f 0000 803f 0000 803f 0000 803f
00000280: 0000 803f 0000 803f 0000 803f 0000 803f
00000290: 0000 803f 0000 803f 0000 803f 0000 803f
000002a0: 0000 803f 0000 803f 0000 803f 0000 803f
000002b0: 0000 803f 0000 803f 0000 803f 0000 803f
000002c0: 0000 803f 0000 803f 0000 803f 0000 803f
000002d0: 0000 803f 0000 803f 0000 803f 0000 803f
000002e0: 0000 803f 0000 803f 0000 803f 0000 803f
000002f0: 0000 803f 0000 803f 0000 803f 0000 803f
00000300: 0000 803f 0000 803f 0000 803f 0000 803f
00000310: 0000 803f 0000 803f 0000 803f 0000 803f
00000320: 0000 803f 0000 803f 0000 803f 0000 803f
00000330: 0000 803f 0000 803f 0000 803f 0000 803f
00000340: 0000 803f 0000 803f 0000 803f 0000 803f
00000350: 0000 803f 0000 803f 0000 803f 0000 803f
00000360: 0000 803f 0000 803f 0000 803f 0000 803f
00000370: 0000 803f 0000 803f 0000 803f 0000 803f
00000380: 0000 803f 0000 803f 0000 803f 0000 803f
00000390: 0000 803f 0000 803f 0000 803f 0000 803f
000003a0: 0000 803f 0000 803f 0000 803f 0000 803f
000003b0: 0000 803f 0000 803f 0000 803f 0000 803f
000003c0: 0000 803f 0000 803f 0000 803f 0000 803f
000003d0: 0000 803f 0000 803f 0000 803f 0000 803f
000003e0: 0000 803f 0000 803f 0000 803f 0000 803f
000003f0: 0000 803f 0000 803f 0000 803f 0000 803f
-0.37069732 -0.0020566732 0.019066224 -0.80390894 0.1910086 -0.37511116 -0.13136855 -0.22901233
0.35720775 -0.052107327 -0.11632294 -0.34652022 0.017798955 0.41407722 -0.3389334 0.19874589
-0.79330486 0.43062624 -0.13627692 -0.63796383 -0.13676491 0.402398 1.8298793 -0.0016282515
0.24090572 0.07981775 -0.705759 -0.2843395 0.7536123 -0.5030858 0.043318678 0.8030254
0.39589757 -0.23708063 0.3755094 0.39423895 0.033065666 0.5355048 -0.081207335 -0.5029308
-0.12027028 -0.52132404 0.4423412 0.92734444 0.88267946 0.165283 0.987749 -0.29396802
0.26228893 0.17526379 1.3962111 0.9156752 0.07404495 0.6712114 0.49121052 0.3679472
-0.033988897 -0.5750129 0.07850076 0.47729713 -0.2554712 -0.5825725 0.00067440205 0.30775544
-1.2955928 2.1626294 -1.1277744 0.24156761 0.0997645 -0.012989852 -0.09727735 0.9463336
-0.52721137 -0.6818085 -0.026600908 -0.26997104 -0.14205739 -0.6119896 -0.08037838 0.034322124
-0.017167285 0.5432913 0.1249761 0.103526875 0.5239421 0.14995596 -0.7154866 -0.25807425
0.515684 -0.70564234 1.0722821 0.04995212 0.39800662 -1.4460541 0.056087878 -0.939264
0.44119143 -0.43007246 -0.6205812 -0.3014685 0.35943103 1.7218244 0.4343398 -0.13395049
0.0042369505 -0.0826292 0.81534725 1.5068005 0.04080162 0.4192703 0.0627171 -1.3433596
0.5271382 0.6622907 0.7614333 -1.6632612 -0.2637657 -1.0133154 -0.219061 0.1346113
0.76454407 0.0164606 -0.012136187 3.2050793 -0.021066647 2.5525382 -0.27543813 0.19159852
1.0 1.0 1.0 1.0 1.0 1.0 1.0 1.0
1.0 1.0 1.0 1.0 1.0 1.0 1.0 1.0
1.0 1.0 1.0 1.0 1.0 1.0 1.0 1.0
1.0 1.0 1.0 1.0 1.0 1.0 1.0 1.0
1.0 1.0 1.0 1.0 1.0 1.0 1.0 1.0
1.0 1.0 1.0 1.0 1.0 1.0 1.0 1.0
1.0 1.0 1.0 1.0 1.0 1.0 1.0 1.0
1.0 1.0 1.0 1.0 1.0 1.0 1.0 1.0
1.0 1.0 1.0 1.0 1.0 1.0 1.0 1.0
1.0 1.0 1.0 1.0 1.0 1.0 1.0 1.0
1.0 1.0 1.0 1.0 1.0 1.0 1.0 1.0
1.0 1.0 1.0 1.0 1.0 1.0 1.0 1.0
1.0 1.0 1.0 1.0 1.0 1.0 1.0 1.0
1.0 1.0 1.0 1.0 1.0 1.0 1.0 1.0
1.0 1.0 1.0 1.0 1.0 1.0 1.0 1.0
1.0 1.0 1.0 1.0 1.0 1.0 1.0 1.0

sequential/dense/BiasAdd/ReadVariableOp f4 [64]
00000000: afb1 ecbd 400e cd3d 3388 5d3e b3dd 6c3e
00000010: 6d05 593c 7b51 8e3e 7e24 973e 05e7 803e
00000020: 84a2 39be 70d8 b83d 3e4c 253e de1e 36bc
00000030: 96c0 5bbc a05e 60be b794 ccbd 03a4 023f
00000040: 2de2 a5be 41ce 033e 40d0 943e de62 b93d
00000050: 2752 a53e 0c4c 643e 9b8b e83e 82d1 e93e
00000060: 1ef4 97be 4841 e7bd 4d80 063e d800 ab3e
00000070: 5176 24be 3eb4 a4bd 5cc0 c73c b28c e5bd
00000080: 57c5 493d 94b4 96bd d2e7 0d3f 1e7a 523d
00000090: 5996 2b3e 9f7e df3d b5bc 54be 82c1 f73d
000000a0: 68b2 50be ce3c e5bc d778 a4bd 4928 a03e
000000b0: 252d 453e 8efa 27be 972f eebd 684a 1dbe
000000c0: 1f4a c6bc 007b 033e b58f 80bd bc14 083f
000000d0: 4b92 803c 62f0 2bbe eda8 0ebe 320a 833e
000000e0: 0de1 5f3c 25ff 04bf 4e02 a7be bc49 fb3d
000000f0: 79b9 29be 23a9 38bc da32 cdbd 2df4 873e
-0.11557328 0.100124836 0.21633987 0.23131447 0.0132459225 0.2779654 0.2952003 0.25176254
-0.18128401 0.09025657 0.16142365 -0.011115758 -0.013412615 -0.21911097 -0.099893026 0.5103151
-0.3239912 0.12871648 0.29065132 0.090520605 0.3228924 0.22294635 0.4541901 0.45667654
-0.29678434 -0.11291748 0.1313488 0.3339908 -0.16060759 -0.08042191 0.024383716 -0.11208476
0.049260464 -0.07358661 0.55431855 0.05138599 0.16756572 0.10912823 -0.20775111 0.120974556
-0.20380557 -0.027983095 -0.08030861 0.31280735 0.19255503 -0.16404173 -0.11630171 -0.15360415
-0.024205266 0.1283989 -0.0627741 0.5315664 0.015694758 -0.16790918 -0.13931628 0.25593716
0.013664496 -0.5195182 -0.32618946 0.12269923 -0.16574658 -0.011270794 -0.10019465 0.2655348

sequential/dense_1/BiasAdd/ReadVariableOp f4 [76]
00000000: 3a78 963e 413f 97bc 0e60 06be eb99 783e
00000010: fa71 873e 5e8c 9abe 4c54 86be fd5c bc3d
00000020: bcca 563d e57e 97bc a8e1 c93d b3dc 413e
00000030: 977a a9bc c5b3 b8be 3e85 bcbe c0b3 a43d
00000040: adc6 8a3e 0a06 82be 29a9 a73e faf3 aa3d
00000050: e0b2 353e 8ba4 d23e 3ed9 b23e abb4 c63e
00000060: a89b c3be b136 0e3e 8bbe 6dbd 3d22 75be
00000070: 9b0a 823e a79c 403e 809c f73d 3bfc 14be
00000080: e201 763c ab39 69be 9394 eabe d647 bebe
00000090: d6d0 5e3d bf1f af3e a3f2 503e 9733 02bf
000000a0: 8ef6 b7be 0b9b 143c 57ed afbe bff7 a2be
000000b0: d81e 69be c55a 1abf cbb0 92be 6bcb 2a3e
000000c0: a0db 2fbd 5218 dbbd d908 a6bd f336 983e
000000d0: cdd5 8d3d c657 6d3d 5f15 03be e64a a93e
000000e0: fd35 78bc fd9a 783e 62f2 813e e49b 34be
000000f0: dcd8 fdbd a109 a7be ddfc c83d f5ea 3a3d
00000100: 3356 b3bc 7c66 d6be d17d 293e ebda 203e
00000110: 15cc 213e f8f1 173e 9095 403e ba4c b2bc
00000120: 4cb0 f13e a5d5 3e3c a58a 3abe 0613 99bd
0.293886 -0.018462779 -0.1312258 0.24277465 0.26454145 -0.30185217 -0.26236188 0.091974236
0.052439436 -0.018493125 0.09857494 0.18931846 -0.020688338 -0.36074653 -0.36820406 0.08042097
0.27104703 -0.25395232 0.32746246 0.08347316 0.17744017 0.4114116 0.34931368 0.38809714
-0.38204694 0.1388805 -0.058043044 -0.23938842 0.25398716 0.18809758 0.12090397 -0.14549343
0.015015097 -0.22775905 -0.45816478 -0.3716418 0.05439838 0.34203908 0.20405059 -0.5085997
-0.35930294 0.009070168 -0.34360763 -0.3182964 -0.22765672 -0.60294753 -0.28650507 0.1667916
-0.04293406 -0.10697998 -0.08107156 0.29729423 0.06925545 0.057945035 -0.12801121 0.33064955
-0.015149591 0.24277873 0.25380236 -0.17637593 -0.12394878 -0.32624534 0.09813855 0.04563423
-0.021891689 -0.41875064 0.16551901 0.1570851 0.15800507 0.14838398 0.18807054 -0.021765102
0.47204816 0.0116476165 -0.18216951 -0.074743316

sequential/dense/MatMul i1 [64, 128] scale=0.023427254 zero_point=0
00000000: f8e7 04fa 0812 fc00 06fe e002 04fc e3e6
00000010: fa0a e224 f507 f106 e818 0511 03fd eafd
00000020: 0620 10f8 ec0b 0e03 070d cf01 0014 f2fa
00000030: eff9 0422 0301 0e08 f7f8 f500 e505 f3f8
00000040: f8f9 29fa f8fd 27f7 f5f2 bb10 01ee 19b8
00000050: faf2 f9f8 0e02 ea05 fdfd f41a f905 0003
00000060: fbfd 0b07 fefa f201 0501 02fc 0212 fc0f
00000070: 1c06 e7e8 01f6 fffa e6ed 09f5 00f4 0506
00000080: f9e7 0a1a ebfc fcf4 fc05 04f0 02f5 e2fb
00000090: f00a ee0b fc00 18f7 0907 0e0b 1bf5 f5f7
000000a0: 0301 130d 1b05 e5f6 f7f8 ecfb f9fb ecf6
000000b0: fdfc 0804 08f5 19fe 181d 0802 21f8 ff0b
000000c0: 19da 04f7 f913 010b fa0e 2410 0910 f207
000000d0: 041d 030a f815 4cfd f805 03fa edfd 0303
000000e0: f811 f8ff 0208 09fe d304 18e1 10f3 fd0f
000000f0: 0402 f81b 0a08 fb00 00f5 f1f6 0ff1 ef02
-0.18741803 -0.5856813 0.093709014 -0.14056352 0.18741803 0.42169055 -0.093709014 0.0
0.14056352 -0.046854507 -0.7496721 0.046854507 0.093709014 -0.093709014 -0.6793904 -0.60910857
-0.14056352 0.23427254 -0.7028176 0.8433811 -0.2576998 0.16399078 -0.3514088 0.14056352
-0.5622541 0.5622541 0.11713627 0.3982633 0.07028176 -0.07028176 -0.5153996 -0.07028176
0.14056352 0.7496721 0.37483606 -0.18741803 -0.46854508 0.2576998 0.32798156 0.07028176
0.16399078 0.30455428 -1.1479354 0.023427254 0.0 0.46854508 -0.32798156 -0.14056352
-0.3982633 -0.16399078 0.093709014 0.7965266 0.07028176 0.023427254 0.32798156 0.18741803
-0.21084528 -0.18741803 -0.2576998 0.0 -0.6325359 0.11713627 -0.30455428 -0.18741803
-0.18741803 -0.16399078 0.9605174 -0.14056352 -0.18741803 -0.07028176 0.9136629 -0.21084528
-0.2576998 -0.32798156 -1.6164805 0.37483606 0.023427254 -0.42169055 0.5856813 -1.6867622
-0.14056352 -0.32798156 -0.16399078 -0.18741803 0.32798156 0.046854507 -0.5153996 0.11713627
-0.07028176 -0.07028176 -0.28112704 0.60910857 -0.16399078 0.11713627 0.0 0.07028176
-0.11713627 -0.07028176 0.2576998 0.16399078 -0.046854507 -0.14056352 -0.32798156 0.023427254
0.11713627 0.023427254 0.046854507 -0.093709014 0.046854507 0.42169055 -0.093709014 0.3514088
0.6559631 0.14056352 -0.5856813 -0.5622541 0.023427254 -0.23427254 -0.023427254 -0.14056352
-0.60910857 -0.44511783 0.21084528 -0.2576998 0.0 -0.28112704 0.11713627 0.14056352
-0.16399078 -0.5856813 0.23427254 0.60910857 -0.49197233 -0.093709014 -0.093709014 -0.28112704
-0.093709014 0.11713627 0.093709014 -0.37483606 0.046854507 -0.2576998 -0.7028176 -0.11713627
-0.37483606 0.23427254 -0.42169055 0.2576998 -0.093709014 0.0 0.5622541 -0.21084528
0.21084528 0.16399078 0.32798156 0.2576998 0.6325359 -0.2576998 -0.2576998 -0.21084528
0.07028176 0.023427254 0.44511783 0.30455428 0.6325359 0.11713627 -0.6325359 -0.23427254
-0.21084528 -0.18741803 -0.46854508 -0.11713627 -0.16399078 -0.11713627 -0.46854508 -0.23427254
-0.07028176 -0.093709014 0.18741803 0.093709014 0.18741803 -0.2576998 0.5856813 -0.046854507
0.5622541 0.6793904 0.18741803 0.046854507 0.77309936 -0.18741803 -0.023427254 0.2576998
0.5856813 -0.89023566 0.093709014 -0.21084528 -0.16399078 0.44511783 0.023427254 0.2576998
-0.14056352 0.32798156 0.8433811 0.37483606 0.21084528 0.37483606 -0.32798156 0.16399078
0.093709014 0.6793904 0.07028176 0.23427254 -0.18741803 0.49197233 1.7804713 -0.07028176
-0.18741803 0.11713627 0.07028176 -0.14056352 -0.44511783 -0.07028176 0.07028176 0.07028176
-0.18741803 0.3982633 -0.18741803 -0.023427254 0.046854507 0.18741803 0.21084528 -0.046854507
-1.0542264 0.093709014 0.5622541 -0.72624487 0.37483606 -0.30455428 -0.07028176 0.3514088
0.093709014 0.046854507 -0.18741803 0.6325359 0.23427254 0.18741803 -0.11713627 0.0
0.0 -0.2576998 -0.3514088 -0.23427254 0.3514088 -0.3514088 -0.3982633 0.046854507

sequential/dense_1/MatMul i1 [76, 64] scale=0.023616785 zero_point=0
00000000: bafd 0909 0ccb 04ab 0cfa e4f1 f2eb 0709
00000010: 04aa b5fe d503 0a17 efb4 0bcf 08f9 10b9
00000020: f5c5 eab1 0ad0 d2ec 0bf4 010a 03ed abe2
00000030: 09db aae4 d70a f8d8 0bc5 0ef7 05e2 e4f1
00000040: 0eaa 1208 0abb fbfd e6e0 06e1 b9fe f50e
00000050: 00ca 0dcf 0eca 0c04 05be 0514 ce0a e5e0
00000060: 0b0e ecb3 fbbf f9ed b907 02e1 eb1e b2b9
00000070: ffce c50e eefe fef7 0810 fae0 dac3 fbf6
00000080: 0902 feec ca05 d1f8 06db 08f0 07fa 04c2
00000090: e90c df05 0400 d9ff 080c b601 daf1 d901
000000a0: 040c 0a0a d5e8 06e7 f60b fece 00fe 0805
000000b0: fbf6 08ff fef5 df04 fc06 0ed2 0e07 e8f3
000000c0: fa0e edc0 0804 0aea 0c09 defe 07b4 0adf
000000d0: f413 f3f5 0efd c3dd efed 03b1 0b01 d7db
000000e0: fbd8 f609 e9ba ddc8 0904 db03 03d1 d8fe
000000f0: 09dd 090d cbff feb8 06cb 0ad0 09f2 070a
-1.653175 -0.07085036 0.21255107 0.21255107 0.28340143 -1.2516897 0.09446714 -2.0074267
0.28340143 -0.14170071 -0.66126996 -0.35425177 -0.33063498 -0.4959525 0.16531749 0.21255107
0.09446714 -2.0310435 -1.7712588 -0.04723357 -1.0155218 0.07085036 0.23616785 0.54318607
-0.40148535 -1.7948756 0.25978464 -1.1572225 0.18893428 -0.16531749 0.37786856 -1.6767918
-0.25978464 -1.3933903 -0.5195693 -1.865726 0.23616785 -1.1336057 -1.0863721 -0.4723357
0.25978464 -0.28340143 0.023616785 0.23616785 0.07085036 -0.4487189 -2.0074267 -0.70850354
0.21255107 -0.8738211 -2.0310435 -0.66126996 -0.9682882 0.23616785 -0.18893428 -0.9446714
0.25978464 -1.3933903 0.33063498 -0.21255107 0.118083924 -0.70850354 -0.66126996 -0.35425177
0.33063498 -2.0310435 0.42510214 0.18893428 0.23616785 -1.6295582 -0.118083924 -0.07085036
-0.61403644 -0.7557371 0.14170071 -0.73212034 -1.6767918 -0.04723357 -0.25978464 0.33063498
0.0 -1.2753063 0.30701822 -1.1572225 0.33063498 -1.2753063 0.28340143 0.09446714
0.118083924 -1.5587078 0.118083924 0.4723357 -1.1808393 0.23616785 -0.6376532 -0.7557371
0.25978464 0.33063498 -0.4723357 -1.8184924 -0.118083924 -1.535091 -0.16531749 -0.4487189
-1.6767918 0.16531749 0.04723357 -0.73212034 -0.4959525 0.70850354 -1.8421092 -1.6767918
-0.023616785 -1.1808393 -1.3933903 0.33063498 -0.42510214 -0.04723357 -0.04723357 -0.21255107
0.18893428 0.37786856 -0.14170071 -0.7557371 -0.8974378 -1.4406239 -0.118083924 -0.23616785
0.21255107 0.04723357 -0.04723357 -0.4723357 -1.2753063 0.118083924 -1.1099889 -0.18893428
0.14170071 -0.8738211 0.18893428 -0.37786856 0.16531749 -0.14170071 0.09446714 -1.4642407
-0.54318607 0.28340143 -0.7793539 0.118083924 0.09446714 0.0 -0.9210546 -0.023616785
0.18893428 0.28340143 -1.7476422 0.023616785 -0.8974378 -0.35425177 -0.9210546 0.023616785
0.09446714 0.28340143 0.23616785 0.23616785 -1.0155218 -0.56680286 0.14170071 -0.59041965
-0.23616785 0.25978464 -0.04723357 -1.1808393 0.0 -0.04723357 0.18893428 0.118083924
-0.118083924 -0.23616785 0.18893428 -0.023616785 -0.04723357 -0.25978464 -0.7793539 0.09446714
-0.09446714 0.14170071 0.33063498 -1.0863721 0.33063498 0.16531749 -0.56680286 -0.30701822
-0.14170071 0.33063498 -0.4487189 -1.5114743 0.18893428 0.09446714 0.23616785 -0.5195693
0.28340143 0.21255107 -0.8029707 -0.04723357 0.16531749 -1.7948756 0.23616785 -0.7793539
-0.28340143 0.4487189 -0.30701822 -0.25978464 0.33063498 -0.07085036 -1.4406239 -0.8265875
-0.40148535 -0.4487189 0.07085036 -1.865726 0.25978464 0.023616785 -0.9682882 -0.8738211
-0.118083924 -0.9446714 -0.23616785 0.21255107 -0.54318607 -1.653175 -0.8265875 -1.3225399
0.21255107 0.09446714 -0.8738211 0.07085036 0.07085036 -1.1099889 -0.9446714 -0.04723357
0.21255107 -0.8265875 0.21255107 0.30701822 -1.2516897 -0.023616785 -0.04723357 -1.7004086
0.14170071 -1.2516897 0.23616785 -1.1336057 0.21255107 -0.33063498 0.16531749 0.23616785

sequential/lstm/Read_2/ReadVariableOp1 f4 [512]
00000000: 0acc bdbe 40c9 06bb c530 9c3c facc 4dbf
00000010: c297 433e 920e c0be 7a85 06be 3582 6abe
00000020: efe3 b63e 7e6e 55bd b93a eebd 196b b1be
00000030: 1dcf 913c ee01 d43e ae88 adbe 0b84 4b3e
00000040: 0716 4bbf 0b7b dc3e 2d8c 0bbe 9951 23bf
00000050: 1a0c 0cbe 1c07 ce3e 7c39 ea3f 0e6b d5ba
00000060: fdaf 763e 7d77 a33d 9fac 34bf f294 91be
00000070: bcec 403f 3bca 00bf ed6e 313d 1393 4d3f
00000080: 16b3 ca3e 44c5 72be c542 c03e b0d9 c93e
00000090: dd6f 073d d816 093f 0850 a6bd 13c0 00bf
000000a0: 4450 f6bd 7e75 05bf 8c7a e23e 7266 6d3f
000000b0: 48f7 613f f23f 293e 1edd 7c3f fa82 96be
000000c0: bc4a 863e 5a78 333e 0cb7 b23f b169 6a3f
000000d0: e1a4 973d 83d4 2b3f f27f fb3e 9363 bc3e
000000e0: f137 0bbd 0c34 13bf 02c5 a03d 4a60 f43e
000000f0: 1fcd 82be 7923 15bf 5bca 303a 1f92 9d3e
00000100: fcd5 a5bf 8568 0a40 e95a 90bf 805d 773e
00000110: 5551 cc3d 63d3 54bc 5939 c7bd eb42 723f
00000120: 53f7 06bf 008b 2ebf 26ea d9bc a539 8abe
00000130: 7e77 11be 5aab 1cbf 6c9d a4bd 5b95 0c3d
00000140: 68a2 8cbc 2315 0b3f 78f3 ff3d e605 d43d
00000150: 1221 063f 0e8e 193e 212a 37bf 4f22 84be
00000160: de03 043f faa4 34bf 8a40 893f 989a 4c3d
00000170: 86c7 cb3e 4d18 b9bf 67bc 653d 9b73 70bf
00000180: d8e3 e13e 7532 dcbe 69de 1ebf 145a 9abe
00000190: 5807 b83e be64 dc3f c961 de3e 512a 09be
000001a0: 1ed6 8a3b 7f39 a9bd 99ba 503f d7de c03f
000001b0: 991f 273d 99aa d63e d371 803d 35f3 abbf
000001c0: 87f2 063f e28b 293f 4bed 423f bee5 d4bf
000001d0: 4c0c 87be 52b4 81bf 8751 60be 8bd7 093e
000001e0: 29b9 433f 61d8 863c dcd6 46bc 0520 4d40
000001f0: f693 acbc c95c 2340 3a06 8dbe 6732 443e
00000200: 0000 803f 0000 803f 0000 803f 0000 803f
00000210: 0000 803f 0000 803f 0000 803f 0000 803f
00000220: 0000 803f 0000 803f 0000 803f 0000 803f
00000230: 0000 803f 0000 803f 0000 803f 0000 803f
00000240: 0000 803f 0000 803f 0000 803f 0000 803f
00000250: 0000 803f 0000 803f 0000 803f 0000 803f
00000260: 0000 803f 0000 803f 0000 803f 0000 803f
00000270: 0000 803f 0000 803f 0000 803f 0000 803f
00000280: 0000 803f 0000 803f 0000 803f 0000 803f
00000290: 0000 803f 0000 803f 0000 803f 0000 803f
000002a0: 0000 803f 0000 803f 0000 803f 0000 803f
000002b0: 0000 803f 0000 803f 0000 803f 0000 803f
000002c0: 0000 803f 0000 803f 0000 803f 0000 803f
000002d0: 0000 803f 0000 803f 0000 803f 0000 803f
000002e0: 0000 803f 0000 803f 0000 803f 0000 803f
000002f0: 0000 803f 0000 803f 0000 803f 0000 803f
00000300: 0000 803f 0000 803f 0000 803f 0000 803f
00000310: 0000 803f 0000 803f 0000 803f 0000 803f
00000320: 0000 803f 0000 803f 0000 803f 0000 803f
00000330: 0000 803f 0000 803f 0000 803f 0000 803f
00000340: 0000 803f 0000 803f 0000 803f 0000 803f
00000350: 0000 803f 0000 803f 0000 803f 0000 803f
00000360: 0000 803f 0000 803f 0000 803f 0000 803f
00000370: 0000 803f 0000 803f 0000 803f 0000 803f
00000380: 0000 803f 0000 803f 0000 803f 0000 803f
00000390: 0000 803f 0000 803f 0000 803f 0000 803f
000003a0: 0000 803f 0000 803f 0000 803f 0000 803f
000003b0: 0000 803f 0000 803f 0000 803f 0000 803f
000003c0: 0000 803f 0000 803f 0000 803f 0000 803f
000003d0: 0000 803f 0000 803f 0000 803f 0000 803f
000003e0: 0000 803f 0000 803f 0000 803f 0000 803f
000003f0: 0000 803f 0000 803f 0000 803f 0000 803f
-0.37069732 -0.0020566732 0.019066224 -0.80390894 0.1910086 -0.37511116 -0.13136855 -0.22901233
0.35720775 -0.052107327 -0.11632294 -0.34652022 0.017798955 0.41407722 -0.3389334 0.19874589
-0.79330486 0.43062624 -0.13627692 -0.63796383 -0.13676491 0.402398 1.8298793 -0.0016282515
0.24090572 0.07981775 -0.705759 -0.2843395 0.7536123 -0.5030858 0.043318678 0.8030254
0.39589757 -0.23708063 0.3755094 0.39423895 0.033065666 0.5355048 -0.081207335 -0.5029308
-0.12027028 -0.52132404 0.4423412 0.92734444 0.88267946 0.165283 0.987749 -0.29396802
0.26228893 0.17526379 1.3962111 0.9156752 0.07404495 0.6712114 0.49121052 0.3679472
-0.033988897 -0.5750129 0.07850076 0.47729713 -0.2554712 -0.5825725 0.00067440205 0.30775544
-1.2955928 2.1626294 -1.1277744 0.24156761 0.0997645 -0.012989852 -0.09727735 0.9463336
-0.52721137 -0.6818085 -0.026600908 -0.26997104 -0.14205739 -0.6119896 -0.08037838 0.034322124
-0.017167285 0.5432913 0.1249761 0.103526875 0.5239421 0.14995596 -0.7154866 -0.25807425
0.515684 -0.70564234 1.0722821 0.04995212 0.39800662 -1.4460541 0.056087878 -0.939264
0.44119143 -0.43007246 -0.6205812 -0.3014685 0.35943103 1.7218244 0.4343398 -0.13395049
0.0042369505 -0.0826292 0.81534725 1.5068005 0.04080162 0.4192703 0.0627171 -1.3433596
0.5271382 0.6622907 0.7614333 -1.6632612 -0.2637657 -1.0133154 -0.219061 0.1346113
0.76454407 0.0164606 -0.012136187 3.2050793 -0.021066647 2.5525382 -0.27543813 0.19159852
1.0 1.0 1.0 1.0 1.0 1.0 1.0 1.0
1.0 1.0 1.0 1.0 1.0 1.0 1.0 1.0
1.0 1.0 1.0 1.0 1.0 1.0 1.0 1.0
1.0 1.0 1.0 1.0 1.0 1.0 1.0 1.0
1.0 1.0 1.0 1.0 1.0 1.0 1.0 1.0
1.0 1.0 1.0 1.0 1.0 1.0 1.0 1.0
1.0 1.0 1.0 1.0 1.0 1.0 1.0 1.0
1.0 1.0 1.0 1.0 1.0 1.0 1.0 1.0
1.0 1.0 1.0 1.0 1.0 1.0 1.0 1.0
1.0 1.0 1.0 1.0 1.0 1.0 1.0 1.0
1.0 1.0 1.0 1.0 1.0 1.0 1.0 1.0
1.0 1.0 1.0 1.0 1.0 1.0 1.0 1.0
1.0 1.0 1.0 1.0 1.0 1.0 1.0 1.0
1.0 1.0 1.0 1.0 1.0 1.0 1.0 1.0
1.0 1.0 1.0 1.0 1.0 1.0 1.0 1.0
1.0 1.0 1.0 1.0 1.0 1.0 1.0 1.0

while/MatMul_11 i1 [512, 128] scale=0.0015042959 zero_point=0
00000000: c63d 131a 411d 1121 f508 f902 e82a 02e9
00000010: 00c8 f70a 2b2f 1d0e d928 bd0a bbe1 21ce
00000020: e4ff f506 0b0d 28f6 f8de 16f4 f3ff f8fb
00000030: d5e5 f3f4 0fce fe17 e512 1205 1ff9 0834
00000040: 2504 00e6 1004 e7f5 ffb9 0d14 fdcb edf0
00000050: e5dc 4538 20e4 1d0b 181a 2110 0610 d21c
00000060: f60c 19f9 120e dce7 f102 f4fe 0df2 2805
00000070: dee7 0d0f eaf2 2deb d9f4 d7e9 2f0b e50c
00000080: dff5 0b04 d5ea bee5 29df 27ef e0dd 1513
00000090: ff04 f6d7 0dfc db08 f2fb 41fb ea28 e8ec
000000a0: d3e3 ef00 0bea 0212 d50f 241c 1f16 0a22
000000b0: 21de cbfc ebf0 181f 2805 e20b ed18 e80e
000000c0: fde1 2b14 04f7 211b 1e31 95ff c3e9 c1fe
000000d0: 0ac6 09e6 0c15 1e2f 3733 05f0 1be3 1754
000000e0: e6eb 291b f826 27f4 322b e123 f83d 070e
000000f0: 19e6 f1ff d23d f8dd 202b d1f0 f5eb fde4
-0.08724916 0.09176204 0.028581621 0.039111692 0.09777923 0.04362458 0.02557303 0.049641762
-0.016547255 0.012034367 -0.010530071 0.0030085917 -0.0361031 0.063180424 0.0030085917 -0.034598805
0.0 -0.08424057 -0.013538662 0.015042959 0.06468472 0.070701905 0.04362458 0.021060143
-0.058667537 0.060171835 -0.100787826 0.015042959 -0.103796415 -0.046633173 0.049641762 -0.075214796
-0.042120285 -0.0015042959 -0.016547255 0.009025775 0.016547255 0.019555846 0.060171835 -0.015042959
-0.012034367 -0.05114606 0.03309451 -0.01805155 -0.019555846 -0.0015042959 -0.012034367 -0.0075214794
-0.06468472 -0.040615987 -0.019555846 -0.01805155 0.022564437 -0.075214796 -0.0030085917 0.034598805
-0.040615987 0.027077325 0.027077325 0.0075214794 0.046633173 -0.010530071 0.012034367 0.078223385
0.055658948 0.0060171834 0.0 -0.039111692 0.024068734 0.0060171834 -0.037607398 -0.016547255
-0.0015042959 -0.106805004 0.019555846 0.030085918 -0.0045128874 -0.07972768 -0.028581621 -0.024068734
-0.040615987 -0.05415465 0.103796415 0.08424057 0.048137467 -0.042120285 0.04362458 0.016547255
0.0361031 0.039111692 0.049641762 0.024068734 0.009025775 0.024068734 -0.06919761 0.042120285
-0.015042959 0.01805155 0.037607398 -0.010530071 0.027077325 0.021060143 -0.05415465 -0.037607398
-0.022564437 0.0030085917 -0.01805155 -0.0030085917 0.019555846 -0.021060143 0.060171835 0.0075214794
-0.05114606 -0.037607398 0.019555846 0.022564437 -0.03309451 -0.021060143 0.067693315 -0.031590212
-0.058667537 -0.01805155 -0.06167613 -0.034598805 0.070701905 0.016547255 -0.040615987 0.01805155
-0.049641762 -0.016547255 0.016547255 0.0060171834 -0.06468472 -0.03309451 -0.099283524 -0.040615987
0.06167613 -0.049641762 0.058667537 -0.02557303 -0.048137467 -0.052650355 0.031590212 0.028581621
-0.0015042959 0.0060171834 -0.015042959 -0.06167613 0.019555846 -0.0060171834 -0.055658948 0.012034367
-0.021060143 -0.0075214794 0.09777923 -0.0075214794 -0.03309451 0.060171835 -0.0361031 -0.030085918
-0.067693315 -0.04362458 -0.02557303 0.0 0.016547255 -0.03309451 0.0030085917 0.027077325
-0.06468472 0.022564437 0.05415465 0.042120285 0.046633173 0.03309451 0.015042959 0.05114606
0.049641762 -0.05114606 -0.07972768 -0.0060171834 -0.031590212 -0.024068734 0.0361031 0.046633173
0.060171835 0.0075214794 -0.045128874 0.016547255 -0.028581621 0.0361031 -0.0361031 0.021060143
-0.0045128874 -0.046633173 0.06468472 0.030085918 0.0060171834 -0.013538662 0.049641762 0.040615987
0.045128874 0.073710494 -0.16095966 -0.0015042959 -0.09176204 -0.034598805 -0.09477064 -0.0030085917
0.015042959 -0.08724916 0.013538662 -0.039111692 0.01805155 0.031590212 0.045128874 0.070701905
0.08273627 0.07671909 0.0075214794 -0.024068734 0.040615987 -0.04362458 0.034598805 0.12636085
-0.039111692 -0.031590212 0.06167613 0.040615987 -0.012034367 0.057163242 0.058667537 -0.01805155
0.075214796 0.06468472 -0.046633173 0.052650355 -0.012034367 0.09176204 0.010530071 0.021060143
0.037607398 -0.039111692 -0.022564437 -0.0015042959 -0.06919761 0.09176204 -0.012034367 -0.052650355
0.048137467 0.06468472 -0.070701905 -0.024068734 -0.016547255 -0.031590212 -0.0045128874 -0.042120285

while/MatMul i1 [512, 40] scale=0.010944341 zero_point=0
00000000: ebf0 d7f8 e4f2 d9fb 14f8 08f8 eff6 d0eb
00000010: 2000 0ef4 e7ff c8fd 19f7 ff04 e711 dd11
00000020: 1108 0c0e 0a0c 1019 00f9 01f2 fbeb ede1
00000030: f5fc 01f9 f5ff f2f0 f202 fbe5 f3e6 ebe6
00000040: f503 f4f3 eeed eff1 f901 faf1 09ef 0ef9
00000050: 1105 2afe 42ff 3aef 0e0c 1d0a 0711 0807
00000060: 0c1b 1afd 08ff f108 0116 0d01 14f4 09f7
00000070: ff0a 0000 faf9 03ee ea03 f304 00f7 f6de
00000080: f003 f213 1307 2ae9 fb09 faf4 02ef 10f0
00000090: fb03 15ff 0f0d f317 06fe 0714 f61f f230
000000a0: e704 e7fc d7f5 d7f5 0efe 1000 fbf9 fef8
000000b0: 07f3 0204 f6fd fff9 05e5 18fa 1700 1908
000000c0: 07e2 13f6 18fc 1307 0cfc fbf9 fc06 01fd
000000d0: 13fa 1ff5 11ff 1bfa 22f4 10f2 1304 1307
000000e0: 25f6 16ea 07f7 05fc 26ef 22dd 1de0 1de5
000000f0: fcfd f400 f9f9 f30e 0518 fc07 f0fd f1f8
-0.22983117 -0.17510946 -0.44871798 -0.08755473 -0.30644155 -0.15322077 -0.4268293 -0.054721706
0.21888682 -0.08755473 0.08755473 -0.08755473 -0.1860538 -0.10944341 -0.5253284 -0.22983117
0.35021892 0.0 0.15322077 -0.1313321 -0.27360854 -0.010944341 -0.6128831 -0.032833025
0.27360854 -0.098499075 -0.010944341 0.043777365 -0.27360854 0.1860538 -0.38305193 0.1860538
0.1860538 0.08755473 0.1313321 0.15322077 0.10944341 0.1313321 0.17510946 0.27360854
0.0 -0.07661039 0.010944341 -0.15322077 -0.054721706 -0.22983117 -0.20794249 -0.3392746
-0.120387755 -0.043777365 0.010944341 -0.07661039 -0.120387755 -0.010944341 -0.15322077 -0.17510946
-0.15322077 0.021888683 -0.054721706 -0.2954972 -0.14227644 -0.28455287 -0.22983117 -0.28455287
-0.120387755 0.032833025 -0.1313321 -0.14227644 -0.19699815 -0.20794249 -0.1860538 -0.16416512
-0.07661039 0.010944341 -0.06566605 -0.16416512 0.098499075 -0.1860538 0.15322077 -0.07661039
0.1860538 0.054721706 0.45966235 -0.021888683 0.7223265 -0.010944341 0.6347718 -0.1860538
0.15322077 0.1313321 0.3173859 0.10944341 0.07661039 0.1860538 0.08755473 0.07661039
0.1313321 0.2954972 0.28455287 -0.032833025 0.08755473 -0.010944341 -0.16416512 0.08755473
0.010944341 0.24077551 0.14227644 0.010944341 0.21888682 -0.1313321 0.098499075 -0.098499075
-0.010944341 0.10944341 0.0 0.0 -0.06566605 -0.07661039 0.032833025 -0.19699815
-0.24077551 0.032833025 -0.14227644 0.043777365 0.0 -0.098499075 -0.10944341 -0.3721076
-0.17510946 0.032833025 -0.15322077 0.20794249 0.20794249 0.07661039 0.45966235 -0.25171986
-0.054721706 0.098499075 -0.06566605 -0.1313321 0.021888683 -0.1860538 0.17510946 -0.17510946
-0.054721706 0.032833025 0.22983117 -0.010944341 0.16416512 0.14227644 -0.14227644 0.25171986
0.06566605 -0.021888683 0.07661039 0.21888682 -0.10944341 0.3392746 -0.15322077 0.5253284
-0.27360854 0.043777365 -0.27360854 -0.043777365 -0.44871798 -0.120387755 -0.44871798 -0.120387755
0.15322077 -0.021888683 0.17510946 0.0 -0.054721706 -0.07661039 -0.021888683 -0.08755473
0.07661039 -0.14227644 0.021888683 0.043777365 -0.10944341 -0.032833025 -0.010944341 -0.07661039
0.054721706 -0.2954972 0.2626642 -0.06566605 0.25171986 0.0 0.27360854 0.08755473
0.07661039 -0.32833025 0.20794249 -0.10944341 0.2626642 -0.043777365 0.20794249 0.07661039
0.1313321 -0.043777365 -0.054721706 -0.07661039 -0.043777365 0.06566605 0.010944341 -0.032833025
0.20794249 -0.06566605 0.3392746 -0.120387755 0.1860538 -0.010944341 0.2954972 -0.06566605
0.3721076 -0.1313321 0.17510946 -0.15322077 0.20794249 0.043777365 0.20794249 0.07661039
0.40494063 -0.10944341 0.24077551 -0.24077551 0.07661039 -0.098499075 0.054721706 -0.043777365
0.41588497 -0.1860538 0.3721076 -0.38305193 0.3173859 -0.35021892 0.3173859 -0.2954972
-0.043777365 -0.032833025 -0.1313321 0.0 -0.07661039 -0.07661039 -0.14227644 0.15322077
0.054721706 0.2626642 -0.043777365 0.07661039 -0.17510946 -0.032833025 -0.16416512 -0.08755473
