model/keypoint_classifier/keypoint_classifier.tflite (tflite, 8604 bytes, 6 tensors)

sequential_1/dense_5/BiasAdd/ReadVariableOp f4 [50]
0	0x39c9a0e3	0.00038457577
1	0x39ce1a23	0.00039310855
2	0x39c25d9d	0.0003707231
3	0x39f22bd0	0.0004619048
4	0x39ccd827	0.00039070958
5	0x39c3394b	0.00037235985
6	0x39a40cb0	0.0003128997
7	0x399ee113	0.00030303802
8	0x39f14d56	0.00046024722
9	0x39b0a842	0.00033694698
10	0x39d86095	0.0004127069
11	0x39cc2bb9	0.00038942488
12	0x39c55780	0.0003763996
13	0x39a2622e	0.00030972197
14	0x39af7bab	0.0003347074
15	0x39cab874	0.0003866587
16	0x39d5664f	0.00040702752
17	0x39d792e7	0.00041117446
18	0x39d411f0	0.00040449155
19	0x399f5dab	0.0003039663
20	0x39de7d25	0.0004243638
21	0x39dd067f	0.00042157245
22	0x39b3fc63	0.00034329583
23	0x39d3f504	0.00040427607
24	0x39b7eb15	0.0003507963
25	0x399c58b6	0.00029820733
26	0x39dc00be	0.00041962223
27	0x39a1ca00	0.00030858815
28	0x39cccb8b	0.00039061563
29	0x39b608a9	0.00034720197
30	0x39be5ab3	0.000363072
31	0x39b25ec5	0.00034021414
32	0x39d11ce2	0.00039885106
33	0x39af3e0a	0.00033424824
34	0x39cfceb6	0.00039636128
35	0x39cde9df	0.00039274895
36	0x39cc3ce6	0.00038955285
37	0x3a0341bd	0.0005007049
38	0x39a3b858	0.0003122713
39	0x39bff276	0.00036611006
40	0x39d1b617	0.00039999254
41	0x39ae8e5d	0.00033293935
42	0x39e93f67	0.00044488462
43	0x39b21fb7	0.00033974435
44	0x399ff514	0.0003050944
45	0x39cebd5e	0.0003943247
46	0x39ba88f7	0.0003557873
47	0x39a4423d	0.0003132987
48	0x39eca6a9	0.000451376
49	0x39a1506c	0.00030768232

sequential_1/dense_4/BiasAdd/ReadVariableOp f4 [10]
0	0xbe53ca13	-0.20682554
1	0xbdd4c7ee	-0.10389696
2	0xbe0b19c6	-0.1358405
3	0xbe07e206	-0.13269815
4	0xbe175310	-0.1477778
5	0xbe0db574	-0.1383875
6	0xbe0f415d	-0.13989778
7	0xbe056a60	-0.1302886
8	0xbe19227e	-0.14954564
9	0xbe66d129	-0.22540726

sequential_1/dense_3/BiasAdd/ReadVariableOp f4 [20]
0	0xbd98dd9a	-0.07464142
1	0x3c0af4f5	0.008481254
2	0x3c92c1fb	0.017914763
3	0xbd4acbd0	-0.049510777
4	0xbd7ab60e	-0.061208777
5	0xbc9c1bcd	-0.019056225
6	0xbc167fc9	-0.00918574
7	0xbd6d264d	-0.057897855
8	0xbda631db	-0.08114978
9	0xbdbc0adf	-0.09181761
10	0xbd8e2fdc	-0.06942722
11	0xbd2cebfc	-0.04221724
12	0xbc9c99bf	-0.01911628
13	0xbceb1717	-0.028697534
14	0xb986cbbb	-0.00025710263
15	0xbc90bdba	-0.017668594
16	0xbd8a5cca	-0.06755979
17	0xbd453388	-0.048144847
18	0xbd972428	-0.07379943
19	0xbc91e9a3	-0.017811602

sequential_1/dense_3/MatMul f4 [20, 42]
0	0xbe22a622	-0.15883687
1	0xbe25192e	-0.16122887
2	0xbe129e81	-0.14318277
3	0xbe7e293a	-0.24820414
4	0x3e23c298	0.159922
5	0x3e260b05	0.16215141
6	0x3d76c794	0.060248926
7	0xbe841cc3	-0.25803193
8	0x3e252365	0.16126783
9	0x3e09dbbc	0.13462728
10	0x3deb4c54	0.11489168
11	0xbe97387d	-0.29535285
12	0x3d5cc5e8	0.053899676
13	0xbdc3de1c	-0.095638484
14	0xbcff5100	-0.031166553
15	0xbe49ea03	-0.19718175
16	0xbe629b2d	-0.22129507
17	0x3e618f1e	0.22027251
18	0xbcfbf761	-0.030757608
19	0xbe797933	-0.2436264
20	0xbbd55d89	-0.0065113944
21	0xbdffe1c3	-0.124942325
22	0x3cd2d803	0.025737768
23	0xbcebb61a	-0.028773356
24	0xbe5ab36e	-0.2135751
25	0x3dad7089	0.0846873
26	0xbe89fb67	-0.26949617
27	0x3e21c104	0.15796286
28	0x3e5e0376	0.21681008
29	0xbd837f2e	-0.06420742
30	0xbe6ab884	-0.2292195
31	0x3e47f4bc	0.19526953
32	0xbda068ec	-0.07832512
33	0x3d81ae9d	0.06332133
34	0xbae7b667	-0.0017678262
35	0xbd9e56af	-0.07731377
36	0x3e3c80f2	0.18408564
37	0xbe9fbcb7	-0.31198665
38	0x3e40c7e2	0.18826249
39	0xbe4ba894	-0.19888526
40	0x3d5da1ac	0.05410926
41	0xbd90fea0	-0.07079816
42	0x3cdb5a4d	0.026776457
43	0xbe970347	-0.29494688
44	0x3e468f1f	0.19390534
45	0x3d50f0d5	0.051010925
46	0xbe710e07	-0.23540507
47	0x3e290bc5	0.16508396
48	0xbe0446fd	-0.12917705
49	0xbe9c1310	-0.30483294
50	0x3e3a2974	0.18179876
51	0x3d3f49b1	0.046701137
52	0xbdfca3cd	-0.1233593
53	0xbe83e01c	-0.2575692
54	0x3decffbe	0.115722165
55	0xbe876b48	-0.26449037
56	0x3e184bd5	0.14872678
57	0xbe833067	-0.25622866
58	0xbe849215	-0.25892702
59	0xbe209405	-0.15681465
60	0x3e23e3a3	0.16004805
61	0x3e9797a7	0.2960789
62	0x3dc5a3b3	0.09650364
63	0x3e66b106	0.22528467
64	0xbe7513a8	-0.2393328
65	0xbe8cf1cd	-0.2752823
66	0xbb56a997	-0.0032754892
67	0xbdc81294	-0.097691685
68	0xbe941e46	-0.28929347
69	0x3e6a8cfa	0.22905341
70	0x3d9b8d02	0.075952545
71	0x3dce9376	0.1008672
72	0x3b844487	0.0040364894
73	0xbe56f019	-0.20990027
74	0xbe1bb3b7	-0.15205275
75	0xbe7dff2e	-0.24804375
76	0x3ca812c9	0.02051677
77	0x3e94468f	0.28960082
78	0x3db21029	0.086944886
79	0x3ce4d4b8	0.027933463
80	0xbd09d9bf	-0.033654924
81	0xbe49a143	-0.19690423
82	0x3aec4fa3	0.0018029105
83	0x3e10c789	0.14138617
84	0xbd88680f	-0.066604726
85	0x3e3aad15	0.18230088
86	0xbe00b0bd	-0.1256742
87	0x3e4b061b	0.19826548
88	0x3e90f251	0.28309873
89	0xbd64997f	-0.055810448
90	0xbe4faf40	-0.20281696
91	0xbda4dd62	-0.08050038
92	0x3d8aa915	0.06770531
93	0x3e8335db	0.25627026
94	0x3d590281	0.052980904
95	0xb958567d	-0.00020631585
96	0x3ad9f556	0.0016628902
97	0x3d826f89	0.0636893
98	0xbe08856f	-0.13332151
99	0xbe16f325	-0.1474119
100	0x3c60c6a0	0.013719231
101	0x3e92a878	0.28644156
102	0x3e7e2dd3	0.24822168
103	0xbe3837ff	-0.17990111
104	0xbd132c97	-0.035931196
105	0xbd49efa6	-0.049300812
106	0xbe823690	-0.25432253
107	0x3dc69cdd	0.09697888
108	0xbe651c42	-0.22374061
109	0xbe4b1cbd	-0.19835182
110	0x3e163d01	0.14671709
111	0xbe2cff06	-0.16894159
112	0xbe53ecd6	-0.20695814
113	0xbc07c513	-0.008286732
114	0x3e5f6142	0.21814445
115	0x3d823cf4	0.06359282
116	0x3e0fef9d	0.14056249
117	0xbe31e4e8	-0.17372477
118	0x3bc512c5	0.0060142004
119	0x3da296af	0.07938897
120	0x3db0f4b4	0.086404234
121	0x3e6defda	0.23236027
122	0xbe781ee0	-0.24230528
123	0x3e0ce758	0.13760126
124	0xbdc02aa5	-0.09383134
125	0x3e8aad99	0.2708557
126	0x3e28b05f	0.1647353
127	0xbd623b67	-0.05523243
128	0xbe3a11a4	-0.18170792
129	0x3c62bf14	0.013839502
130	0x3e7b08b5	0.2451504
131	0x3ccbe183	0.024887806
132	0x3e494fc4	0.19659334
133	0x3c63ac65	0.0138960825
134	0xbdfc567c	-0.12321183
135	0xbe56d945	-0.20981319
136	0x3e84608f	0.25854918
137	0xbeaaa88a	-0.3333171
138	0x3d555844	0.05208613
139	0xbd716700	-0.05893612
140	0xbe955b1f	-0.29171082
141	0x3e16bd46	0.1472064
142	0xbe09bd05	-0.13451011
143	0x3e06727a	0.13129607
144	0xbe9473b2	-0.2899452
145	0x3c6ed356	0.014576754
146	0x3d95a097	0.07306021
147	0xbe0ab142	-0.13544181
148	0x3dcf0f83	0.101103805
149	0xbe5a998e	-0.21347639
150	0xbd8bd4a6	-0.06827669
151	0x3de3f086	0.111298606
152	0x3df08dec	0.117458194
153	0x3d830330	0.06397092
154	0xbad621eb	-0.0016337013
155	0x3e15fea3	0.14647917
156	0xbd4fdc7c	-0.05074738
157	0x3db802cd	0.08984909
158	0xbd8981df	-0.06714224
159	0xbe39e1f8	-0.18152606
160	0xbd04e5e5	-0.032445807
161	0xbe608716	-0.21926531
162	0xbe860876	-0.2617833
163	0x3e4440ae	0.19165298
164	0xbe88d214	-0.26722777
165	0xbe54d1d5	-0.2078317
166	0x3d9cb2ac	0.076512665
167	0xbdfe6a6c	-0.12422642
168	0x3dad86b2	0.08472957
169	0x3dbfcb2b	0.09364923
170	0x3d600fdc	0.054702625
171	0xbe9d6339	-0.30739763
172	0xbdef2cac	-0.11678442
173	0x3dd1b542	0.1023965
174	0xbd9c6da2	-0.07638098
175	0xbe9407f3	-0.28912315
176	0xbe14ec91	-0.14543368
177	0x3e0dd966	0.13852462
178	0x3e3a2197	0.18176876
179	0xbd73d66d	-0.059530664
180	0xbd7560c2	-0.05990673
181	0x3dfa0495	0.12207905
182	0x3dd4aff2	0.103851214
183	0xbe6b3edc	-0.22973198
184	0xbeae43dc	-0.34036148
185	0x3e406787	0.18789493
186	0x3e1a0e92	0.1504462
187	0xbe1fbe73	-0.15599994
188	0x3da40ba4	0.08010033
189	0xbdebef90	-0.11520302
190	0x3e0793ae	0.13239929
191	0xbdcd0183	-0.10010054
192	0x3e30f514	0.1728099
193	0xbdd5185f	-0.10405039
194	0xbe652749	-0.22378267
195	0xbd1afb14	-0.037837103
196	0x3dbc607f	0.09198093
197	0x3de59480	0.11209965
198	0xbdb2b152	-0.087252274
199	0xbe7b781e	-0.2455754
200	0x3c91ed2c	0.017813288
201	0xbe2c488b	-0.16824548
202	0xbe4f8b7d	-0.20268054
203	0x3e32fd13	0.17479353
204	0x3e3b1655	0.18270238
205	0x3d0f1889	0.034935508
206	0xbe5f5d63	-0.21812968
207	0xbd7bcf08	-0.061476737
208	0xbe3afe13	-0.18260984
209	0x3de2c554	0.110727936
210	0x3cca17bd	0.024669522
211	0xbd295c89	-0.041348014
212	0x3d5251a5	0.051347394
213	0x3d16e4c6	0.03683927
214	0x3d2a3404	0.041553512
215	0x3e790706	0.24319085
216	0x3de62f95	0.11239544
217	0xbe9a3416	-0.30117863
218	0xbe6761a6	-0.22595844
219	0xbe3d0d7d	-0.18462177
220	0x3e13c0b6	0.14428982
221	0xbe22c2ac	-0.15894574
222	0x3e82d1c3	0.2555066
223	0xbe466688	-0.1937505
224	0x3c992663	0.018695062
225	0xbdf6c568	-0.12049371
226	0xbe973bcd	-0.29537812
227	0x3cefc9c3	0.029271012
228	0x3e6b13ac	0.22956723
229	0xbe34c9e0	-0.17655134
230	0xbe219872	-0.1578081
231	0xbe18ab3b	-0.14909069
232	0xbdf15725	-0.117841996
233	0xbe69a1b4	-0.22815591
234	0x3df25e39	0.11834378
235	0x3e4a6fa2	0.19769147
236	0x3e89363e	0.26799196
237	0x3e0a8054	0.13525516
238	0xbe6b28c5	-0.22964771
239	0xbe8f44ef	-0.2798228
240	0x3e71255b	0.23549406
241	0x3cd2af10	0.025718242
242	0xbe4f13a0	-0.2022233
243	0xbe51a1ab	-0.20471828
244	0xbdaf1f94	-0.08550945
245	0x3e3e02cc	0.18555754
246	0xbe9aec19	-0.30258253
247	0x3d2f6ff3	0.042831372
248	0xbce59770	-0.028026313
249	0x3e016985	0.12637909
250	0xbe051576	-0.12996468
251	0x3d0aa5ec	0.03384964
252	0x3e0721f3	0.13196544
253	0x3e61e823	0.2206121
254	0x3e8018bf	0.2501888
255	0x3d2a443a	0.041568972

sequential_1/dense_4/MatMul f4 [10, 20]
0	0x3e53508c	0.20636195
1	0xbe9ed190	-0.31019258
2	0xbedba081	-0.42895892
3	0x3e142c7f	0.14470099
4	0xbe1fee91	-0.1561835
5	0xbcadb738	-0.02120553
6	0x3df0b38a	0.11752994
7	0xbe1ef899	-0.1552452
8	0xbef1d961	-0.4723616
9	0xbe27ec10	-0.16398644
10	0x3e979ffc	0.29614246
11	0x3d09b498	0.033619493
12	0x3e9c5885	0.30536285
13	0xbea7c684	-0.32768643
14	0xbd1e91b0	-0.038713157
15	0xbe85ff33	-0.26171264
16	0x3e5826cf	0.21108554
17	0x3e8dc0e6	0.27686232
18	0xbea24655	-0.31694284
19	0x3d3ef1b8	0.04661724
20	0x3ec2f7bf	0.3807964
21	0xbd777b52	-0.06042034
22	0xbee0b4b5	-0.4388787
23	0xbe349b91	-0.17637469
24	0x3d9dfeab	0.0771459
25	0xbe63704c	-0.22210807
26	0xbe7de12a	-0.24792925
27	0x3eb4968d	0.3527111
28	0x3e909964	0.28242028
29	0x3cc2886c	0.023746692
30	0xbee60174	-0.44922984
31	0x3dcf7986	0.10130601
32	0x3d5cf4c1	0.053944353
33	0x3b897c61	0.0041957353
34	0x3e915370	0.2838397
35	0x3ceac3c1	0.028657796
36	0x3e2175ed	0.15767641
37	0xbeea44ae	-0.45755523
38	0x3dc35a6d	0.09538732
39	0x3d42da70	0.0475716
40	0xbe77eaeb	-0.24210708
41	0xbe64f641	-0.22359563
42	0xbe390189	-0.18066992
43	0xbb41b823	-0.0029559217
44	0x3e9ce961	0.30646804
45	0x3e37d4e9	0.17952313
46	0xbeb55517	-0.3541648
47	0x3eacd7d6	0.3375842
48	0x3e991456	0.29898328
49	0xbecf89a1	-0.4053469
50	0x3eb8d615	0.36100832
51	0x3ec91ca3	0.3927966
52	0x3e48d63c	0.19612974
53	0x3c699cb6	0.014258554
54	0x3d7fccbb	0.062451106
55	0xbea8e37e	-0.32986063
56	0xbea0bc6d	-0.31393757
57	0xbd45c2ec	-0.048281595
58	0x3d988cb6	0.074487135
59	0x3bffd470	0.007807307
60	0xbe87f588	-0.26554513
61	0xbe9ed573	-0.31022224
62	0xbeacfae0	-0.33785152
63	0xbdd7428a	-0.10510738
64	0xbdbe088d	-0.09278975
65	0x3e22597d	0.1585445
66	0xbeae7645	-0.34074607
67	0x3e7249d2	0.23660973
68	0x3e113c22	0.14183095
69	0x3e710cc7	0.2354003
70	0x3db550bf	0.08853292
71	0x3e91e71b	0.28496632
72	0xbc19711f	-0.009365349
73	0xbc933a78	-0.017972216
74	0xbedd02f7	-0.43166324
75	0xbd027ab4	-0.0318553
76	0x3ec958ad	0.39325467
77	0x3dfe778f	0.12425148
78	0xbdedf38e	-0.1161872
79	0x3d39513e	0.045243494
80	0xbe7a8344	-0.24464136
81	0xbebcf727	-0.36907312
82	0xbeca0408	-0.394562
83	0x3ea3ea17	0.32014534
84	0xbee9a43e	-0.4563312
85	0xbeb98674	-0.36235392
86	0x3d8d7e54	0.06908861
87	0x3e05f8c5	0.1308318
88	0xbd0b053b	-0.033940535
89	0xbdf7090e	-0.12062274
90	0x3e24a6a2	0.1607919
91	0x3d5adccc	0.053433225
92	0xbed2b132	-0.41150814
93	0x3e6d8b4a	0.23197666
94	0xbe293156	-0.16522726
95	0x3e51ecdc	0.20500511
96	0x3dce3134	0.100679785
97	0xbde280cb	-0.110597216
98	0x3dfa17f5	0.12211601
99	0x3e5e115a	0.21686307
100	0x3e32f81c	0.17477459
101	0x3df73b90	0.120719075
102	0xbedded68	-0.4334519
103	0xbece2250	-0.40260553
104	0x3ec10ab0	0.37703466
105	0xbed7a664	-0.42119133
106	0xbea1f0c8	-0.31629014
107	0x3e847a15	0.2587439
108	0x3ea188b9	0.31549624
109	0xbe70520b	-0.23468797
110	0xbe5bf165	-0.21478803
111	0xbe8558b5	-0.2604424
112	0xbd1231da	-0.035692073
113	0x3e922b37	0.28548595
114	0xbe8bd7af	-0.2731299
115	0xbe88e4e1	-0.2673712
116	0x3df9e910	0.12202656
117	0x3ecd599b	0.40107426
118	0x3e9470a8	0.289922
119	0x3ee16914	0.4402548
120	0x3e9b1d03	0.30295572
121	0xbed5c2b4	-0.4175011
122	0x3c84abe0	0.016195238
123	0xbc99f2d1	-0.018792542
124	0xbdc5bcfb	-0.09655186
125	0xbee1ffc1	-0.44140437
126	0xbda17019	-0.07882709
127	0x3ebfcec0	0.37462425
128	0xbe56d182	-0.20978358
129	0xbeab3f86	-0.33446902
130	0x3dc9375b	0.09825011
131	0xbdcd0377	-0.100104265
132	0x3e786998	0.24259031
133	0x3edb54ae	0.42838043
134	0x3e90b754	0.28264868
135	0x3e50510e	0.2034342
136	0x3e8eedaa	0.27915698
137	0x3e24d7c6	0.16097936
138	0x3d8d6dc4	0.06905702
139	0xbd4582e7	-0.04822054
140	0x3e7257d3	0.23666315
141	0x3e357d14	0.17723495
142	0xbe815016	-0.25256413
143	0xbeb012d1	-0.34389356
144	0xbe056a40	-0.13028812
145	0xbe18527d	-0.14875217
146	0xbe1ab6a9	-0.15108742
147	0x3e78c168	0.24292529
148	0xbed991ef	-0.4249415
149	0xbe34cd70	-0.17656493
150	0x3b6a76d9	0.0035776405
151	0x3e7c17d1	0.2461846
152	0x3eb25314	0.3482901
153	0x3e547c29	0.20750488
154	0xbe6e04d4	-0.2324403
155	0x3eceb8a3	0.40375242
156	0xbe673594	-0.22579032
157	0xbd2b0195	-0.041749556
158	0x3d7b6f71	0.061385576
159	0x3e2544bd	0.16139503
160	0xbeb989b6	-0.36237878
161	0x3dacd379	0.08438773
162	0x3d80c08c	0.062867254
163	0x3e18b913	0.1491435
164	0xbacb745e	-0.0015522351
165	0xbe4ab057	-0.19793831
166	0xbed57525	-0.41690937
167	0xbc908685	-0.017642269
168	0xbe82ba12	-0.25532585
169	0xbe0793b9	-0.13239945
170	0xbd44bae4	-0.048029795
171	0x3e37951a	0.17927971
172	0xbe86b3d6	-0.2630908
173	0xbe869d8b	-0.2629207
174	0xbea6244e	-0.32449573
175	0xbedcbde2	-0.4311362
176	0xbdcb9f10	-0.09942448
177	0x3e677a57	0.22605263
178	0xbec8fb87	-0.392544
179	0xbe6a1658	-0.22860086
180	0xbe8f375a	-0.27971917
181	0x3e1b4493	0.15162878
182	0x3dcf4939	0.10121388
183	0xbe0b1a2c	-0.13584203
184	0xbe765641	-0.24056341
185	0x3c2e87eb	0.010652523
186	0xbd9487b2	-0.07252444
187	0x3eba3648	0.36369538
188	0xbc136fc6	-0.008998817
189	0xbeb1774c	-0.3466133
190	0xbe1820f4	-0.1485632
191	0xbec39c0d	-0.38204995
192	0xbd8dad07	-0.06917768
193	0x3da4cbfc	0.080467194
194	0x3c464901	0.012102366
195	0xbe08e59f	-0.13368843
196	0x3ebae1c2	0.36500365
197	0x3e981b54	0.2970835
198	0xbe65819c	-0.22412723
199	0x3eaf2959	0.34211233

sequential_1/dense_5/MatMul f4 [50, 10]
0	0xbe7306cf	-0.23733066
1	0xbe135273	-0.1438692
2	0xbc7fa974	-0.015604366
3	0xbcd1e5c5	-0.025622258
4	0xbb23ee15	-0.0025013734
5	0x3dfb512a	0.1227134
6	0xbe5fc17f	-0.21851157
7	0xbe4a8df7	-0.19780718
8	0xbe0f18d7	-0.1397432
9	0xbe3046f1	-0.17214562
10	0x3e470221	0.19434406
11	0xbd96a77d	-0.073561646
12	0x3cb33aae	0.021878567
13	0xbe52b6f5	-0.20577605
14	0x3dcb820a	0.09936912
15	0xbd8fd940	-0.07023859
16	0x3d9cbf69	0.07653696
17	0xbe11f77e	-0.14254567
18	0x3d9bb25a	0.07602377
19	0xbb1ffb5f	-0.0024411303
20	0xbc144df7	-0.009051791
21	0x3e1bfd95	0.15233453
22	0xbe82016b	-0.25391707
23	0x3e70289f	0.23452996
24	0xbd312ec8	-0.043257505
25	0x3d07bc4c	0.03313856
26	0xbd75c90a	-0.06000618
27	0xbe4deb87	-0.20109378
28	0x3dfb4899	0.12269706
29	0x3e1858d5	0.14877637
30	0xbe8419c1	-0.258009
31	0x3e2d3cb9	0.16917695
32	0xbe84fbf5	-0.25973478
33	0xbe293f5c	-0.16528076
34	0xbe16d1ee	-0.1472852
35	0xbd7b9506	-0.061421417
36	0x3e1d163e	0.15340516
37	0xbd92ae5e	-0.07162164
38	0x3e9225c0	0.28544426
39	0xbccb1d01	-0.024794104
40	0x3c0dff22	0.008666785
41	0xbe4acbc0	-0.19804287
42	0x3e9cf200	0.3065338
43	0x3e706d25	0.23479135
44	0x3cfe7ea1	0.03106624
45	0xbe676d78	-0.22600353
46	0x3c8fc410	0.017549545
47	0x3de2651b	0.110544406
48	0x3c824ad4	0.015904821
49	0xbe2def2b	-0.16985767
50	0x3d67f90a	0.056633987
51	0x3d98552a	0.07438119
52	0x3e412ff1	0.18865944
53	0xbe36c960	-0.17850256
54	0xbe3cd51d	-0.18440671
55	0x3d3ac2bf	0.04559588
56	0xbe726c21	-0.2367406
57	0xbe900933	-0.28132018
58	0x3db6735d	0.089087225
59	0xbe801c7b	-0.2502173
60	0x3e3afd1a	0.18260613
61	0x3da747d1	0.08167995
62	0x3dbf04f1	0.093271144
63	0x3e0e4cb6	0.1389645
64	0xbc9be3e4	-0.019029565
65	0x3d9a1019	0.07522602
66	0xbe3285e2	-0.17433885
67	0x3d9942f0	0.074834704
68	0x3e917a6e	0.2841372
69	0xbe177f93	-0.1479476
70	0x3ceb14e8	0.028696492
71	0x3d193288	0.037401706
72	0x3e063ad1	0.13108374
73	0x3e4afca6	0.1982294
74	0xbe4e3b96	-0.20139918
75	0x3dd096d6	0.1018502
76	0xbcfa48f3	-0.030552363
77	0xbda9fc79	-0.083001085
78	0x3a683b0e	0.00088588975
79	0x3e26f38a	0.1630384
80	0xbe3a5e50	-0.1820004
81	0xbdaa22e9	-0.0830744
82	0xbe354d24	-0.17705208
83	0xbe31b537	-0.17354284
84	0x3e4813d6	0.19538817
85	0xbdf95e6f	-0.12176215
86	0xbe65d8c0	-0.22445965
87	0x3e8e5a31	0.27803186
88	0xbdbe8a64	-0.0930374
89	0xbce68bb0	-0.02814278
90	0x3e707416	0.23481783
91	0xbe7ebc86	-0.24876603
92	0x3dcd84ee	0.1003512
93	0x3e008f70	0.12554717
94	0xbe27bb67	-0.16380082
95	0x3e1a5687	0.1507207
96	0x3e901847	0.28143522
97	0xbe5a47b5	-0.21316417
98	0xbd9a1d98	-0.07525176
99	0xbe622913	-0.22085981
100	0xbd11d7a7	-0.035606053
101	0x3b4d06cf	0.0031284576
102	0x3d6ed92c	0.05831258
103	0x3e0bcd66	0.13652572
104	0xbdd57915	-0.10423485
105	0xbe56af32	-0.20965269
106	0x3bfd7d86	0.007735911
107	0xbe86c5ce	-0.26322788
108	0xbddda209	-0.108219214
109	0x3def06bf	0.116712086
110	0xbe174ee7	-0.14776193
111	0x3ca9fb9c	0.02074986
112	0xbda81f72	-0.08209123
113	0x3d6f964c	0.058492944
114	0xbe30183c	-0.17196745
115	0x3d42d6cc	0.047568128
116	0x3df0490d	0.11732683
117	0xbdd3d3c0	-0.103431225
118	0x3e102594	0.14076835
119	0xbde5258c	-0.11188802
120	0x3dbb3613	0.09141173
121	0xbda3398d	-0.07969961
122	0x3dc80496	0.097665
123	0xbe2d10ca	-0.16900936
124	0x3d9a832e	0.07544552
125	0x3d9191b4	0.07107869
126	0xbd6ce7d1	-0.057838265
127	0x3e871450	0.26382685
128	0x3de73f9f	0.11291432
129	0x3dca8078	0.09887785
130	0xbe0a964a	-0.13533893
131	0xbcf7afd1	-0.030235203
132	0x3c91e0e6	0.017807435
133	0xbbddd5fa	-0.0067698928
134	0x3dc68c2f	0.09694707
135	0x3e8e97d0	0.278502
136	0x3d55a162	0.05215586
137	0xbd306b16	-0.043070875
138	0xbe22abd5	-0.15885861
139	0x3df8a0f3	0.121400736
140	0x3e8ed6b9	0.27898195
141	0x3de1d631	0.11027182
142	0x3e45cfdb	0.19317572
143	0x3e6d91f4	0.23200208
144	0x3d59488d	0.053047705
145	0xbdea2dd5	-0.11434523
146	0xbddaeb8e	-0.1068946
147	0xbe161d60	-0.14659643
148	0xbd8342b9	-0.06409211
149	0xbd8be9dc	-0.068317145
150	0xbd1dd067	-0.038528826
151	0x3daec4e9	0.085336514
152	0xbd895b7e	-0.06706904
153	0xbb702ef4	-0.003664908
154	0x3d5597f1	0.052146856
155	0x3d8d6d73	0.069056414
156	0x3bf055e2	0.007334457
157	0x3e2cb941	0.16867544
158	0xbe67d978	-0.22641551
159	0xbe8196d8	-0.25310397
160	0x3e3e8b97	0.18607937
161	0x3dee6836	0.116409704
162	0x3dd00190	0.10156548
163	0xbe82ab46	-0.25521296
164	0xbde5fb67	-0.11229592
165	0xbd7e2a0e	-0.062051825
166	0xbc35a0d9	-0.011085712
167	0x3e75b220	0.2399373
168	0x3e688198	0.22705686
169	0xbcc813ce	-0.024423506
170	0xbe1946f2	-0.1496847
171	0xbdfdac3b	-0.12386366
172	0x3d8e3056	0.06942813
173	0x3e47a5a8	0.19496787
174	0xbe8c9b75	-0.27462354
175	0xbd2dfc55	-0.04247697
176	0x3e10de56	0.14147314
177	0x3e4eaa60	0.2018218
178	0x3da4543d	0.0802388
179	0xbe540e18	-0.20708501
180	0xbd81ee6b	-0.06344303
181	0x3e02746d	0.12739725
182	0x3e3fa89d	0.18716665
183	0x3bb32bef	0.005467884
184	0xbe860710	-0.26177263
185	0x3b33dac2	0.0027443622
186	0x3e4bc417	0.19899021
187	0x3e95adf8	0.2923429
188	0xbcd02a70	-0.02541086
189	0xbdcc5127	-0.09976416
190	0x3de11c7f	0.10991763
191	0xbe1917c4	-0.14950472
192	0x3ccf72ae	0.025323238
193	0xbe7cd6e4	-0.2469135
194	0x3e48fbc6	0.19627294
195	0x3e8977f2	0.26849324
196	0xbc15b607	-0.009137637
197	0x3d03e507	0.03220084
198	0xbe15fb6c	-0.14646691
199	0x3c8e7885	0.017391453
200	0x3df168ef	0.117875926
201	0xbdd9a39d	-0.1062691
202	0x3c37e350	0.011223629
203	0xbe7abfc9	-0.24487223
204	0x3e7045e7	0.23464166
205	0xbdd3137b	-0.1030645
206	0xbe3c5f8e	-0.18395826
207	0x3e97b585	0.29630676
208	0xbe4cd02e	-0.20001289
209	0xbdd044e0	-0.10169387
210	0x3d5387a6	0.051643036
211	0xbe508409	-0.20362867
212	0x3e99b469	0.30020455
213	0x3e016905	0.12637718
214	0x3e8478d3	0.25873432
215	0xbe7cadc8	-0.24675667
216	0x3e8a88b9	0.27057436
217	0x3e8908a3	0.26764402
218	0x3e8aaa2c	0.27082956
219	0x3e4e94e4	0.20173985
220	0x3d096aee	0.03354924
221	0x3e729590	0.23689866
222	0x3dff0bfc	0.12453458
223	0xbe35b684	-0.17745405
224	0xbe446a46	-0.19181165
225	0x3ddf921f	0.10916542
226	0x3da014f4	0.078164965
227	0xbdd26c39	-0.10274548
228	0xbe8911df	-0.26771447
229	0xbcac627e	-0.021043058
230	0xbe747bd8	-0.23875368
231	0x3db3ef94	0.0878593
232	0x3e1668fd	0.14688487
233	0xbd6ee668	-0.0583252
234	0x3e277b5c	0.16355652
235	0xbd3ec9a5	-0.046579022
236	0x3e286ad3	0.16447
237	0xbde1aac9	-0.11018903
238	0xbe7901ca	-0.24317089
239	0xbccbb782	-0.024867777
240	0xbdc843f2	-0.097785845
241	0xbd00451c	-0.031315908
242	0xbc829d67	-0.015944196
243	0xbd960468	-0.07325059
244	0x3e12eb5b	0.14347593
245	0x3e001b50	0.12510419
246	0x3dce24b6	0.10065596
247	0xbd22f38d	-0.03978305
248	0xbdacb955	-0.08433787
249	0x3e067a9f	0.13132714
250	0x3e1d053b	0.15334027
251	0x3e870082	0.26367575
252	0x3e110f06	0.14165887
253	0x3e849ce5	0.2590095
254	0xbd9d7a71	-0.076893695
255	0x3da650fc	0.08120915
